backend/ai_engine/models/lstm_wlan.pth (torch, 206053 bytes, 9 tensors)

lstm.weight_ih_l0 f4 [256, 1]
000000 00 48 d2 be 4d 93 cf be 1e f7 a5 be 9f e3 3f bd
       -0.41070557 -0.4054207 -0.32415098 -0.046847936
000010 7c 8c 10 be 62 2c fd 3b f9 90 1f bd 62 50 f5 3e
       -0.1411609 0.007726238 -0.038956616 0.4791289
000020 f2 0c 71 be 84 3a d0 be 02 8b 0d be a6 3f 60 be
       -0.23540094 -0.40669644 -0.13822559 -0.2189928
000030 73 02 b8 3e d2 5f a3 be 70 3c 7f 3d fd 5e 45 3e
       0.3593937 -0.31909043 0.062313497 0.19274516
000040 8b 37 e0 bc 53 43 b1 bd ea 89 26 3d 38 d8 ac 3d
       -0.027370235 -0.08655419 0.04065887 0.08439678
000050 b2 55 4e bd c0 21 c3 be d3 c4 81 be bd 96 c1 3e
       -0.050374694 -0.38111687 -0.25345477 0.37810317
000060 9a 23 3d 3d 8d 17 ed bd 76 87 3a be 88 46 c4 be
       0.04617653 -0.115767576 -0.18215737 -0.3833506
000070 11 43 dc 3e 27 f3 20 3e 72 d9 da be 4b 41 97 be
       0.43019918 0.15717755 -0.42744023 -0.29542002
000080 ad a9 16 3f 9d 9c e6 be 11 75 82 3e 41 b5 75 be
       0.58852655 -0.4504136 0.2547994 -0.23994924
000090 24 56 35 3d ac aa cd 3d a2 87 a7 3e 16 85 0d bf
       0.044271603 0.10042319 0.32720667 -0.552812
0000a0 70 4b 73 be cd da 8e 3d 7d f1 2c bf 0a 0a b3 3d
       -0.23759246 0.06975327 -0.6755598 0.08742149
0000b0 05 dd d5 3e 53 05 32 3e 93 e6 91 3e 48 42 46 3e
       0.41770187 0.17384844 0.28496227 0.19361222
0000c0 87 90 19 bf 32 61 25 3d 08 f4 d1 be 6a 33 3e 3d
       -0.59986156 0.040375896 -0.41006494 0.04643575
0000d0 80 02 3b 3e 6d 52 ad 3c 9f ac fe be 1c 79 86 be
       0.18262672 0.021157468 -0.49741074 -0.26264274
0000e0 2c 8c c5 bd 66 7e 07 bf 92 95 94 3e fb 7d 23 bf
       -0.09645876 -0.52927244 0.29020363 -0.63864106
0000f0 e5 a1 f4 be 9c 52 9c be 09 c3 55 be 0f 87 89 be
       -0.47779766 -0.30531776 -0.20875181 -0.26860854
000100 2e aa 26 bd 4a fb 62 3e 84 56 9b bd a6 c6 c2 3d
       -0.04068964 0.22166172 -0.07584861 0.095105454
000110 0e a9 50 bd 0e 8d 9f be e2 e4 f9 bd e3 ae 11 be
       -0.050942473 -0.31162304 -0.12201859 -0.1422687
000120 77 93 25 bd 1b f7 b1 bd 76 59 86 bd 68 a6 74 3d
       -0.040423837 -0.0868971 -0.06560032 0.05972901
000130 3f 9f a6 be f9 78 74 3e 2a 27 1f be 8a 0b 42 3c
       -0.3254337 0.23874272 -0.15542284 0.011843571
000140 b6 60 b6 be 7b bb 0a 3e 9e db 43 3e bf e8 10 be
       -0.3562066 0.1354808 0.19126746 -0.14151286
000150 da 06 0f bf 5a 9c 81 3b c4 6c 11 3e ad 85 2d bd
       -0.5586983 0.003955406 0.14201647 -0.04236381
000160 9b ca 80 3c 5b ce 20 bf 1f a4 4d be cc 87 59 be
       0.01572161 -0.62814873 -0.20082138 -0.21243209
000170 a2 92 8b be 5b e4 23 be 75 af 89 3e 83 06 c5 3d
       -0.2726031 -0.1600508 0.26891676 0.09620383
000180 1e 7f 17 bf ad 7c 4d be 38 d5 31 be 64 fb 74 bd
       -0.5917834 -0.20067091 -0.17366493 -0.059810057
000190 94 fb 66 be ef b0 09 3e 8c 8d 8b be 20 75 1e be
       -0.22556907 0.13446401 -0.2725643 -0.15474367
0001a0 b1 c6 16 bd fc 8b 39 3e b8 86 91 bd 75 af f1 3d
       -0.03681058 0.18119806 -0.07105774 0.11801044
0001b0 31 0b d9 be 22 c2 f9 be e5 dd af be 7a c6 56 be
       -0.4239135 -0.48780924 -0.3434898 -0.2097415
0001c0 a3 f4 e6 bd 5b d0 36 3e dc d5 64 3d 47 10 37 3e
       -0.112771295 0.17852919 0.055868015 0.17877303
0001d0 75 33 80 be 30 0a c8 bd 50 68 0d 3e d7 72 70 ba
       -0.2503926 -0.09767568 0.13809323 -0.0009172386
0001e0 18 c3 85 3e d7 76 fd 3b 97 a5 40 3e 2c 59 58 3e
       0.26125407 0.007735114 0.18813168 0.21127766
0001f0 4c aa 6b 3e 66 33 a6 be a3 30 fb 3d 30 bc ea 3d
       0.23014182 -0.3246109 0.12265136 0.11461675
000200 da 63 fb 3e 8c 6f 7e be db c5 69 bf cd 82 3d 3f
       0.49099618 -0.2484724 -0.9131753 0.7402771
000210 14 2a 54 3f 4b 5e 89 be fa 28 3d bf 33 42 09 3f
       0.82876706 -0.26829752 -0.7389065 0.53616637
000220 3c 42 4f 3e 79 fd b8 3e ab ae 39 bc d5 f8 e3 bd
       0.2024011 0.36130884 -0.011333148 -0.11131445
000230 1e 5c 01 3d c6 f4 7b bf 27 19 b5 bd cf df 6d be
       0.03158199 -0.9842037 -0.08842688 -0.23229907
000240 64 91 6b 3f 87 7c 34 be b4 3c 09 3e d7 ae 05 bf
       0.92018723 -0.17625628 0.13402063 -0.5221991
000250 41 18 90 3e 3e c4 b1 be aa 5a d3 be 69 91 03 3f
       0.28143504 -0.34720033 -0.4128011 0.51393753
000260 4e ef ff bb a7 cc 44 3f bb 2f 0c 3f ae b8 b8 bd
       -0.0078105098 0.76874775 0.5476033 -0.090196
000270 43 b2 4a 3e c6 ca 72 bd 95 23 e1 3e d3 3e 21 bf
       0.19794564 -0.05927541 0.4397246 -0.6298649
000280 77 d4 ac be 50 cc 4d 3f b8 16 14 3a 8a 49 3c bf
       -0.33755848 0.8038988 0.00056491373 -0.7354971
000290 0f 79 fd be 48 dd 6f 3e 5b 3d 35 3f 4f d6 24 bf
       -0.49506423 0.23424256 0.70796746 -0.6438951
0002a0 c8 a1 09 3f 08 68 21 3e f9 c4 4f bf 4f 54 cb bd
       0.53762484 0.15762341 -0.8115993 -0.0992819
0002b0 25 a3 d6 3e 60 d0 34 bf 64 35 af 3e 4e 0f 95 be
       0.41921344 -0.70630455 0.3422042 -0.2911324
0002c0 09 e2 86 3e c8 ad 0c 3e 35 f1 87 be 7f df 20 3f
       0.26344326 0.13738167 -0.26551214 0.6284103
0002d0 e2 9b bb 3e 07 f3 dc bc e4 53 38 3f b7 c7 88 3e
       0.36642367 -0.026971353 0.72003007 0.2671487
0002e0 f9 93 2c bd 02 02 52 bf 35 b2 18 be aa 30 21 3f
       -0.042133305 -0.82034314 -0.1491173 0.6296488
0002f0 f2 d8 83 bf ed c4 9f bf 40 78 72 be c8 67 01 bf
       -1.0300581 -1.2481972 -0.23678684 -0.5054898
000300 0c 16 95 be aa 3f 51 3d 75 77 57 3e e1 a1 83 bd
       -0.29118383 0.051086105 0.21041663 -0.0642736
000310 22 ad 9f be 10 cf 34 3e 66 08 5d 3e 95 67 ca 3e
       -0.31186777 0.17657113 0.21585235 0.39532152
000320 43 b8 5a be 47 b0 91 bc 25 36 93 be 9d c7 b2 be
       -0.21359353 -0.01778425 -0.28752246 -0.34917918
000330 b0 68 3d 3e 7a 5e 23 3e 94 4e a6 bd 53 7f a8 be
       0.18496966 0.15954009 -0.08120456 -0.3290964
000340 40 18 e6 be 75 be 0b 3b 69 48 9c 3c 2a 12 d9 3d
       -0.44940376 0.0021323238 0.019077497 0.10599168
000350 49 2c 84 bc 9a cf 57 be 88 09 5d bd 34 1f fd 3e
       -0.016134398 -0.21075287 -0.053964168 0.4943787
000360 c0 d3 57 3d 92 fa 82 bf 11 e1 09 be f3 ea ea be
       0.052692175 -1.0232718 -0.13464762 -0.45882377
000370 00 57 ec 3d fa d6 5d 3e a5 07 0a 3e 72 a6 07 bd
       0.115400314 0.21664038 0.13479479 -0.03311772
000380 23 a3 c0 3c ec ac c0 be a6 67 bb bd 5e 97 88 bd
       0.02351529 -0.3763193 -0.09150629 -0.06669496
000390 7f 9a 8f 3e 3e 62 2e 3e ef fb ad 3e c3 d9 0c bf
       0.2804756 0.17029664 0.33981273 -0.5501978
0003a0 4f ce 12 3d be e1 d7 3d 84 46 83 be a3 3d ea 3d
       0.035841282 0.10541104 -0.25639737 0.114375375
0003b0 bd d5 da 3e 26 6b 95 bd b4 2a 17 3e ef 63 30 3d
       0.42741194 -0.072958276 0.14762384 0.043064054
0003c0 20 9d 17 bf 23 27 2b 3d 38 c4 05 be 2c d0 9b 3e
       -0.5922413 0.04178537 -0.13063133 0.3043226
0003d0 b4 7c 5e bd 91 f8 d4 3b d5 64 c7 3d c6 d0 05 bd
       -0.054318145 0.006499358 0.09736029 -0.032669805
0003e0 f8 4c 23 be 2a da b5 be a4 ec 87 bd eb 6e 1e be
       -0.1594733 -0.35518008 -0.066369325 -0.15472
0003f0 74 62 6c 3e 1d ed d6 be 8f fb 82 bd 17 5a 15 3e
       0.23084432 -0.41977778 -0.06395637 0.14585148

lstm.weight_hh_l0 f4 [256, 64]
000000 05 07 bd be 99 29 ab 3e 19 78 35 3e 02 4a 9d 3b
       -0.36919418 0.33430174 0.17721595 0.004800082
000010 9d 67 67 be f7 1e 08 be e7 61 02 3e e4 e4 af 3d
       -0.22598119 -0.13293062 0.1273266 0.08588579
000020 b1 98 2e 3e 41 c0 5c 3d 48 c9 a2 be 8a a9 8c bd
       0.17050435 0.053894285 -0.3179419 -0.068682745
000030 e1 66 51 be 72 13 fe 3d 88 10 bc 3e ab eb 76 be
       -0.20449401 0.12406053 0.36731362 -0.24113338
000040 8c 9e 6a bd 3e 52 3c 3e 6b 35 a0 be 6b 20 39 3e
       -0.05728011 0.18390748 -0.31290755 0.18078773
000050 fd 8f af 3b 3e 43 69 3e 08 e5 17 3e 61 98 4f 3e
       0.005357741 0.22779557 0.14833462 0.20272972
000060 4a e5 8d be 83 6a f0 be a4 24 4f 3e 9c 13 8e 3e
       -0.27713996 -0.46956262 0.20228821 0.27749336
000070 1e 58 38 3d 3a 68 54 3d 7f d2 11 bf dc b9 fe 3e
       0.04500591 0.05185721 -0.56961817 0.49751174
000080 bd ee 56 bc f3 08 d5 be ac 80 1d be a6 0c 85 3e
       -0.013118443 -0.4160839 -0.15381116 0.25986212
000090 a3 d3 69 be 7e 14 83 bd df 48 af 3d 19 f6 dc 3e
       -0.22834639 -0.06400393 0.08558821 0.43156508
0000a0 2c a1 c1 be 79 f7 7c be 3a 5a c0 3e ee e7 3f be
       -0.37818277 -0.24703778 0.37568837 -0.18740818
0000b0 07 ef 2e 3e 2e fb 50 bc 0e d3 b5 3d 38 e7 68 be
       0.17083369 -0.012755198 0.08878146 -0.22744453
0000c0 e9 de c2 be 05 74 9f bc bb 2d 30 3e 8f 41 a1 be
       -0.38060692 -0.019464502 0.17204945 -0.3149533
0000d0 88 dc a4 3e 96 7d c1 be 07 49 54 be ad 3f 95 3e
       0.32199502 -0.37791127 -0.20730983 0.29150143
0000e0 5d ad a1 bc 98 52 68 3d c9 64 b5 bd 6d 52 35 be
       -0.019735986 0.056719393 -0.08857114 -0.17707224
0000f0 9f 99 86 3e 27 4f b6 3e c8 32 d9 3e 7e 1b dd 3e
       0.2628908 0.35607263 0.42421556 0.43185037
000100 bd 13 5a be db 44 24 be b4 46 74 3e b4 1e e9 3c
       -0.21296592 -0.16041891 0.23855096 0.028457023
000110 e6 e2 12 bc 94 67 16 3e 7e 67 a7 3e a4 e1 21 3e
       -0.00896523 0.1468795 0.32696146 0.15808731
000120 25 77 e0 3d 56 e7 90 3d fa f8 00 3e ad a8 1a 3d
       0.10960225 0.07075374 0.12594977 0.037758518
000130 c9 0f f6 bd ef 32 66 3e a2 a9 ff 3d 61 00 ad 3d
       -0.120147295 0.22480367 0.12483527 0.08447338
000140 d6 a5 7f 3e 30 24 53 3e 10 85 cf 3c 7d 9b 89 3e
       0.24965605 0.20619273 0.025332004 0.2687644
000150 b9 63 c5 be 17 f3 3a 3e b7 8f 94 3d 62 61 06 bf
       -0.38552645 0.18256794 0.07253974 -0.52492344
000160 d9 5d a7 bd 2d 80 a1 be 42 81 d6 3d 0f 1b 46 be
       -0.08172197 -0.31543103 0.10473873 -0.1934626
000170 a6 10 01 be 4d 8a 9d 3d 28 19 74 be 92 fb f6 bc
       -0.12604007 0.076923944 -0.23837721 -0.030149255
000180 f0 79 a8 3e 0e 4f 5b 3d 22 65 13 3e 98 07 15 3d
       0.3290553 0.05354219 0.14394048 0.036384195
000190 7a f3 f0 3d 36 9d b4 3c 31 37 c2 3b 7a a3 da 3e
       0.117651895 0.02204762 0.0059269895 0.42702848
0001a0 bb 9b 8c be 46 d6 e3 bd d8 47 8a 3d 77 9f 47 be
       -0.27462563 -0.11124854 0.06751984 -0.19494425
0001b0 4d eb 21 be 23 be 0a 3e 3b 2a 43 be 16 8c 38 3e
       -0.15812416 0.13549094 -0.19059078 0.18022189
0001c0 14 ba 7b 3a c8 b0 b2 be 73 69 f9 3d 9a ae ab bd
       0.0009602618 -0.34900498 0.12178316 -0.08382912
0001d0 0f 3c 89 be 6f 64 00 be 07 0c e3 3d a6 f9 0f bd
       -0.26803634 -0.12538312 0.110862784 -0.035150193
0001e0 88 e9 00 be 13 b9 0c 3e 13 fe 28 3e 69 a3 8e 3d
       -0.12589085 0.13742475 0.16503172 0.06964762
0001f0 34 34 00 3e 81 7d 44 be 36 f8 b2 bd 6f 3c c0 bd
       0.12519914 -0.19188501 -0.08738749 -0.09386527
000200 f0 ca 28 bf 51 8e 9d be 45 49 a9 bd 45 01 91 3d
       -0.6593466 -0.3077264 -0.08265928 0.0708032
000210 67 07 8d bc a2 2c 5c 3e a5 07 75 be 53 68 07 3f
       -0.017215444 0.21501401 -0.23928697 0.5289356
000220 77 1e 82 3e 28 04 b5 3e 9c 12 c0 3d 50 9b 71 be
       0.25413868 0.35354733 0.093785495 -0.23594403
000230 a1 63 48 be 3d f4 cc be 1b c8 82 3d 65 64 88 3e
       -0.19569255 -0.4003009 0.06385823 0.26639095
000240 c3 ef 6e bc 11 90 f4 3d 96 be 92 3e 24 cc 06 3e
       -0.014583531 0.11941541 0.2866103 0.13163811
000250 69 67 3d be 9d 66 8a bd 3c f8 6f 3e 11 e0 c3 bc
       -0.18496479 -0.06757853 0.23434538 -0.023910554
000260 b9 bf f3 3c ac 56 8a be d8 d0 1b 3e fa 66 23 be
       0.029754506 -0.2701925 0.15216386 -0.15957251
000270 23 43 24 be 84 b6 10 3e 21 58 9b be 7b 97 cb 3c
       -0.16041236 0.14132124 -0.30340675 0.024852505
000280 19 0f 03 3f a3 95 58 3e 91 6d 8e 3e 87 b9 30 3e
       0.5119491 0.21150832 0.27817968 0.17258273
000290 0f b1 81 be 99 a7 49 3e b3 f8 a5 3e 94 fd 60 3e
       -0.25330397 0.1969284 0.32416305 0.21971732
0002a0 21 1a 49 be 84 94 27 be 95 f9 4d 3d b9 b7 83 be
       -0.19638874 -0.16365248 0.050286848 -0.25726107
0002b0 58 2a af 3d e1 49 0d 3e 62 e5 fe 3c 0c 66 1e be
       0.08552998 0.13797714 0.031115238 -0.15468615
0002c0 5d 75 3b be c0 0a 31 3c 88 a4 8d bd 43 2f de 3e
       -0.1830649 0.010805786 -0.069161475 0.43395433
0002d0 74 65 7f 3e 4f 11 54 3d b5 60 66 3e 66 84 ee 3e
       0.24941045 0.05177432 0.22497828 0.46585387
0002e0 23 0d 4b be 63 87 76 be f2 c8 21 be cd 57 18 3e
       -0.1982923 -0.24075083 -0.15799311 0.14877243
0002f0 e8 14 10 be 7d 1b 49 bd be e8 c5 3e 27 07 24 be
       -0.14070475 -0.04909848 0.3865413 -0.16018353
000300 00 9b 54 be 37 13 75 be 1f bc 3e bd c0 7f de 3d
       -0.20762253 -0.23933111 -0.046566125 0.1086421
000310 b7 ce 3a 3e c2 4f c0 3e ab 31 18 be dc 6c d7 3e
       0.18242918 0.3756085 -0.14862697 0.4207524
000320 02 a7 02 3e f6 fb 46 3e 96 12 00 3e fd 68 42 be
       0.12759021 0.19432053 0.1250709 -0.18985362
000330 bf 5a 0b be aa 30 3a be 13 3b fd bd 84 2e 99 3e
       -0.13608836 -0.18182626 -0.12364783 0.299183
000340 d1 c5 9e 3d 4c a3 39 bb 36 8d a7 3e 56 1a 94 3d
       0.07752574 -0.0028326092 0.32724923 0.07231586
000350 21 ac 25 be 70 fd 19 3c 09 70 95 3e 3f 20 08 be
       -0.16178943 0.009398803 0.2918704 -0.13293551
000360 c2 88 0f 3e 87 59 f4 bd 63 fe 5b 3e aa ea 91 be
       0.14017013 -0.119311385 0.2148376 -0.28499347
000370 d9 bd 9e be 13 60 68 3e a7 e4 e3 bd 78 0b c3 bc
       -0.31004217 0.226929 -0.11127596 -0.02380918
000380 56 3a 16 3f 92 5d 26 3e 50 3b b0 3e c4 bd 98 3d
       0.58682764 0.16246632 0.34420252 0.0745807
000390 ae 77 4d be 5a 4c 38 3e bd c0 0b bc 0b 0b fd 3c
       -0.20065185 0.17997876 -0.008529839 0.030889055
0003a0 5a 10 64 bd 4e bc 45 3e b2 72 49 bd f4 ed 2d be
       -0.055679657 0.19310114 -0.049181648 -0.16985303
0003b0 68 77 0f be 8e cd 86 3e de 0e 45 bd a3 89 83 3e
       -0.14010394 0.263287 -0.04810988 0.25690946
0003c0 a0 a7 00 3d 0f 97 59 bd 8a 5b 87 bd 56 e7 90 3d
       0.03140986 -0.053122576 -0.066092566 0.07075374
0003d0 99 b8 94 3d 8e 89 86 bd 52 37 7d 3e af e1 94 3d
       0.07261772 -0.06569205 0.24728134 0.07269608
0003e0 dd 62 b5 3d a7 35 c2 bd 42 79 62 be 69 7b a4 3e
       0.08856747 -0.094828896 -0.22116569 0.32125404
0003f0 84 4b a8 bd c6 32 1a be 19 a1 c2 3d 0f 45 5c be
       -0.082175285 -0.15058431 0.09503383 -0.21510719

lstm.bias_ih_l0 f4 [256]
000000 af bf 98 3d 60 5d 87 3d 7f 41 3d 3e 90 1e 36 bd
       0.07458436 0.06609607 0.18482016 -0.04446274
000010 b3 59 d0 3e 1b 49 74 3d 6f 14 db 3d 9c ee 0c 3e
       0.40693435 0.05964003 0.10697257 0.13762897
000020 83 7a 84 be 73 da 8a be 25 47 81 ba 98 ca 87 be
       -0.2587472 -0.2711979 -0.0009863122 -0.26521754
000030 97 46 d2 3d 55 80 8b 3e 23 51 d7 bd 8c ef c9 bd
       0.1026737 0.27246347 -0.105135225 -0.09860143
000040 2a c7 ac 3e 9e 96 39 be 5b 34 15 3e 47 96 12 3d
       0.337457 -0.18123862 0.14570753 0.035787847
000050 66 ee 34 3e 14 70 83 be 40 56 bd bd ee 53 5a 3e
       0.17669067 -0.25671446 -0.092449665 0.21321079
000060 2d b8 5e be 77 cb 1a 3e bd 1f bc bc 65 5a 20 be
       -0.21749945 0.15116678 -0.022964353 -0.15659483
000070 84 e9 08 be a1 b7 49 bd b3 36 bc 3e 7a 2d d1 3b
       -0.13370329 -0.049247388 0.36760482 0.006383595
000080 50 68 6b 3e 97 d4 c5 3d 0d bb b6 3d c9 16 a8 3e
       0.22989011 0.09659689 0.08922396 0.32829884
000090 84 cc 67 3e 5b 17 46 be 9b 15 58 3e 60 c0 19 3e
       0.2263661 -0.19344847 0.21101992 0.15014791
0000a0 09 ff bf 3d 50 e8 34 be 05 e6 4f 3e 59 cd 63 be
       0.09374816 -0.17666745 0.20302589 -0.22246303
0000b0 39 34 16 3e 6e ef 7c 3e 91 15 2b 3c 9a 60 8c be
       0.14668359 0.2470071 0.010442154 -0.2741745
0000c0 09 dc 3e be 71 7b d6 bc 44 e3 c7 bd c0 b2 2d 3c
       -0.18638624 -0.026181908 -0.09760144 0.010601699
0000d0 09 1d 04 be f8 ac bc bd ab 2a e8 3d f2 89 80 bd
       -0.12901701 -0.09212679 0.11336263 -0.06276311
0000e0 c4 ed 76 be 09 51 7d 3e 17 2b 79 be 28 dd 97 bd
       -0.24114138 0.24737944 -0.24332844 -0.07415229
0000f0 f2 86 9b 3e b2 15 69 3e 17 6a 0b 3e f5 f7 03 3d
       0.30376393 0.22762182 0.13614689 0.032218892
000100 48 01 f6 3d 0b f6 24 3e 77 b0 fa bd e1 0e 99 bd
       0.12011963 0.16109483 -0.12240689 -0.07473541
000110 01 f6 9b bd 78 8a 9f be 0f b0 21 be 0d f0 16 be
       -0.07615281 -0.3116033 -0.15789817 -0.1474001
000120 b7 ef 72 be 17 85 0a be 4c 1f cd bd aa d8 c8 bd
       -0.23724256 -0.13527332 -0.10015735 -0.098069504
000130 8e 2b c2 be c0 68 db 3d 74 a0 7e bd c4 e1 7d 3d
       -0.37923855 0.10713339 -0.06216474 0.061982885
000140 7e b2 71 ba cf 87 6a bd 32 af 28 3d 96 0e 12 be
       -0.0009220018 -0.057258423 0.041182704 -0.14263377
000150 48 7a a7 3c ec 6e 2a be 80 1f 2a bd fd 1c 87 be
       0.02044405 -0.16643876 -0.041533947 -0.26389304
000160 13 d6 dc 3c 33 7e 9a bd 20 3c 1f be 6f 80 95 bd
       0.026957547 -0.07543602 -0.1555028 -0.072998874
000170 2b 2e 50 be ea a5 92 be 77 38 ab 3d 5a e5 aa 3c
       -0.20330112 -0.28642207 0.08360379 0.020861316
000180 44 22 95 be ee c9 bf 3d 16 6f 7a bd 5f 38 4b be
       -0.29127705 0.09364687 -0.061141096 -0.19845723
000190 cc 9a b9 be 54 ac 49 be 75 4f 63 be cc 78 72 bc
       -0.36250913 -0.19694644 -0.22198279 -0.014799308
0001a0 48 c9 0b 3c 5c c5 7d be e9 5e e9 3d 5c f1 d0 bd
       0.008531876 -0.24782318 0.11395056 -0.10202286
0001b0 c5 1c 99 be 00 78 95 be f3 f5 c7 be f9 68 8d be
       -0.29904762 -0.29193115 -0.39054832 -0.2761915
0001c0 46 e5 52 be 75 ca 8c 3e 97 c1 2f be 6b b0 66 3c
       -0.20595273 0.27498212 -0.17163692 0.014080147
0001d0 ae bb fc bd a8 d9 32 bd ee 55 dd 3d 12 b6 45 be
       -0.123404846 -0.043664604 0.108074054 -0.19307736
0001e0 66 26 ac bd 20 d2 50 3c 1a c0 29 be ac 93 11 3e
       -0.084057614 0.01274541 -0.16577187 0.14216489
0001f0 94 6b 7e 3e b2 0d 24 3c 1a 21 2a 3e de eb 87 bc
       0.24845725 0.010013031 0.1661419 -0.016591962
000200 c7 bf 8f bd 40 e3 80 3d 24 d1 f7 bc 5d 8c b2 bd
       -0.070190005 0.062933445 -0.030251093 -0.087181784
000210 4d f1 d1 bd e6 e2 bf bd 08 53 81 3c 63 f3 05 be
       -0.102511026 -0.09369449 0.015786663 -0.13081126
000220 9b 70 d5 bb 26 bd 89 bd 24 df ae bd 2b b0 bd 3d
       -0.0065136678 -0.0672553 -0.085386544 0.09262117
000230 78 3a 07 3e bb 91 07 3c 76 c6 6b 3d 46 a2 0a 3d
       0.13205898 0.008274491 0.057562314 0.033846162
000240 f3 05 c7 bd 31 b2 66 3c 93 af fa 3d 9a 96 2d 3d
       -0.097179316 0.01408057 0.122405194 0.042379953
000250 bd da e4 3d 3f 60 70 3d 20 b3 db 3d 73 72 07 3d
       0.111745335 0.058685537 0.10727525 0.03306813
000260 3c e0 3a bc 88 a9 b4 bc e2 53 8e 3b f9 62 24 3e
       -0.011406001 -0.022053495 0.0043434957 0.1605338
000270 e8 fc 39 3d cf f8 86 bc ba 0f 90 bd 42 37 bf bb
       0.045407206 -0.016476063 -0.070342496 -0.0058354447
000280 8b 93 12 be b5 1e 61 bc ed b0 83 3d 23 87 2e bc
       -0.14314096 -0.013740231 0.0643023 -0.010652336
000290 95 fc 09 3d 3a 70 90 bd 23 d9 0d be d7 63 bd bc
       0.033688147 -0.070526555 -0.13852362 -0.023118896
0002a0 e0 72 aa bd 69 36 8b 3d 80 27 dc 3d fc ce 91 3d
       -0.08322692 0.06797487 0.107497215 0.07119557
0002b0 5d 5f d5 bd d3 1f a9 3d 44 f7 98 bd ab f1 9b 3d
       -0.1041858 0.08258023 -0.07469037 0.07614454
0002c0 b8 12 1a bc 1d 0d 29 bd 67 17 10 bd d9 45 93 bd
       -0.009403877 -0.04127227 -0.03517857 -0.07191057
0002d0 4a e7 79 bd 0b 6e 4f bc 74 52 04 be ab a7 c7 3d
       -0.06101159 -0.012660514 -0.12922078 0.09748777
0002e0 d7 08 d9 bc ba 6c 0b bd 62 72 af 3d 1a 19 12 be
       -0.026493473 -0.034039237 0.08566739 -0.14267388
0002f0 eb cd 48 bc f1 bc 1a 3b 02 24 91 ba 8e b9 bc 3d
       -0.012256126 0.0023611153 -0.0011073353 0.09215079
000300 32 b2 d5 3d cb fc 1a 3e a1 05 c1 3e ae 84 0e 3d
       0.10434379 0.15135495 0.37699607 0.034794502
000310 3a fa dd 3e 54 67 49 3e a7 d9 89 3e 1f 57 e8 3d
       0.4335497 0.19668323 0.26923868 0.11344742
000320 67 2d 7c be 75 5a 7f be 60 8a bd bd 2f 7b 8b be
       -0.24626695 -0.2493685 -0.092549086 -0.2724242
000330 64 87 f8 3d d8 27 ba 3e 5c 8e 29 3d 7e 26 27 be
       0.12135199 0.36358523 0.04139553 -0.16323277
000340 e3 dd 69 3e 69 ad 44 be 2b 2f 06 3d 6a 8a 25 be
       0.2283855 -0.19206776 0.032759827 -0.16166082
000350 56 9c 8d 3e 0d 71 b9 bd d5 54 5d bc 14 c7 83 3e
       0.27658337 -0.09054766 -0.013508995 0.25737822
000360 01 9a 02 be 70 28 a7 3d a5 33 1e 3e d7 95 60 be
       -0.1275406 0.0816201 0.15449388 -0.2193216
000370 06 77 fd bc 1e 35 14 be 3d 23 4b 3e f4 b4 38 3e
       -0.030940544 -0.14473388 0.19837661 0.18037778
000380 da 38 42 3d 55 bc bc 3d bf 4f 5d 3d 3c 0d 34 3e
       0.0474175 0.09215609 0.05403113 0.17583174
000390 24 f2 80 3d 4f f8 a7 be c3 d9 2f 3e b6 d2 23 3c
       0.06296185 -0.32806632 0.17172913 0.009998968
0003a0 c5 25 c1 bc 22 4b ae be 24 ab ab 3e 25 05 d3 be
       -0.02357758 -0.34041697 0.33529007 -0.41214862
0003b0 0d b5 59 3e f1 2f f9 3d f1 bd 19 3d 2e 1e 3f be
       0.21260472 0.12167347 0.037534658 -0.18663856
0003c0 0d d2 43 be f6 74 0a be d1 10 15 be 25 8f 8d 3e
       -0.19123097 -0.1352118 -0.14557196 0.27648273
0003d0 9b 1e 0b 3e 3b 94 d0 3c 9e 33 ee 3d 9c c0 c8 bd
       0.13585894 0.025461307 0.11630939 -0.09802362
0003e0 06 f2 5c be 08 c3 6a 3e df df 90 be a6 b4 ac bc
       -0.215767 0.22925961 -0.282958 -0.021082234
0003f0 30 c5 a9 3e 02 5f 60 3e 27 90 73 3d 8e eb 39 3d
       0.33158255 0.21911243 0.059463646 0.045390658

lstm.bias_hh_l0 f4 [256]
000000 1e bd 07 3e 80 33 c9 bd 23 5b ae 3e 22 ae b3 3d
       0.13255736 -0.09824276 0.34053907 0.087734476
000010 0b 98 c4 3e 69 50 5e 3d 24 aa 92 3d 38 19 a4 3d
       0.3839725 0.054275904 0.07161358 0.080126226
000020 99 d9 af be ae 60 0f be f9 7c 5d be e3 f1 b6 be
       -0.343457 -0.14001724 -0.21629705 -0.3573142
000030 43 34 f3 3c 13 df 63 3e 06 1c 8a bd 88 62 c4 3d
       0.029688006 0.22253065 -0.06743626 0.09589106
000040 84 cb a2 3e 36 49 5a be 2e 39 08 3e cc 46 9f bd
       0.31795895 -0.2131699 0.13303062 -0.07777175
000050 a0 38 cc 3d 66 96 44 be b2 42 8b bc 75 45 cb 3e
       0.09971738 -0.19197997 -0.016999576 0.3970143
000060 53 4f 36 be 26 b8 e5 3d 2c f7 d6 3d 1b d9 9e be
       -0.17803697 0.11216764 0.10496363 -0.31025013
000070 f9 78 51 bd a9 24 ff bd 3f 65 a6 3e 6d 3d e3 3d
       -0.05114076 -0.12458164 0.3249912 0.110957004
000080 9e 02 45 3e 7f 64 f8 3d c1 34 db bc b1 78 a1 3e
       0.1923928 0.12128543 -0.026758553 0.31537393
000090 1d 58 0a 3e 43 59 4d be 42 eb da 3d 39 d1 90 3d
       0.13510175 -0.20053582 0.10689403 0.07071156
0000a0 44 f0 05 3e e4 c8 b4 be 6f 6b 88 3e 5b 6e b1 be
       0.13079935 -0.35309517 0.26644465 -0.34654507
0000b0 c9 65 b9 3d e6 00 63 3e 65 6a 60 3c 23 54 c4 bd
       0.09052617 0.22168311 0.013697241 -0.0958636
0000c0 cb ac 31 be dd b8 02 be 0d 94 8a be 57 fc 5f 3e
       -0.17351072 -0.12765832 -0.2706608 0.21873604
0000d0 a5 da c3 3d a1 08 29 bd cb 7a 10 3d 8c bf 9f bb
       0.095631875 -0.041267995 0.035273355 -0.004875129
0000e0 84 c4 a8 be 58 63 a5 3d a3 3b 36 be f5 81 27 3b
       -0.3296243 0.08075589 -0.17796187 0.0025559638
0000f0 26 44 d9 3d 15 73 70 3e d5 d2 0c bb de dd 36 3d
       0.106087014 0.234814 -0.002148797 0.044645183
000100 11 f3 6b 3d f9 d8 1e 3e 1b 6f fb bd 4d 22 42 3d
       0.057604853 0.15512456 -0.12277051 0.047395993
000110 fd 8f 0a be 44 c9 87 be 17 65 82 be 03 c2 57 be
       -0.1353149 -0.2652074 -0.2546775 -0.21070103
000120 98 10 6b be 77 36 18 be b8 b6 bc 3c 4a 17 ac bd
       -0.22955549 -0.14864527 0.023036346 -0.084028795
000130 9e ec bd be fc c8 8a 3d 40 e0 f5 bd 6b bc 9e bd
       -0.37094587 0.06776616 -0.12005663 -0.077507816
000140 3d df c3 3d 93 0e 16 be c0 02 ad 3d b7 9c 82 be
       0.09564064 -0.14653997 0.0844779 -0.2551019
000150 e2 2d 1f be 94 1a 55 be e8 b8 95 bc 1c 35 91 be
       -0.15544847 -0.2081092 -0.018276647 -0.28360832
000160 57 2e 10 bd 5b 0f d7 bd a6 c8 73 be c7 4d 1a be
       -0.035200443 -0.10500976 -0.2380701 -0.15068732
000170 3f 37 46 be f5 21 75 be f5 8e b4 3d e4 d7 94 bd
       -0.19357012 -0.23938735 0.088163294 -0.0726774
000180 81 f0 2b be 7d 6e 7b bd 86 01 22 3d 57 93 48 bd
       -0.16790964 -0.061384667 0.039552234 -0.04896864
000190 67 0a 4f be 44 f3 2e be 05 7e a9 be b0 3f 99 bd
       -0.20218812 -0.17084986 -0.33103958 -0.074828506
0001a0 f5 0f 39 be a1 b4 92 be ec 8f 21 3d dc 72 fe bd
       -0.18072493 -0.28653434 0.039443895 -0.124242514
0001b0 7b a8 a2 be fb b9 bd bd 17 c8 a6 be 9c db 88 be
       -0.31769165 -0.092639886 -0.3257453 -0.2673005
0001c0 18 35 20 be b9 c1 06 3d 5e 9d a7 bd c9 05 be bd
       -0.15645254 0.032899592 -0.08184312 -0.09278447
0001d0 07 4a cc bd b9 9f a2 bd 81 87 0e 3e ea ca 69 be
       -0.09975057 -0.07940621 0.13918878 -0.22831312
0001e0 78 a4 4c be 07 a1 e0 bd 2a a3 3f be 37 b0 70 3d
       -0.19984615 -0.109682135 -0.18714586 0.0587618
0001f0 6f db 41 3e 69 e3 43 bd 9a 28 11 3e d3 91 ac bd
       0.18931364 -0.047824297 0.14175645 -0.08426251
000200 d5 1c 12 bd de 59 ca bc 2b 99 0d 3e 98 77 af 3c
       -0.035672028 -0.024701055 0.1382796 0.021419331
000210 ee 3b 33 3d eb 2e 0a be 13 88 24 3d e8 b4 dd bd
       0.043758325 -0.1349446 0.040168833 -0.10825521
000220 99 96 3c bd db 48 23 3b 78 c7 da 3d 5c ed 5e bd
       -0.04604206 0.0024915251 0.10682577 -0.054425582
000230 dc e6 4a 3d d1 29 90 bd 8d f9 6f bc 0d 36 03 be
       0.04953657 -0.07039226 -0.0146469 -0.12813587
000240 71 33 89 bd 67 98 c5 3c ff 3e b2 bd 7c df be 3d
       -0.06699265 0.024120523 -0.08703422 0.0931997
000250 39 29 95 3d 6d 5a e1 3c 75 e5 d5 bd 2f 9b 2c bd
       0.07283253 0.027508939 -0.10444156 -0.042140182
000260 6e 4e 2e bc f4 5e 44 bd ce 17 ca bd 00 cb e4 bc
       -0.010638816 -0.047942117 -0.09867822 -0.02792883
000270 2e 5b 3a 3d 4d ef 9f bd 2d 08 51 3d d5 a3 46 3d
       0.045497112 -0.07809315 0.051033188 0.048496086
000280 2e ff 9a bd 9b 3f ce bd 86 25 55 bd 8e 2e a2 3c
       -0.07568203 -0.100707255 -0.05203774 0.01979759
000290 64 7c 5d 3e e2 e7 76 3b 17 82 5f bd d1 78 4b 3d
       0.21629483 0.0037674834 -0.054567423 0.049675766
0002a0 3d a9 19 3d af 0e 94 bd bd 1a e7 3c 51 08 33 3d
       0.037514914 -0.07229363 0.028210992 0.043709103
0002b0 be 00 60 3b 1f 48 4e bc 04 a5 f4 bd d3 d0 58 bc
       0.003418013 -0.012590437 -0.11945537 -0.013233381
0002c0 f2 31 a1 bb ed 89 08 bd df 62 50 3d 58 22 bf bc
       -0.004919284 -0.03333466 0.05087554 -0.023331806
0002d0 54 cd f9 bd de 4c 43 bb 3d ae 48 3c a8 16 e6 bd
       -0.12197366 -0.0029800455 0.012248573 -0.1123479
0002e0 43 8d 60 3d 03 3a 27 3d a3 08 77 3d 80 78 82 3d
       0.054822218 0.04082681 0.06031097 0.0637064
0002f0 02 82 ed 3d 40 8e f3 3d c5 ca 1b 3b 76 ba 77 3d
       0.11597063 0.118923664 0.0023771983 0.060480557
000300 a8 db 99 3d a0 eb 0f bc 0b b2 98 3e a9 f7 3b 3e
       0.07512599 -0.008784205 0.29823336 0.18356194
000310 2c ee b7 3e c8 6b 6b 3d dc 90 5c 3e cc e8 50 bd
       0.35923898 0.057475835 0.21539634 -0.051003262
000320 45 6e b2 be eb e9 24 be fb a0 3b bd 25 89 41 be
       -0.34849754 -0.16104858 -0.04580782 -0.18899973
000330 7b 68 28 3e 22 c0 b3 3e a6 cc 29 3d 5c b6 c4 3b
       0.16446106 0.35107523 0.041454934 0.0060031842
000340 51 a6 94 3e 4a 14 59 bd 7d f2 d1 3d f8 ab 93 bd
       0.2903314 -0.052997865 0.10251329 -0.07210535
000350 5c 09 32 3e 48 9e 06 be 57 5f 65 be 5f e1 7e 3e
       0.17386383 -0.13146317 -0.2239965 0.2489066
000360 0b 3a 52 be 23 76 75 3e fd a7 90 3d fd f0 6c be
       -0.20529954 0.23970847 0.07063291 -0.23138805
000370 e6 fd 0a bd a3 a3 34 be 2e a6 cc 3d cc 2d 15 3e
       -0.033933543 -0.17640547 0.09992634 0.14568251
000380 c0 16 1e 3e d8 d4 37 3e 6d e1 99 bb 29 8e ce 3d
       0.15438366 0.17952287 -0.0046960623 0.10085709
000390 4b 6f 23 3e fb 9a a2 be 8c 59 c8 3d c9 6e c2 3c
       0.15960424 -0.31758866 0.09782705 0.023734467
0003a0 6d 3b a4 3d 72 00 66 be e0 45 b4 3e 2e 05 ba be
       0.08019147 -0.22461107 0.3520956 -0.36332077
0003b0 13 21 ae 3d f4 5e ae 3e 5a 4d eb bd 0f 85 16 be
       0.08502402 0.34056818 -0.11489363 -0.14699195
0003c0 93 c6 23 be 03 6c 88 bd de aa 96 be 52 2d 5f 3e
       -0.15993719 -0.066612266 -0.29427236 0.21794632
0003d0 73 da c4 3d cc c1 5a 3d cb c1 04 3e 3c 3d 13 be
       0.096119784 0.053407475 0.12964551 -0.14378828
0003e0 49 0e ac be f0 3b 91 3e ad f9 80 be 82 c5 3e 3d
       -0.3360465 0.2836604 -0.25190488 0.046575077
0003f0 d8 78 59 3e 3a 65 30 3e 0f 6d 54 3e 4a 88 31 3e
       0.21237504 0.17226115 0.20744728 0.17337146

lstm.weight_ih_l1 f4 [256, 64]
000000 f7 ce bd bd 99 22 09 be 1d bb 59 3e 5e 00 89 3d
       -0.09267991 -0.13392104 0.21262784 0.06689523
000010 71 cd 11 bf b5 6c 98 3e 17 22 2c 3e 56 27 bf be
       -0.56954104 0.29770437 0.16809879 -0.37334698
000020 0b d7 22 be 37 53 00 3e 4a 14 0f 3e 45 01 93 3e
       -0.15902345 0.12531744 0.13972583 0.28711906
000030 81 f0 90 3d b1 33 0d 3e 86 3e b1 bd fa 2b 94 bc
       0.070771225 0.1378925 -0.086545035 -0.018087376
000040 70 8c 93 be cb 09 15 bd 96 69 26 3c d6 f0 13 3e
       -0.28818083 -0.036386292 0.01015701 0.1444734
000050 97 d3 aa bd 23 4d 78 3d 81 34 7e be 07 9d a3 be
       -0.08341139 0.06062044 -0.24824716 -0.3195574
000060 19 88 1c 3d d5 ec 80 be 11 aa 69 be 02 7c 20 bd
       0.03821573 -0.25180689 -0.22818781 -0.039180763
000070 c2 be 94 be 72 84 0b be b6 e9 4d bd 9f 58 e0 3c
       -0.29051787 -0.13624743 -0.050271712 0.027386008
000080 e0 26 85 3e 47 f4 e6 bd 5f bd 22 3e 1a ef 53 3e
       0.26006222 -0.11277061 0.15892552 0.20696679
000090 c6 68 01 be ed 63 ec 3d c1 f0 34 be a4 59 0f 3d
       -0.12637624 0.11542497 -0.17669965 0.034997597
0000a0 ab f2 d9 bd 76 d5 12 bd 06 05 e0 3d 86 fb de 3d
       -0.10641988 -0.035848103 0.10938458 0.10887818
0000b0 19 ec 41 be 51 83 21 3f 6d 1b 30 bd 11 72 d4 3e
       -0.1893772 0.63091 -0.042994905 0.41493276
0000c0 70 d5 4a bd 92 59 24 be 76 b5 cd bb 2d 67 ca bb
       -0.049519956 -0.16049793 -0.0062777353 -0.0061768503
0000d0 39 06 e5 be 83 78 b5 3c 9b 6f 3d 3c 56 1b 87 3c
       -0.4473131 0.022152191 0.011562253 0.016492527
0000e0 dc 88 84 bc 99 4e 81 3e d1 91 c1 3e 01 3f 0b be
       -0.01617854 0.25255278 0.37806562 -0.13598253
0000f0 f8 5d 48 bd 94 c3 11 3f 94 10 0c be fa 4e 92 bd
       -0.04891774 0.56939054 -0.13678199 -0.0714397
000100 c4 56 df 3e cc b2 52 be e9 7e 99 bd ca e8 26 be
       0.43620884 -0.20576018 -0.07494909 -0.1629974
000110 e0 e3 4a bd e3 af cb 3d 2a dc bd bd 71 fb 3b 3d
       -0.049533725 0.09945657 -0.092705086 0.04589409
000120 6a f0 97 be f4 e8 97 3d bc 96 bf 3d b9 73 b5 bb
       -0.2967561 0.07417479 0.09354922 -0.005537477
000130 0d 85 80 3e 19 ba 09 be 30 c1 2b bd 59 c6 4a 3e
       0.2510151 -0.13449897 -0.041932285 0.19802226
000140 cd 07 62 be d5 06 28 be 23 85 17 3e e9 2d 07 be
       -0.22073288 -0.16408856 0.14796881 -0.13201107
000150 75 76 88 bd 6a b0 6c bd 77 b7 eb bc 4c 6f b7 3e
       -0.06663219 -0.05778543 -0.028774006 0.358271
000160 a7 bf 29 3e 59 b9 d7 bd 4c ad 57 be 5e 51 b5 be
       0.16577016 -0.10533399 -0.21062201 -0.3541364
000170 a3 c8 8b 3c fb 9b 61 be 81 5d 3d 3e a0 e4 d8 bc
       0.017063444 -0.22032158 0.184927 -0.026476204
000180 d6 ff 81 be 88 5f ab 3d 44 16 b8 bd bb e6 05 3e
       -0.253905 0.083678305 -0.08988622 0.13076298
000190 30 19 a8 be 70 69 15 3e 70 83 12 3d 46 f7 86 be
       -0.32831717 0.14591002 0.03576988 -0.2636053
0001a0 15 66 f5 3e 87 b7 e4 3e e9 09 30 be 27 47 f5 3d
       0.47929445 0.4467127 -0.1719128 0.11976462
0001b0 39 65 96 3d 6a 83 50 3e 30 98 4c 3e f3 97 22 3e
       0.073435254 0.2036263 0.1997993 0.15878277
0001c0 66 87 39 3e 7d ad cb 3e 9d 2e ed 3d 44 5b 4e 3c
       0.18118057 0.397808 0.115811564 0.012595002
0001d0 3e 6d 5a 3e 1b 50 02 3e 91 ee 68 bd 31 03 c4 3d
       0.21330735 0.1272587 -0.05686814 0.09570921
0001e0 f4 cf a4 3d 93 6e 93 3d fc 67 23 be fa 7f e4 3c
       0.080474764 0.07198825 -0.15957636 0.027893055
0001f0 b2 7c 63 be d8 a1 e2 bd 70 1d 1e be 08 a2 d8 3d
       -0.22215536 -0.110660255 -0.15440917 0.1057778
000200 3b 2e c7 3d 02 59 a3 be f2 f1 84 3e f6 55 72 be
       0.09725615 -0.31903845 0.2596584 -0.23665604
000210 eb 81 b9 be b5 4c 4a 3e 3d 6b 61 3e 39 3e 15 bd
       -0.36231932 0.19755824 0.22013564 -0.036436293
000220 c0 60 09 3e 5c 54 b8 bd 1b 5d 0d 3f a0 c6 a1 3e
       0.13415813 -0.09000465 0.5522019 0.3159685
000230 67 23 75 be 90 bd 66 3d 0a 1b 99 be ed c5 fd 3e
       -0.23939286 0.056333125 -0.29903442 0.49565068
000240 6d 82 19 bf c4 1f 80 be b6 7b 2a 3f c5 3f 43 3e
       -0.5996464 -0.25024235 0.6659502 0.19067295
000250 81 d7 32 be c0 67 36 bd 83 ae 2e 3e f9 5b 5e be
       -0.1746502 -0.044532537 0.17058758 -0.21714772
000260 3a 5d 6a 3e 0f d4 7f be 02 43 6f be e7 a1 3b be
       0.22887126 -0.24983238 -0.23365405 -0.1832348
000270 cb b3 c0 be 5b d6 b6 3e a9 a5 0d 3e cf af 2b 3e
       -0.3763717 0.35710415 0.13832726 0.16766284
000280 64 ee c2 3d aa ea 24 be cd dc 32 3f 07 15 f0 3e
       0.09518126 -0.16105142 0.69868165 0.46891043
000290 1b 98 9b be a7 98 30 3f be 4b 7b 3e ab 4d 21 3e
       -0.30389485 0.6898293 0.24540612 0.15752284
0002a0 aa 03 90 3d ce f3 21 3e b6 78 bd 3c 4c c6 44 be
       0.07031949 0.1581566 0.023128849 -0.19216269
0002b0 0b 70 a3 be 9d 70 1d 3f 88 57 8e be a5 4e 2e 3d
       -0.3192142 0.6149996 -0.27801156 0.04255547
0002c0 c8 f2 aa 3c 0b 67 5d bd ca 8f 59 3e a3 85 ca bd
       0.02086772 -0.054053348 0.21246257 -0.098887704
0002d0 f2 0b 85 be 93 ca 68 3d 4a 57 8f be 0b cd 53 be
       -0.25985676 0.056833815 -0.27996284 -0.20683686
0002e0 db 48 b3 3d 19 52 a6 3e 75 cb ed 3e 3d e0 ed bd
       0.087541305 0.3248451 0.46444288 -0.11615036
0002f0 90 d7 30 3e 87 72 92 3e 83 bc 40 be 39 65 b8 bd
       0.1726973 0.28603002 -0.18821912 -0.09003682
000300 23 73 fc 3d bb 81 86 3e a6 56 6e 3e 0b 37 82 bd
       0.12326648 0.26270851 0.23275241 -0.06358155
000310 9f bb 0c 3d a6 d4 04 be 45 74 cd 3e ce 2c 72 bd
       0.034358617 -0.12971744 0.4012777 -0.05912476
000320 89 98 87 3b f8 cf 64 bd 67 c6 f7 bd 9b 2e 6b bd
       0.0041380567 -0.055862397 -0.12098389 -0.057417493
000330 db df 73 be 6b 59 b7 3d 8f fb bd 3d 6f 15 e3 3d
       -0.23815863 0.08952602 0.092764966 0.110880725
000340 91 eb 90 3d 08 eb d4 3d cd 74 03 be 15 26 89 3e
       0.07076181 0.10396391 -0.12837525 0.26786867
000350 ad 12 4a bd 5b 79 aa 3e a9 3d cc 3d 5b 56 1e be
       -0.049334217 0.33295712 0.09972698 -0.1546263
000360 9b 1a 51 3d 58 b9 8b 3c ba 77 9c 3d 48 9b 4e bd
       0.051050764 0.017056152 0.076400235 -0.050441056
000370 fd cc cc 3c ee 12 27 3e 51 60 3c be dd 91 94 bd
       0.02500009 0.16315815 -0.18396117 -0.07254384
000380 c2 24 f1 3e 37 c8 c2 be f2 32 fe 3d 54 38 91 bd
       0.47098356 -0.38043377 0.12412061 -0.07090822
000390 3f 0a a3 3d 76 4d 8e be eb d3 e9 bc 7b 4f 0e 3f
       0.07960939 -0.27793473 -0.028543433 0.5559003
0003a0 b0 a8 38 be ee fe 93 bd 83 a8 09 3e 4f e4 a7 3e
       -0.18033099 -0.07226358 0.13443188 0.32791373
0003b0 cd 4e 0e 3e 8b be 6c be d0 34 4a be c2 f5 86 3c
       0.13897248 -0.23119561 -0.19746709 0.016474608
0003c0 ee d8 0d 3e 5c 6c 8c 3d 6b 5b b8 3d a3 a6 02 bf
       0.13852283 0.068566054 0.090018116 -0.5103552
0003d0 4b fd d7 3d ab 39 76 be d1 dc 13 be 1f 44 94 be
       0.10546359 -0.24045436 -0.14439704 -0.28958222
0003e0 d7 4c d2 3b c4 b7 ea 3e 55 30 39 be cb 5d 4b be
       0.0064178514 0.45843327 -0.18084843 -0.19859998
0003f0 59 25 3c 3e fa ae 4c 3e 10 da 5a bc d9 fb 02 3e
       0.18373622 0.19988623 -0.013357654 0.12791385

lstm.weight_hh_l1 f4 [256, 64]
000000 e5 f5 5c 3e 8c 8f 83 3e cd 34 25 be 42 cf 67 3e
       0.21578176 0.25695455 -0.16133423 0.22637656
000010 e5 36 84 be fb 70 a8 be 91 24 84 3e 56 5e 88 3e
       -0.2582313 -0.32898697 0.25809148 0.26634473
000020 72 e1 f3 3d 24 b1 52 3e bb 47 03 bf 6b b5 82 be
       0.11908235 0.20575386 -0.51281327 -0.25529036
000030 7b 43 0e bc da b6 a3 bd 23 a0 9d 3e f6 fe 93 3d
       -0.008683081 -0.079938605 0.30786237 0.07226364
000040 75 38 c4 be f8 6b 30 bc b0 1c c9 3e b3 8f 7d 3d
       -0.38324323 -0.010767929 0.392797 0.06190462
000050 d5 6b 14 be f9 7f 09 3f ce b2 8d be 2a a8 9f 3d
       -0.1449426 0.53710896 -0.2767548 0.077957466
000060 e5 71 af bc e2 2f 32 be c4 fd 74 be c9 02 d2 3e
       -0.021416614 -0.17401078 -0.23924929 0.4101775
000070 b2 c3 58 3e 11 97 7c 3e 12 23 ec be 47 e8 94 3d
       0.21168402 0.24667002 -0.46120507 0.07270866
000080 64 75 b8 bc a9 dc b6 3d b9 6e 04 3d 0c 1b e6 be
       -0.022516914 0.08928806 0.032332156 -0.4494251
000090 b7 17 9c be e6 7a e2 be 4b 41 6f be 95 43 bc be
       -0.30486843 -0.4423439 -0.23364751 -0.3677031
0000a0 bc 07 50 3e 2b 54 04 3d 35 39 33 bf df 1f bb be
       0.2031545 0.03230683 -0.70009166 -0.36547753
0000b0 23 f1 1e be 60 0e 6b 3b b4 39 68 3f d7 42 a2 3c
       -0.15521674 0.0035866722 0.9071305 0.019807262
0000c0 2c 9d bc 3e ef e2 c4 3e 7b ea 61 be f6 40 ef 3e
       0.36838663 0.38454387 -0.22062103 0.4672925
0000d0 b5 d6 85 3e 34 59 57 be 2e 78 0b bf a6 d9 86 3e
       0.2614037 -0.21030122 -0.54480255 0.26337928
0000e0 1b f4 22 be a3 25 2a be 8e 74 b4 3e 15 87 1d 3f
       -0.15913431 -0.1661592 0.35245174 0.61534244
0000f0 2f 74 c8 3e 65 fd 3e 3e 87 db 1c bf 14 8a 84 be
       0.3915114 0.1865135 -0.6127247 -0.25886595
000100 7d c6 da 3e 36 e8 bf 3d ad 9e 07 3e e5 35 39 3e
       0.4272956 0.093704626 0.13244124 0.18086965
000110 b1 33 01 3e 64 88 fe 3d 8d 4e 20 3e a3 df 85 3d
       0.12617375 0.12428358 0.15654965 0.06536796
000120 7f 53 33 bd 1e af d4 3e 27 26 ce bd 70 74 05 be
       -0.0437808 0.41539854 -0.10065871 -0.13032699
000130 32 34 90 3c 84 e5 31 3e 90 83 f2 3e 8a c1 8f be
       0.017603014 0.1737271 0.47366 -0.28077346
000140 9f f3 2a be 35 dc 91 3e 5b 89 c2 3d ef 9d 08 3e
       -0.16694497 0.28488317 0.09498855 0.13341497
000150 be d2 21 3e 38 19 59 3e 1f 57 11 bb 1a fc 86 bd
       0.15803048 0.21201026 -0.0022177172 -0.06591053
000160 a4 30 b9 3b 89 0c ea 3b e5 dd 78 3d 21 33 da 3d
       0.0056515504 0.0071426076 0.06075849 0.10654283
000170 92 5f db 3d 2c 6e 36 be 9a e7 98 3e 1c 16 cf bd
       0.10711588 -0.17815465 0.29864198 -0.10111639
000180 b4 c9 08 be 3a 87 ae bc 31 7c 60 bd 4e 9b 3c bc
       -0.13358194 -0.021304715 -0.05480594 -0.011511637
000190 be ce a2 3e 86 ab 12 be 48 70 0c 3e 56 a9 09 be
       0.31798357 -0.14323243 0.13714707 -0.13443503
0001a0 6a 99 62 3e fe cd e5 3c 70 90 a5 3e 75 17 28 3e
       0.22128835 0.028052326 0.3233676 0.16415198
0001b0 09 af 2e be ab 0e 80 bd 74 3c 0b be 74 64 33 bd
       -0.17058958 -0.06252798 -0.1359728 -0.04379697
0001c0 27 4f 9b 3d f8 ef 7a 3e a7 b3 5a be 42 5a bc be
       0.075834565 0.24505603 -0.21357594 -0.3678761
0001d0 9b 17 36 3e ab 96 bc 3e 7d 1a ee bd 6c 76 c8 3d
       0.17782442 0.368337 -0.11626146 0.09788212
0001e0 85 19 da be ba 2a aa 3d b3 c6 b6 be 5c d3 29 be
       -0.42597595 0.08308931 -0.3569847 -0.16584533
0001f0 e2 1f b8 3e 2c 2a c4 bd 35 9c 9b 3e 49 a2 80 3d
       0.35961825 -0.09578356 0.30392614 0.062809534
000200 f6 49 50 3e 0c c9 78 3e 25 8a a6 3e 77 2e bb bd
       0.20340714 0.24295443 0.3252727 -0.09139722
000210 75 79 f7 bd 51 eb c4 3d 79 82 aa 3e fb 73 cc 3b
       -0.12083713 0.096151955 0.33302668 0.006239412
000220 4a 7a b0 bd b3 36 5c 3e b4 65 05 3e 80 fb d7 bd
       -0.08617075 0.21505241 0.13027078 -0.10546017
000230 14 05 9e bc ff 44 09 be 0f 53 3c 3e 36 b1 2e be
       -0.01928953 -0.13405226 0.1839106 -0.17059788
000240 4d 2f cc be 51 a0 38 3e a2 c6 e4 3d be 80 4f be
       -0.39879838 0.18029906 0.11170699 -0.20263955
000250 ed 60 95 3d ae 70 ad 3b 89 04 f8 bd ad 5d 53 bd
       0.07293878 0.0052929735 -0.1211024 -0.051603008
000260 1a c2 88 3c f7 ab b9 bc 04 ba 29 be 6a 63 3a bc
       0.016694117 -0.022665007 -0.16574866 -0.011376241
000270 f0 a3 91 be 34 50 50 be 85 16 b2 be c3 0b d3 3d
       -0.28445387 -0.20343095 -0.34782806 0.10304978
000280 f1 aa e6 be f5 28 88 be c1 e6 cf bc c3 68 85 be
       -0.45052293 -0.26593748 -0.025378587 -0.2605649
000290 31 48 26 3d f6 e5 8d 3d 3a a9 a1 bc 39 73 a1 bb
       0.04059619 0.06928627 -0.019734014 -0.0049270657
0002a0 50 13 7d be 0a 99 aa 3e a9 8b a1 be 8f 96 7c be
       -0.24714398 0.33319885 -0.31551865 -0.24666809
0002b0 f4 84 bd be 19 5c 85 3e 08 04 38 be 7f 23 df 3c
       -0.37015498 0.26046827 -0.17970288 0.027238606
0002c0 45 3f 7f 3c d0 2a ea 3b fd e2 92 3d 84 d7 90 3d
       0.0155790495 0.007146217 0.07172201 0.07072356
0002d0 19 69 b0 be 58 b6 cf 3c d9 58 b1 3d 78 5a 22 3e
       -0.34455183 0.025355503 0.086595245 0.15854824
0002e0 01 dc df 3d 43 cb 13 3e 97 87 af 3e c8 82 07 be
       0.10930634 0.14433007 0.34283134 -0.13233483
0002f0 3b 50 52 be 67 df fd bd 0f c9 88 be 75 89 59 3e
       -0.20538418 -0.12396126 -0.26715896 0.21243842
000300 04 05 ef bd f8 7c 51 bd b6 61 ac 3d 42 f3 00 be
       -0.116708785 -0.05114457 0.084170744 -0.12592795
000310 4a 65 83 3d 9d f5 24 be 1f 7f 0b 3e f2 2d 18 3d
       0.06415804 -0.16109319 0.13622712 0.037153192
000320 bb 84 b5 3d 2a 8f 8c 3e df 43 ea 3d c6 c9 ae bd
       0.08863207 0.27452976 0.11438727 -0.08534579
000330 4d c4 01 3d ec 88 8a be 35 49 3c 3e 0a 29 6e 3e
       0.031681348 -0.27057588 0.18387301 0.23257843
000340 c0 d2 70 3e 6d 02 da 3e f1 75 f0 bd 1f 35 3a 3e
       0.23517895 0.42579976 -0.117412455 0.18184327
000350 0a b1 12 bd 60 9c 44 be 61 81 b8 3d 6c 34 f2 3d
       -0.03581337 -0.19200277 0.09009052 0.11826405
000360 54 99 5c 3d 55 7f 5b bd e7 01 8d bc 35 c6 2a be
       0.053857163 -0.05358823 -0.017212821 -0.16677172
000370 24 0e b6 bd 6b 63 9d 3c 36 06 e7 3d 82 60 50 3e
       -0.08889416 0.019212445 0.112804815 0.20349315
000380 08 69 19 3d 04 5d c5 bd 58 5b d4 bd cf 79 36 bd
       0.03745368 -0.09636882 -0.10368985 -0.04454976
000390 80 a9 a8 3e 2d 6b 65 3e ee 40 24 3e 2a 75 2f 3e
       0.32941818 0.22404166 0.16040394 0.17134538
0003a0 f3 10 22 bf af d9 73 3e 25 1f 3d 3e 01 98 0a be
       -0.6330711 0.23813508 0.18468912 -0.13534547
0003b0 79 73 65 be 8d d3 68 3a e4 fb eb 3d 24 31 02 3e
       -0.2240733 0.0008881621 0.11522654 0.12714058
0003c0 c3 4d c7 3c 77 f8 91 bd 01 10 43 bd ae 81 cd bd
       0.024329072 -0.07127469 -0.047622684 -0.100345
0003d0 e9 82 a0 be ba fd 88 bb 1a 4a 26 3e a7 f3 18 3e
       -0.31349877 -0.004180637 0.16239205 0.14936696
0003e0 31 73 30 3f 4a ff 51 bd 82 4d 86 3e 5c 07 69 bd
       0.6892577 -0.051268853 0.2623101 -0.056891784
0003f0 c9 4b d1 bd 9e 9d 3d bd 42 da 32 3d 0b 47 19 3e
       -0.10219533 -0.046292894 0.043665178 0.14968507

lstm.bias_ih_l1 f4 [256]
000000 ef 45 bb 3e 4a f3 19 be 5d d6 57 3e 12 ed 96 bd
       0.36576793 -0.15034214 0.21077867 -0.07369436
000010 2a ae cf 3d 83 f7 f3 bd db 57 23 be ec b0 1f bd
       0.10140641 -0.119124435 -0.15951483 -0.038987085
000020 3a 0e 0c be 3b 95 2f 3e 1c 8c de bd 5f 91 43 3e
       -0.13677302 0.1714677 -0.108665675 0.19098423
000030 a5 e3 b9 bd 61 06 b8 3e 89 dd 95 bd 60 3d 00 3e
       -0.09076623 0.35942367 -0.07317645 0.12523413
000040 b5 28 f7 3e 5f 0f 97 3e ff 64 ab 3d ad ad 61 3e
       0.48273245 0.29503915 0.08368873 0.22038908
000050 11 a4 b3 3b 84 9b 8b 3e 29 0d e5 bd cb cb ad 3c
       0.0054822047 0.27267087 -0.11184151 0.02121534
000060 2a 85 e8 3d 77 d7 03 be 2e cc 43 3e cf ac 8f bd
       0.11353524 -0.12875162 0.19120857 -0.070153825
000070 8d 8c 0b be 93 ce 60 3e 31 0c 4b be c0 72 67 3b
       -0.13627835 0.21953802 -0.1982887 0.00353162
000080 d7 c7 79 bd d1 de fb bd 88 da bd bd 9b 22 52 3e
       -0.060981598 -0.12298358 -0.09270197 0.20521013
000090 e2 41 2a bd 0a 33 3a 3e c5 ea 6f ba 03 04 88 3c
       -0.041566737 0.18183532 -0.000915211 0.016603475
0000a0 e1 b1 5a 3e 37 0c 6d bc 43 9a 40 bd d6 bc 7c bc
       0.21356918 -0.014468244 -0.047022115 -0.015425881
0000b0 c8 94 ba bd e9 ae c8 bb 6f c2 56 bd 24 6a ca bd
       -0.09110409 -0.0061243665 -0.05243152 -0.09883526
0000c0 08 e8 1b bd c2 ef b0 bd 61 ea db bd d5 e7 00 bd
       -0.03806308 -0.0863948 -0.107380636 -0.031471092
0000d0 8c 23 da 3d 23 37 5e be 7f 42 ee bd f5 a7 b5 3d
       0.10651311 -0.2170072 -0.11633777 0.08869926
0000e0 f1 43 9a bd bd bc 03 3e de 92 a3 3e e2 bd 43 be
       -0.0753249 0.12864967 0.31947988 -0.19115403
0000f0 4d 45 78 bc 33 ab 79 3d f6 f5 1f bd 05 68 17 3d
       -0.015153241 0.060954284 -0.039052926 0.036964435
000100 70 c5 4e 3e 58 fb 0f bd 62 cf d9 bd 4f 6b 8e 3e
       0.20192504 -0.03515181 -0.10635258 0.27816245
000110 60 4a 98 3e 5f 46 ad 3e f8 1e 20 bd a2 14 e3 3d
       0.29744244 0.3384275 -0.039092034 0.1108792
000120 ef c6 9d 3e b8 b1 84 bd b6 47 d4 bc 77 98 7f 3e
       0.30815837 -0.0647921 -0.0259131 0.24960504
000130 19 08 26 3e 07 46 cd 3d 06 b3 77 3e 50 23 ca 3c
       0.16214027 0.10023122 0.24189386 0.024675041
000140 12 49 c2 3b bf b6 92 3d 38 ab b8 3e 62 c1 10 3e
       0.005929121 0.07163762 0.3606813 0.1413627
000150 6a 73 77 bd de 23 64 3d ad 5e be bd d9 fa 0f 3e
       -0.0604128 0.055698268 -0.09295402 0.14060535
000160 f4 23 d4 3c 43 bb a2 bb 7d b6 d8 bd cc f8 2d be
       0.02589605 -0.004966171 -0.10581682 -0.1698944
000170 f9 39 8e be 14 c9 8f bd fe 43 36 be 28 24 39 3d
       -0.27778605 -0.070207745 -0.17799374 0.045200497
000180 73 30 6a 3e 33 80 84 3d 49 fd 5f bd d3 20 12 3e
       0.22870044 0.064697646 -0.05468491 0.14270334
000190 98 94 29 3e 6b 19 a4 bc a0 cf dc 3d 19 f3 4f be
       0.1656059 -0.020031651 0.10781789 -0.20307578
0001a0 a5 73 2f be 78 f3 73 3e e2 4c 4b bd c9 3b 6d bd
       -0.17133959 0.23823345 -0.049633868 -0.057918344
0001b0 af 2f a5 bc 76 fa e3 bd b9 c5 14 be f1 0f b7 bd
       -0.020164339 -0.11131756 -0.1452855 -0.089385875
0001c0 e9 8d 7c be 09 16 74 3e 4d bb 8a 3d 53 57 01 3e
       -0.2466351 0.2383653 0.06774006 0.12630968
0001d0 5d a9 ff 3d dc ef 75 bd 56 7b cf 3c 3c 9c 69 3e
       0.12483475 -0.0600432 0.025327366 0.22813505
0001e0 a3 8f a0 bd 80 3f b8 3d 29 7d 40 3d 3f 66 37 bd
       -0.078398965 0.08996487 0.046994362 -0.044775244
0001f0 f1 05 6b bd d7 96 f4 3b 29 6b e5 3d 3a fe 07 be
       -0.057378713 0.0074642706 0.1120208 -0.13280573
000200 ca d4 19 bd 71 55 c8 3d 8d d6 d5 bd 31 ac 6a bd
       -0.037556447 0.09781922 -0.10441313 -0.05729312
000210 a7 08 ce bd 0b e1 ae 3d 26 6b f2 3c f2 91 cb 3d
       -0.10060244 0.08539017 0.029592108 0.09939946
000220 2f bb 58 be 1c a6 a6 bc c4 6b 54 be 6a 9c 50 3e
       -0.21165155 -0.020342879 -0.20744234 0.20372167
000230 3f 7e 08 be 84 25 13 be fd 1a f0 3a bf 57 6d 3d
       -0.13329409 -0.1436978 0.001831859 0.05794501
000240 85 d3 51 3d db 5e 45 3d c3 56 f0 3d 59 27 44 3d
       0.05122711 0.048186164 0.117352985 0.047889087
000250 57 78 0e be b2 0f 8a 3e de 42 2a be 67 86 57 bd
       -0.13913094 0.269651 -0.1662707 -0.05261841
000260 dd ba 32 bd c0 49 5e be 38 28 fd bc e6 bc 0e bd
       -0.043635238 -0.21707821 -0.030902967 -0.034848116
000270 a0 a2 b0 3d 21 f5 7c 3d cb cc b6 bd c7 eb ce 3d
       0.08624768 0.06175721 -0.0892578 0.10103565
000280 6f 69 dd 3b bd 7c 28 3e 1c 80 4c 3e c6 10 1f be
       0.0067569534 0.16453834 0.19970745 -0.15533742
000290 ce 42 e5 bd 66 8b 8d be 31 72 1f be 51 9a 5f be
       -0.111943826 -0.27645415 -0.15570904 -0.21836211
0002a0 a5 4f 80 3d e4 db ae bd 33 06 3d 3d d2 ea 17 bd
       0.06265191 -0.085380346 0.04614849 -0.037089176
0002b0 77 c9 0c bd 8e 1d 3c 3e c6 02 6b bd da cc 2d be
       -0.03437182 0.18370649 -0.05737569 -0.16972676
0002c0 d6 ac 85 3c ab 60 f9 3d 7b ef a8 3d b6 0d 16 3d
       0.016317766 0.12176641 0.08248802 0.03663417
0002d0 24 07 6d 3d 06 92 9d bd 9e ce 0a be bb 60 9f 3d
       0.057868138 -0.076938674 -0.1355538 0.07782122
0002e0 79 2b 3d bd af 2c c0 3d 98 1d 80 bd 8d 9a 1c 3e
       -0.046184037 0.09383523 -0.062556446 0.15293331
0002f0 6d f1 c7 bd d8 52 8b bd 4d d9 51 bd 0f 7f 3c bd
       -0.09762845 -0.068029106 -0.051232625 -0.04601961
000300 96 21 5f 3e e2 33 45 bd 18 42 f4 3d 81 58 02 be
       0.21790156 -0.048145182 0.11926669 -0.12729074
000310 27 d7 52 3e c6 4a 35 3e 20 49 0e be 94 48 b6 3b
       0.20589887 0.17704305 -0.13895082 0.005562851
000320 17 33 25 bd 83 01 a3 3d 36 ce 12 3c d0 d3 64 3e
       -0.040331926 0.07959273 0.008960297 0.22346425
000330 a3 99 b5 bd 4f 05 1a 3e 35 5a 2c be 7b cc 66 3e
       -0.088671945 0.15041088 -0.16831286 0.2253894
000340 be a0 67 3e 2c da af 3e 4f b8 47 3d bc c7 74 3d
       0.22619912 0.3434614 0.048759755 0.059760794
000350 62 20 d5 ba b9 5e fe 3d d6 e1 cf 3c 42 29 ac bd
       -0.0016260261 0.12420411 0.025376242 -0.08406307
000360 02 18 d2 3d e7 e6 6d 3c 64 b2 1b 3e 5e 07 de bd
       0.102584854 0.014520383 0.1520477 -0.10841249
000370 d2 c6 31 3d 79 63 3f 3e 8c e2 c8 3d 37 32 e0 3d
       0.0434025 0.1869029 0.098088354 0.10947078
000380 2d 12 b7 bd e6 dd 6b be 63 67 ee bc 62 72 98 3d
       -0.08939014 -0.23033866 -0.029102033 0.07443692
000390 ee 45 4a bd e8 03 e9 bc 78 74 1f be 20 5e ff bb
       -0.049383096 -0.028444245 -0.15571773 -0.007793203
0003a0 a0 87 88 bc 31 81 a2 3d 82 35 26 be ca 8f 13 3e
       -0.016666234 0.079347976 -0.16231349 0.1441032
0003b0 09 ae 08 3e 6c 48 a5 be fa fd c5 bd 31 cc 25 bd
       0.13347639 -0.32281816 -0.09667583 -0.040477935
0003c0 c2 b9 b1 bc 55 2a c5 3c 87 e3 c5 bd 3c 8e fb bd
       -0.021695022 0.024068037 -0.09662538 -0.122829884
0003d0 7c 29 7c 3e 3e 49 87 be f2 86 8a 3d a1 87 14 3e
       0.246252 -0.26423067 0.0676402 0.14504863
0003e0 f2 51 0f be 46 c8 02 3e f1 5d ac 3e 4e 6f 65 be
       -0.13996103 0.12771711 0.33665422 -0.2240574
0003f0 c0 a7 89 3c 09 37 cf 3d fb 45 10 bc d1 f3 c3 bd
       0.016803622 0.10117919 -0.008805747 -0.09567989
