backend/ai_engine/models/lstm_forecast_model.pth (torch, 211397 bytes, 9 tensors)

lstm.weight_ih_l0 f4 [256, 6]
000000 04 76 af be a5 29 bf 3e 19 06 17 3f e7 70 bf 3e
       -0.34269726 0.3733646 0.5899368 0.37390825
000010 af bf 82 3d 00 6b a5 bf 78 b8 f1 be 61 c6 12 bf
       0.06384217 -1.2923279 -0.4721105 -0.5733395
000020 32 ce ab 3e cf 26 a9 be 35 79 ad be 93 35 5f be
       0.33555752 -0.3303742 -0.33881536 -0.2179778
000030 8a 57 b7 be 3a f5 07 3c 10 9b 45 bf 05 6c ae 3e
       -0.35808975 0.008298213 -0.7718973 0.34066787
000040 12 9b 05 3e 4a 7d f1 3e 01 54 ca 3d 1f b2 d5 3d
       0.13047436 0.471659 0.09879304 0.104343645
000050 bd db bf bc 04 d9 e2 bd 71 d6 31 3f 5d 61 b7 3e
       -0.023420209 -0.11076549 0.69467837 0.3581647
000060 d6 0e 08 be 74 00 f5 bd 48 3f f4 be c0 ad 1a be
       -0.1328691 -0.11962977 -0.4770453 -0.15105343
000070 e8 ff ad bc 41 f3 97 bf 49 59 44 bf da 72 73 3e
       -0.02124019 -1.187111 -0.7669874 0.23774281
000080 19 44 87 be 3d 82 f0 3d 16 d2 61 3d c8 e1 d6 3e
       -0.26419142 0.11743591 0.055131994 0.41969132
000090 14 2b 17 3f 84 df 05 bf 95 b5 8d be c5 86 7d 3d
       0.59050107 -0.5229418 -0.276776 0.061896104
0000a0 aa 37 d6 bd e8 f5 91 3e 3b 11 31 bf 90 95 5d bf
       -0.10459836 0.28507924 -0.69166917 -0.8655634
0000b0 21 97 d8 3e 12 e5 b7 3e ae 34 a4 be be 39 aa bf
       0.42302802 0.35916954 -0.3207144 -1.3298872
0000c0 ce f0 39 3d 28 26 99 be a7 52 b2 be 48 26 95 be
       0.045395665 -0.29911923 -0.34828684 -0.2913077
0000d0 c8 2c b8 be 5e ec 8f 3c 64 55 bf be 5a f8 10 c0
       -0.35971665 0.017568763 -0.37369835 -2.2651582
0000e0 7f c8 d9 bf 63 79 86 3e 48 85 4c be 9e 94 1f be
       -1.7014312 0.26264486 -0.19972718 -0.15584037
0000f0 b3 c6 02 3f b3 21 43 be 1c 79 12 bf c5 e2 02 bf
       0.5108444 -0.19055824 -0.5721605 -0.5112727
000100 8f d1 66 bd ac df bb bd 5b 98 9f bb 65 36 7b 3d
       -0.056352194 -0.091735214 -0.004870457 0.06133117
000110 87 15 48 be cd ce 04 3e 8b 01 23 bf 69 75 65 bd
       -0.19539462 0.12969513 -0.6367423 -0.056020174
000120 7b 49 09 bf af 6f 97 3e 6d f6 19 3f 9c 59 06 bf
       -0.5362775 0.29577395 0.6014164 -0.52480483
000130 22 23 5f be 1e ab 06 3f 21 b0 a4 be 98 cc b8 be
       -0.21790746 0.52604854 -0.32165626 -0.36093593
000140 79 7d 91 bd 7d 69 d1 be e7 33 d8 3d 26 82 c7 be
       -0.0710401 -0.40900794 0.105567746 -0.38966483
000150 b1 e6 d4 3d 9a 6f dd 3d 83 1e 06 3d f4 36 a2 3d
       0.103955634 0.10812302 0.032743942 0.07920638
000160 88 81 7d 3d a8 16 02 3f 59 a4 ca be fd f4 9e 3e
       0.06189111 0.5081582 -0.39578512 0.31046286
000170 29 54 92 be a3 e5 ed 3e 4d 91 b0 be 17 92 35 bf
       -0.28579834 0.4646426 -0.34485856 -0.7092604
000180 0b af 26 3f 6a 78 56 3e a2 63 31 be 4b f4 0e be
       0.65110844 0.20944372 -0.17323163 -0.13960378
000190 a0 0e 0a 3e 8f 3d a5 be a6 8c 60 bf 94 47 cb 3d
       0.13482141 -0.32273528 -0.8771461 0.09925762
0001a0 42 2e 4c 3f 56 1c c0 be 9b 62 3c be 9b 66 8d be
       0.79758084 -0.3752162 -0.1839699 -0.27617344
0001b0 16 0a 55 be 14 61 23 3f 19 87 54 3e 80 eb 58 be
       -0.20804629 0.63820004 0.2075466 -0.21183586
0001c0 b9 91 4f 3e e2 4b 53 bf 15 06 a0 3c 1c 96 f2 3d
       0.20270433 -0.82537663 0.01953415 0.11845037
0001d0 20 a5 72 bd f7 d8 17 be 47 ec 24 3e 89 8e 55 be
       -0.059239507 -0.1482886 0.16105758 -0.20855154
0001e0 94 60 78 bf 3e d4 98 3e e7 41 1d be 8f 3c b7 3e
       -0.97022367 0.29849428 -0.15357171 0.3578839
0001f0 d0 1d 75 3e 27 e3 8c 3e 0c 1f b9 bf 0a 40 99 3e
       0.23937154 0.27517053 -1.44626 0.2993167
000200 2d e9 8e 3e 70 01 27 3d 4c 3c 08 bd 8f cc 37 bf
       0.27912274 0.040772855 -0.03326063 -0.71796507
000210 e9 f7 fd bd 1f f0 0c bf ba 9c 41 be ff 66 8f bd
       -0.12400801 -0.55053896 -0.18907443 -0.07002067
000220 35 58 1b bf b4 26 b5 be 47 35 1a bf 34 7f 59 bf
       -0.6068147 -0.3538109 -0.60237545 -0.8495972
000230 19 39 eb be b0 1d 30 3f 1b 2d a1 be 2c 12 5e 3e
       -0.45942 0.687953 -0.31479725 0.2168662
000240 30 c2 98 3e a3 0b 4e bf ef a2 d7 3e b1 59 16 3f
       0.29835653 -0.80486506 0.42116496 0.5873061
000250 f1 9d de be 2a 40 9d bf df 78 e8 3e f4 01 09 3f
       -0.43479875 -1.2285206 0.45404717 0.53518605
000260 95 94 1c 3f 47 06 15 3e d9 12 95 3e c2 b6 04 3e
       0.6116422 0.14553176 0.29115942 0.12960342
000270 df 07 cb be b2 f6 83 be d8 25 3a be 3f 55 00 3f
       -0.39654443 -0.2577415 -0.18178499 0.50130075
000280 92 d4 b4 3e 4c 40 48 3e 94 14 03 3c 10 aa 21 3e
       0.35318428 0.19555777 0.008000512 0.1578753
000290 ec 35 cb be 96 d9 6a 3f 40 e4 9f 3e 3e a7 80 bf
       -0.39689577 0.9173826 0.31228828 -1.0051038
0002a0 61 31 f5 3d 7d f3 ac 3e 77 5f a8 3e 43 3e 36 bf
       0.11972309 0.33779517 0.32885334 -0.71188754
0002b0 dc c0 55 bf e8 ab 0e bf d5 f0 7b 3e 94 fa 4d 3e
       -0.83497405 -0.5573106 0.24603589 0.20115119
0002c0 32 56 14 3e 87 80 1c be 51 fc 0d bf 4e 19 5d 3f
       0.14486006 -0.15283404 -0.5546313 0.86366737
0002d0 16 5a 87 bf 48 96 4c 3e f8 49 0e 3e 85 62 c4 bd
       -1.0574367 0.19979203 0.13895404 -0.095891036
0002e0 56 dc 3f bf 22 8a 86 3f ac bc 19 3e b0 31 66 be
       -0.7494558 1.0510905 0.15013379 -0.22479892
0002f0 89 e8 0a 3e be 64 ec be 72 41 38 be fb 47 8c 3f
       0.13565268 -0.4617061 -0.17993715 1.0959467
000300 e4 b2 72 bf c4 09 eb 3e 45 28 b3 3c 38 50 45 3d
       -0.94804215 0.45905888 0.021869788 0.048172206
000310 bf b5 23 be 14 88 14 3e 87 b9 8e be b3 6b 04 c0
       -0.159873 0.14505035 -0.2787592 -2.0690734
000320 b8 39 a4 3e 59 16 08 3c 82 c8 4f be ef 92 59 bd
       0.32075286 0.008306109 -0.20291331 -0.053118642
000330 f8 7b fc be 90 fa fb bd 8b d5 dc 3e b4 26 04 3f
       -0.4931333 -0.123036504 0.4313167 0.51621556
000340 54 15 6f 3e 9b 35 74 3e 86 20 e2 3d 2f 74 a7 3e
       0.2334798 0.23848574 0.110413596 0.3270583
000350 d3 08 34 3e 08 d9 2e be 5d 8f 17 bf ab ae e0 bd
       0.17581491 -0.17074978 -0.5920313 -0.10970815
000360 e5 8e 3f be 39 48 f1 bd 2e 29 22 bf 79 4f b9 3e
       -0.18706854 -0.117813535 -0.63344085 0.36193445
000370 cf 6d 13 bf c9 93 3c 3e f5 ab 80 3c c5 b8 9c be
       -0.5758943 0.1841575 0.015706996 -0.30609718
000380 56 d5 14 be 85 0e 23 bf 2b 85 0a bf 0d 9b 48 be
       -0.14534506 -0.6369403 -0.5410945 -0.19590397
000390 1f 4a 40 bf ac 44 09 3f c9 f5 0c be f7 d7 03 3f
       -0.751131 0.5362041 -0.13765635 0.5150141
0003a0 fb c4 0e bf c3 70 f0 3d bd d8 be be 99 0a da 3e
       -0.5576932 0.117402576 -0.37274733 0.4258621
0003b0 84 b5 dd 3d da 1e 86 3e 09 28 fa 3e da f3 8f be
       0.10825637 0.26195413 0.4885867 -0.2811573
0003c0 c4 95 10 bf dc eb f3 be ec a5 a1 be 29 24 af 3e
       -0.56478524 -0.47640884 -0.315719 0.34207276
0003d0 73 cf 16 bf 40 3f 9d bf b6 ae 90 be 5b 11 ea 3e
       -0.5891029 -1.2284927 -0.28258294 0.45716366
0003e0 5b 0b bc 3d 5c 7a 66 bc 1b 9a 16 bf 15 5a 3d bf
       0.091818534 -0.014067259 -0.58828896 -0.7396558
0003f0 72 84 9f be fd 11 4d bf 83 29 06 be 54 ff 11 bf
       -0.31155735 -0.8010557 -0.13101773 -0.57030225

lstm.weight_hh_l0 f4 [256, 64]
000000 c2 4b e0 3e e5 01 4e 3d d4 d3 ab 3e b1 d9 fd 3e
       0.438078 0.050294776 0.3356005 0.49580148
000010 54 2e d1 3f 89 4b 47 bf aa c5 08 3e d1 69 f1 bc
       1.6342263 -0.7784963 0.13356653 -0.029469403
000020 b7 dc 60 3f ef ca 64 bd 6b 95 00 bf 4e 71 5e 3f
       0.87836784 -0.055857595 -0.50227994 0.8689164
000030 4d 30 64 3e ca 10 ac be 9e 90 85 3d 34 21 53 be
       0.2228405 -0.3360656 0.06521724 -0.20618135
000040 7a 72 29 bf 92 fd 43 3e 16 49 3f be bd 19 1c bf
       -0.661903 0.19139698 -0.18680224 -0.60976774
000050 99 9a 6a 3f 3f f2 81 be 03 99 c2 be 60 52 c9 be
       0.9164215 -0.25380132 -0.38007364 -0.3932066
000060 74 43 ce 3e 59 6d c1 be 15 17 c9 3e fe 72 39 bf
       0.40285838 -0.37778738 0.39275423 -0.7244109
000070 dd 4a 55 bf fb 29 a9 3e 81 31 a8 be 94 e9 0f bf
       -0.8331736 0.3303984 -0.32850268 -0.56215787
000080 bf 86 3f bd 02 3c 63 be 30 b3 71 bf 96 56 32 bf
       -0.046759363 -0.2219086 -0.94414043 -0.6966337
000090 ab c9 b6 be 9f d9 a1 3d 14 8d 69 3f 05 b0 06 bf
       -0.35700735 0.07902836 0.91230893 -0.52612334
0000a0 b3 87 ba 3e 69 f5 aa 3d 91 0d a8 3e a6 f0 b5 3f
       0.36431655 0.083475895 0.3282285 1.4214065
0000b0 c0 c7 2c 3e a3 a9 28 be b5 11 59 bf 43 40 2e be
       0.16873074 -0.16470961 -0.84792644 -0.17016701
0000c0 aa 57 a5 be 72 f8 34 bf 6e d4 9f be 3c 22 2a 3f
       -0.32293445 -0.706916 -0.31216758 0.6645849
0000d0 00 61 b5 3e 3d 0d d5 3e ed cf 63 3b 1f e9 b1 bd
       0.35425568 0.41611663 0.0034761385 -0.086870424
0000e0 fb 04 0d be 55 63 88 3d 69 24 5c 3e 61 cd 81 3f
       -0.13771431 0.06659571 0.21498264 1.0140802
0000f0 26 cd 2d 3b be 5b 93 be d4 66 f2 3e 6c d3 34 3e
       0.0026519983 -0.2878093 0.47344077 0.17658776
000100 58 d8 df 3d 33 b3 d6 bd 9d ae 72 be a3 50 2b 3f
       0.10929936 -0.10483398 -0.23699422 0.66919917
000110 f1 2a 14 3f 82 f1 66 3f 90 6d b7 3d 18 46 49 bf
       0.57878023 0.9021226 0.08956444 -0.7862258
000120 52 a0 23 be e3 10 fd 3e 9f 88 57 3e 9e ac 4b be
       -0.15979126 0.49426946 0.2104821 -0.19890067
000130 88 dd 32 3f d8 b0 e1 3e 40 9c 64 be 5f a2 23 bf
       0.6986928 0.44080234 -0.2232523 -0.63919634
000140 79 1b 78 bf 93 3c 6b be f5 2a 1b be be d8 0f 3f
       -0.9691692 -0.22972326 -0.15153106 0.561901
000150 bc 25 07 3f 03 f0 da 3e 84 72 bc 3e 25 03 73 3f
       0.52791953 0.4276124 0.36806118 0.94926673
000160 fb ed 11 bf 67 83 f1 be 32 f0 6a 3e 94 bf 7d bf
       -0.57003754 -0.47170565 0.2294319 -0.9912045
000170 ba 65 29 bf d0 a0 f2 be d5 6b 2e 3e 5e ee 8a be
       -0.6617085 -0.47388315 0.17033322 -0.27134985
000180 d3 e2 c7 be 50 7e 65 3f f5 6d 3f 3e 35 ee 9b bf
       -0.3904024 0.8964586 0.18694289 -1.218207
000190 97 49 5a 3e 73 73 5d 3e 1d 38 d1 be f4 b6 27 be
       0.21317135 0.21626072 -0.40863124 -0.16378385
0001a0 0d 76 85 3e bb 70 aa 3b 16 99 5c bf 6d f8 13 bf
       0.26066628 0.005201427 -0.8617109 -0.5780094
0001b0 09 09 bb 3c ad 88 ed 3e 3a d8 82 3d bb b9 b5 3e
       0.022831457 0.46393338 0.06388898 0.35493264
0001c0 7a f5 59 bf 57 f7 7b 3e 3d 97 4b 3e fe cb 58 3f
       -0.8514019 0.24606071 0.19881912 0.8468627
0001d0 c5 d7 f6 3e 95 1a bd 3e 42 fd 74 be 37 b2 2c 3f
       0.48211494 0.36934343 -0.23924735 0.67459434
0001e0 20 d1 f3 be 29 6d 3d bf 1c 01 40 be 3a 7b 09 3e
       -0.47620487 -0.7399469 -0.18750423 0.13425913
0001f0 a8 3d d2 be f4 0b 87 3e 18 49 a2 bc f2 54 25 3f
       -0.41062665 0.26376307 -0.019810244 0.6458274
000200 65 8a 84 be 9f 84 a5 bf 41 0d ae 3c 13 5c 9e 3b
       -0.25886837 -1.2931098 0.021246554 0.0048327534
000210 26 90 83 bf a4 92 35 be 20 70 cf bc 33 d1 8a 3e
       -1.0278366 -0.1773172 -0.02532202 0.2711273
000220 fc 42 87 3e a3 69 f0 3e fd 74 b6 3e e1 40 15 bf
       0.26418293 0.46955594 0.3563613 -0.5830212
000230 b2 6a 8c be 47 fb 1f 3f cf 8f ac be 76 a6 ef 3b
       -0.27425152 0.62492794 -0.33703467 0.007313545
000240 f8 01 21 be bf 7b 1b 3d 3e 42 41 3f 85 9c 52 3a
       -0.15723407 0.03795981 0.754917 0.00080341875
000250 bc 80 e3 be 13 b8 50 3e a1 cb 0a 3f 46 af b3 be
       -0.44434154 0.20382719 0.54216963 -0.3509466
000260 96 9b a9 be b9 6e d8 3d 36 37 b8 be 00 b0 49 3e
       -0.33126515 0.10567994 -0.35979623 0.19696045
000270 80 16 0b be 9a 3e e4 bd 72 d0 03 bf c6 98 30 be
       -0.13582802 -0.11144753 -0.5148994 -0.17245778
000280 f4 15 86 3f 9e e9 28 be ab c4 df be 3b 22 a2 3e
       1.047545 -0.16495368 -0.43704733 0.3166674
000290 67 20 ca be 14 24 8e bd f4 b5 67 bd 93 05 30 bf
       -0.39477846 -0.06940475 -0.05657001 -0.68758506
0002a0 bb 47 bf 3e 50 48 ea 3e 1e 33 29 3c ab 50 62 3d
       0.37359414 0.45758295 0.010327129 0.055252712
0002b0 1b 31 60 be 98 ce 86 be 9e 07 53 be 69 40 91 3e
       -0.21893732 -0.26329494 -0.20608374 0.28369454
0002c0 35 62 c7 3f 04 ce ab be a6 74 37 3d 86 79 00 bf
       1.5576845 -0.33555615 0.04478898 -0.5018543
0002d0 04 11 cd bf ce 3a b3 be 18 aa e5 3e 3e c7 5d be
       -1.6020818 -0.35005802 0.44856334 -0.21658036
0002e0 ba 9e 80 3f cd ca c6 3d ad 9f 09 3f 57 0e e3 be
       1.004844 0.0970665 0.5375927 -0.44346878
0002f0 1e 8f 8a 3e 81 64 0b 3f 06 25 77 3d 0d 89 7f bf
       0.27062315 0.5445023 0.060338043 -0.998185
000300 8a 88 89 3e 40 9d 04 bf e1 f3 17 3e c3 1e 48 3d
       0.26861984 -0.51802444 0.14839126 0.04885746
000310 92 78 97 be 4c c8 0b bf 51 cc 47 3e fc b2 02 3f
       -0.29584175 -0.54602504 0.19511534 0.5105436
000320 76 e2 a4 3d 64 7f c3 bd ab 99 2b be 52 f7 6f 3e
       0.080510065 -0.09545782 -0.16757838 0.23434189
000330 aa 9a 45 bf 5f 00 a1 be 17 f4 e8 bd 63 89 9e 3b
       -0.77189124 -0.31445596 -0.113746814 0.004838155
000340 96 92 23 3f 87 f8 31 be 83 2b ef be ab 71 3f 3c
       0.6389555 -0.17379962 -0.46712884 0.011684815
000350 a9 b4 22 3f 76 20 5e 3e b1 61 35 bf ce 5e ee be
       0.63556916 0.2169207 -0.7085219 -0.46556705
000360 68 91 35 3e d7 5a 5b 3f f2 8e fa bd 92 8c b5 bd
       0.1773125 0.85685486 -0.12234296 -0.08864702
000370 5e 3e 3f 3f f7 34 3c bf 4b f2 bf be 69 39 f1 3d
       0.7470454 -0.7351832 -0.37489542 0.11778528
000380 27 9c 88 be 82 f6 1e bf d1 9f 81 3e 01 73 4e 3f
       -0.26681635 -0.6209489 0.25317243 0.8064423
000390 c4 2a f0 3e dc 9c bc bd 9e 2f 0f bf 4b f1 ab bd
       0.46907628 -0.09209606 -0.55932033 -0.08395632
0003a0 64 38 68 be 07 ce 79 be 08 64 17 3f 6c 11 25 be
       -0.22677761 -0.24395 0.5913701 -0.16119927
0003b0 33 dd 3b bf 4c 34 e0 3f 19 49 85 3f e3 16 52 bf
       -0.733844 1.751596 1.0412933 -0.8206617
0003c0 9c c8 96 bd 40 75 83 be ee 03 c3 bd 12 c7 9d be
       -0.07362482 -0.25675392 -0.09522234 -0.3081594
0003d0 be 64 87 bf d2 d6 09 be 05 a4 d5 3c 95 7f 66 3e
       -1.0577619 -0.13460854 0.026079187 0.22509606
0003e0 fa bf a4 be a8 29 68 3d d0 6c a1 3f 33 21 ea be
       -0.32177716 0.05668035 1.2611332 -0.45728454
0003f0 3c ad 98 be 50 ab d1 3e 75 19 b2 3d 61 3d 13 3d
       -0.29819667 0.40951014 0.08696262 0.035947207

lstm.bias_ih_l0 f4 [256]
000000 d1 d4 d9 bd f0 48 ab be f0 89 85 be 18 1a 50 3d
       -0.10636295 -0.33454084 -0.260818 0.050806135
000010 e2 2d 24 bf d6 89 c3 be 3b cc 18 bf a8 f7 81 be
       -0.6413251 -0.38191098 -0.5968663 -0.2538426
000020 f5 6b 2b bf f8 3d fa bb 72 2d bc be 2a a7 b4 bd
       -0.66961604 -0.007636782 -0.36753422 -0.088209465
000030 7b 3c 0c 3f 99 2e 0c bf 11 46 75 be d3 6f 9c be
       0.54779786 -0.547586 -0.2395251 -0.30554065
000040 77 4a 8a bb c1 6c c3 bd bd 32 b2 be 50 15 eb be
       -0.0042203027 -0.095422275 -0.34804335 -0.45914698
000050 35 ca 56 3e 5e 5c 8a bc 46 ba c2 be 07 09 c7 3d
       0.20975573 -0.016889747 -0.3803274 0.09718519
000060 21 b1 5f be 62 74 40 3e 63 03 72 be c2 c1 4b be
       -0.21844913 0.18794397 -0.23634104 -0.19898131
000070 32 17 ba be aa 1c a5 3e d6 3a 8d 3e e9 47 84 be
       -0.36345822 0.3224843 0.2758395 -0.25836113
000080 71 50 94 bd f2 1a 78 bd 62 42 84 be a3 a2 c7 bd
       -0.072419055 -0.060572572 -0.25831896 -0.09747817
000090 a2 dd 35 be b9 32 16 bf 32 28 34 bf e6 d8 d3 bd
       -0.17760327 -0.58671147 -0.70373833 -0.103441045
0000a0 bc ca b0 be e5 71 b7 3a 36 e7 d7 be cb e2 db be
       -0.34529674 0.0013995735 -0.42168587 -0.42946467
0000b0 b1 f0 09 bf 9e d2 de be 65 2c c4 3d 8e 2b c2 bd
       -0.5388289 -0.43520063 0.0957878 -0.09480964
0000c0 9a 71 b3 3e 52 c9 92 be 7f 93 85 be 50 f1 31 be
       0.3504761 -0.2866922 -0.26089093 -0.1737721
0000d0 bc fc ac 3e 37 e7 57 bc ab 9b 0d 3d 8a c4 1b 3e
       0.3378657 -0.0131776845 0.034572285 0.15211692
0000e0 9a 34 94 be b7 e2 47 be 27 22 82 3c aa 02 4a be
       -0.28946382 -0.19520079 0.015885426 -0.19727579
0000f0 0e bf e9 be 47 ae 5d be e1 da f3 be a2 45 0d be
       -0.45653576 -0.21648513 -0.4762793 -0.13796094
000100 c2 50 ff be fb 12 2f be aa 39 31 3e e5 82 a3 be
       -0.498663 -0.17097084 0.17307153 -0.31935802
000110 79 f7 04 3c b0 0c 9e 3d 39 cc e3 3d df 3e 73 bb
       0.008115643 0.07717264 0.11122937 -0.0037116332
000120 6e d9 5c 3e ab 1d e1 3e c6 dd d7 bb 80 e0 2c 3d
       0.21567318 0.43967947 -0.0065877168 0.042206287
000130 28 cf cb 3d 0b 4c 2a be 82 d0 43 be 0d 81 75 bd
       0.09951621 -0.1663057 -0.19122508 -0.059937526
000140 08 3e 82 bf 56 43 08 bf a1 0f 3b 3b 34 54 a2 be
       -1.017518 -0.53227746 0.002854325 -0.31704867
000150 bc e2 97 be 74 22 1d be 13 a0 ec 3e 8b 21 82 3e
       -0.29665172 -0.15345174 0.46215877 0.25416216
000160 80 5c 26 3e c4 2e 52 bf a1 a9 0d be 62 9c 4b be
       0.16246223 -0.8210261 -0.1383424 -0.19883874
000170 0a af a5 be cf 76 64 bf c2 6c 08 bf 43 7a a4 3e
       -0.32360107 -0.8924379 -0.5329095 0.32124528
000180 33 a5 20 3d 92 dc 47 bd 1c 14 57 3d 1a 71 fa bd
       0.039220046 -0.048794337 0.052509412 -0.12228604
000190 9b f7 3e be c8 5b 56 3e 5c 30 88 3d c4 f4 e1 be
       -0.18649141 0.2093345 0.06649849 -0.44132054
0001a0 16 ee ec 3e b8 40 87 be 22 cc 55 be b2 d8 89 be
       0.46275395 -0.26416564 -0.20878652 -0.26923138
0001b0 78 3d 38 be 0a 62 62 be 39 94 0d bf f3 83 86 be
       -0.17992198 -0.22107711 -0.55304295 -0.26272544
0001c0 31 10 85 bf f1 41 c1 3d ae f8 26 3d ad 1f 01 3e
       -1.0395566 0.094364055 0.040764503 0.1260974
0001d0 e7 7b b7 be 35 9c 84 3e 0f 5d a1 3e 91 7e 30 bf
       -0.35836717 0.25900427 0.3151631 -0.68943125
0001e0 cc a8 09 3f 2d a2 55 bc d8 50 ce be 44 43 e1 3d
       0.5377319 -0.013039154 -0.40296054 0.10999158
0001f0 ef 38 6b bd 79 5b c4 3e 63 2d d6 bd 94 81 9c 3d
       -0.057427343 0.38351038 -0.104578756 0.076419026
000200 4c 44 91 3e e6 ed 32 be 44 95 06 3e b0 5e 3a 3e
       0.2837242 -0.17473564 0.13142878 0.18200183
000210 b0 a0 87 3e 9f 0c ed be 8c 72 89 3e 4a 76 37 3d
       0.26489782 -0.46298692 0.26845205 0.044790544
000220 3a a3 d2 3e fa 64 67 be 28 63 d3 bb a6 e6 08 bf
       0.41140157 -0.22597113 -0.0064510293 -0.5347694
000230 b0 c8 9f bd 45 b9 c5 bd 09 01 91 bd 6d b2 22 3e
       -0.0780195 -0.09654478 -0.070802756 0.15888377
000240 4d 68 0d 3e 91 08 17 bf 5e b0 db 3e 10 54 17 3c
       0.13809319 -0.58997446 0.42907995 0.009236351
000250 87 1f c4 bd 1e 0a 3d bd 8e 45 ad be e5 92 37 3e
       -0.09576326 -0.046152227 -0.3384213 0.1792713
000260 e6 96 f5 bc 95 a4 af 3e 12 21 54 3e df 57 c6 3e
       -0.02997918 0.34305254 0.2071574 0.38738915
000270 60 07 b3 3c 64 ec e4 be 59 8a 66 be 81 3a 6d bd
       0.021854103 -0.44711602 -0.22513713 -0.05791712
000280 37 be 05 3f dc f7 a2 be 84 56 85 3e 5d fc df 3e
       0.5224337 -0.31829727 0.2604257 0.43747225
000290 e1 71 15 bf c8 61 f9 bd 03 a0 b2 bd 13 7e eb bd
       -0.5837689 -0.121768534 -0.08721926 -0.11498656
0002a0 91 b1 67 3d 1e 6f ce be f4 48 eb 3d 5e 1e 61 bd
       0.056565825 -0.4031915 0.11488524 -0.0549606
0002b0 4c 70 12 3e 1e 91 79 3e cf b8 15 3f d3 d1 ea be
       0.1430065 0.24371764 0.5848512 -0.45863208
0002c0 dc a0 ad bd 0d 67 56 3e d5 be af 3e b9 17 7d be
       -0.08477947 0.20937748 0.3432528 -0.2471608
0002d0 06 82 b7 be 08 c4 69 3c 42 d7 56 be 01 15 7a bd
       -0.35841388 0.014267929 -0.20980552 -0.061055187
0002e0 0e df a5 3d 82 da 37 3e 09 83 a7 3e b4 d1 43 bd
       0.08099185 0.17954448 0.3271716 -0.04780741
0002f0 8a 33 ea 3c d7 6a 48 3e 68 5d 82 3d db a6 4a 3e
       0.028589029 0.19572006 0.06365472 0.19790213
000300 b4 55 8f be f8 28 89 be 20 c0 3f be 80 3e a4 be
       -0.27995074 -0.2678907 -0.18725634 -0.32078934
000310 ac a3 a2 bc 93 69 78 be 00 4b b7 be b6 f0 82 be
       -0.019853435 -0.24259023 -0.35799408 -0.25574273
000320 c1 c0 37 3e 1c 51 47 3d 65 a0 b2 be d5 e6 93 be
       0.17944624 0.048661336 -0.34887996 -0.28887048
000330 2e 5f f2 3e 06 2e e9 be 42 91 2e be 17 5d 0a be
       0.4733824 -0.45542926 -0.17047599 -0.13512073
000340 1f 8f 95 3b a0 3e f9 3c f8 87 da be a3 f8 47 be
       0.0045641805 0.03042537 -0.4268186 -0.19528441
000350 11 46 4c 3f 09 d8 00 3d 1b 88 e8 be 99 2f f7 bd
       0.7979441 0.031456027 -0.4541634 -0.120696254
000360 cc 7a 98 be 63 48 c8 3e e8 26 05 bf 7e 05 36 be
       -0.29781187 0.39117727 -0.5201249 -0.17775533
000370 a3 20 fe be 6a b6 76 3e 88 e3 fe 3e d7 ac 9c be
       -0.49634275 0.24093023 0.49782968 -0.30600616
000380 14 0f a5 3c 42 e8 be bc 27 13 3a be 81 c3 a2 bc
       0.020148791 -0.023304109 -0.18171369 -0.019868614
000390 85 81 32 bd 9b 22 c0 be 7e de 9f be bd b8 71 be
       -0.04358055 -0.37526402 -0.31224436 -0.23605628
0003a0 26 7c 35 3e 57 c9 9e bd 6e 17 17 bf 6a 9f 8d be
       0.1772314 -0.07753246 -0.59020126 -0.27660686
0003b0 b7 4d ce be 62 07 77 be f3 0f 41 3d ea f3 2e 3e
       -0.40293667 -0.2412391 0.04713435 0.17085233
0003c0 62 2e 29 3f 93 d2 b2 be 7e 0f 87 be 1b 76 97 bc
       0.660864 -0.3492628 -0.26379007 -0.018488934
0003d0 7e 1e 1a 3f 2d 0c 60 be 52 dd e2 bd 16 d6 82 3e
       0.6020278 -0.21879645 -0.1107737 0.2555396
0003e0 bc e8 41 be ae 0e c5 be 16 59 12 be 8e d1 42 3d
       -0.18936437 -0.38487762 -0.14291796 0.04756313
0003f0 92 78 90 be ab d8 50 3b 52 44 13 bf 6e 75 18 be
       -0.28216988 0.0031867425 -0.57526124 -0.14888546

lstm.bias_hh_l0 f4 [256]
000000 68 35 1d be 2c c4 c9 be 05 b6 89 be 08 68 56 3d
       -0.15352404 -0.3940748 -0.26896682 0.052345306
000010 88 ab 05 bf de b9 c3 be 09 a4 cd be 12 c3 c3 be
       -0.5221486 -0.38227743 -0.4016421 -0.38234764
000020 b9 29 1f bf e7 1b 03 3c 8c f6 97 be 09 3d 77 bd
       -0.6217304 0.008002258 -0.29680288 -0.060360942
000030 eb 12 b3 3e 87 8b d3 be b1 24 26 be af 30 94 be
       0.3497537 -0.41317388 -0.16224934 -0.28943393
000040 62 14 82 3c b9 ac de bd a5 bc 11 bf 7a b6 ea be
       0.01587886 -0.10872788 -0.56928474 -0.45842344
000050 9d c2 77 3e 14 15 32 3e b2 72 e1 be 6b 0a 01 be
       0.24195333 0.17390853 -0.44032818 -0.1260163
000060 d7 a5 b7 bd 22 0d 32 3e a5 5a 77 be 9c b7 a1 be
       -0.08967178 0.17387822 -0.24155672 -0.31585395
000070 f8 a4 dc be aa 9c 93 3e 06 13 62 3e 92 27 b2 be
       -0.4309461 0.28830463 0.2207757 -0.34795815
000080 7d f7 25 bd f7 7e fc 3c c8 07 ac be 97 66 21 be
       -0.040519226 0.03082226 -0.33599687 -0.15761791
000090 15 04 75 be 2b 40 30 bf e6 ad 18 bf 58 3e 8a be
       -0.23927338 -0.6884791 -0.5964035 -0.2700069
0000a0 91 b0 04 bf 75 f0 b3 bd 62 4d 14 bf 11 52 0d bf
       -0.5183192 -0.08786098 -0.57930577 -0.5520335
0000b0 a9 11 d7 be cc 27 da be 0a ec 40 bd fa bd 01 3d
       -0.4200566 -0.42608488 -0.047100104 0.031675316
0000c0 80 58 e4 3e 7e 3d b5 be 72 c6 ad be ba 2a 75 be
       0.4459877 -0.35398477 -0.33940464 -0.2394208
0000d0 7a 45 d4 3e 1b e7 27 be 7b a6 ab 3c 23 73 9a 3d
       0.41459256 -0.16396753 0.020953408 0.07541492
0000e0 32 b1 a5 be 5b ad 65 be 04 12 20 3e ed 8e 77 be
       -0.32361752 -0.22429411 0.15631872 -0.24175616
0000f0 34 27 84 be e3 d1 89 be 35 c1 e2 be f0 5d f2 bd
       -0.2581116 -0.26917943 -0.4428803 -0.118343234
000100 59 1c e0 be 7b e6 59 be 5e 15 39 bd e3 b3 94 be
       -0.43771628 -0.21279328 -0.045186393 -0.29043493
000110 7f e7 b7 bc bd d7 48 bd a2 33 f0 3c 87 a4 89 3c
       -0.022449253 -0.04903387 0.029321495 0.016802086
000120 4e da 6b 3e 4a 2e 5e 3e c8 a0 39 bd d5 89 e2 3c
       0.23032495 0.21697345 -0.04531935 0.027653614
000130 66 1f b6 bd c2 7f c9 bc ea 28 4e be 35 48 4c 3c
       -0.088927075 -0.024597052 -0.20132795 0.012468387
000140 40 2a 93 bf f2 89 bf be 08 88 7c bd 54 68 9b be
       -1.1497269 -0.3740993 -0.061653167 -0.30353034
000150 1a f7 ce be 7e f6 41 be 8b f4 d6 3e 1f dd a5 3e
       -0.404229 -0.18941686 0.41983446 0.32395265
000160 1f cc bb 3e 5e c8 2c bf 90 66 89 bd 7c 54 5c be
       0.3667917 -0.67493236 -0.06709015 -0.21516603
000170 48 d4 a5 be 56 3b 72 bf ea a6 00 bf 88 f6 5c 3e
       -0.3238852 -0.9462179 -0.5025469 0.21578419
000180 3a 50 8c 3c be 64 72 bc ba fc c9 bd e5 23 67 be
       0.017128099 -0.014794527 -0.09862657 -0.22572286
000190 dd da 6c be d0 54 37 3e ea d5 0d be 42 4a 65 be
       -0.23130365 0.17903447 -0.13851133 -0.22391608
0001a0 26 c6 ba 3e 86 b0 76 bd 88 5e 22 be 14 9c 37 be
       0.364793 -0.06022694 -0.15856373 -0.17930633
0001b0 5f 3c e8 bd 33 1b ab be 41 41 26 bf 30 38 a9 be
       -0.1133964 -0.3341919 -0.6494332 -0.3305068
0001c0 5b 61 86 bf 35 28 25 3c 22 68 30 be 31 66 78 3e
       -1.049846 0.010080387 -0.17227224 0.24257733
0001d0 e9 80 c5 be 2c b6 bb 3e fd 92 a4 3e 89 40 0c bf
       -0.38574913 0.36662424 0.32143393 -0.5478597
0001e0 76 27 19 3f 85 ee f5 bd 26 f1 95 be 58 80 8f 3d
       0.5982584 -0.120083846 -0.29285544 0.070069015
0001f0 6d 53 df bd 1c 84 26 3e 39 da 37 be c6 53 33 3e
       -0.10904584 0.16261333 -0.17954339 0.17512426
000200 fe c1 97 3e f5 33 9a be 76 75 ad 3d 34 e3 81 3e
       0.29640192 -0.30117765 0.084696695 0.25368655
000210 82 56 89 3e 96 17 81 be 63 00 c2 3e c1 dd ac bd
       0.26823813 -0.25213307 0.3789092 -0.08440734
000220 62 d7 b8 3e f3 d4 0a be 3d 27 35 bd a8 c6 16 bf
       0.36101824 -0.13557796 -0.044226874 -0.58896875
000230 72 b9 5a be 51 46 8a be 3a 0e fa bc 0f 31 86 3e
       -0.21359804 -0.27006772 -0.030524362 0.26209304
000240 27 b2 9a 3e 8b 87 17 bf e0 28 9d 3e 8b ff 1d be
       0.30214044 -0.591912 0.30695248 -0.15429513
000250 d1 d5 cc bd 03 07 42 be ba eb f9 bd d8 e7 8c 3e
       -0.1000172 -0.18947987 -0.122031644 0.27520633
000260 f4 26 28 3c 2d 71 ce 3e 78 8b 19 3e 69 ba bf 3e
       0.010263193 0.4032072 0.1499461 0.37446907
000270 60 f4 0b 3e a4 af d6 be 51 1f ab be 7b 99 96 be
       0.1366744 -0.41930878 -0.3342233 -0.2941397
000280 44 e8 03 3f f2 4a b0 be c6 f8 a9 3d 32 b6 05 3f
       0.51526284 -0.3443218 0.08299403 0.52231133
000290 86 2f f7 be d8 dc ed bd ce 14 09 be ff de 52 bd
       -0.48278445 -0.11614388 -0.13386843 -0.051482197
0002a0 46 52 25 3e ae dc 94 be b7 6a 53 3e c9 36 85 bd
       0.16144666 -0.29074615 0.20646177 -0.0650459
0002b0 8b d2 38 3a 72 b3 6a 3e 0d 1b 29 3f df ad 0d bf
       0.00070504163 0.22920015 0.660569 -0.5534343
0002c0 a6 ee 1c be e1 90 05 3d 3a 94 1e 3e b3 a0 4e be
       -0.15325412 0.03260887 0.15486231 -0.2017849
0002d0 30 84 b5 be b0 e4 d1 3d f2 cf 68 be c9 c8 36 be
       -0.35452414 0.10248697 -0.22735575 -0.17850031
0002e0 2c 1d cd 3d d2 ed 50 3e 8d b2 d1 3e 77 fe 08 3d
       0.1001533 0.20403221 0.40956536 0.0334458
0002f0 c5 e4 12 3d 59 61 f4 3d 03 92 d0 3d 0d a1 4c 3e
       0.035862703 0.1193263 0.101840995 0.19983311
000300 23 cb 6a be 78 5a c2 be 09 2b a1 be 35 a6 16 be
       -0.22929053 -0.37959647 -0.31478146 -0.1471184
000310 19 88 d5 bd 1d 1f 3e be 9c 9a ea be fc 19 b4 be
       -0.10426349 -0.18566556 -0.45821083 -0.35176075
000320 9b 3a 9b 39 b7 86 37 3e d7 e2 95 be 24 af 6f be
       0.00029607568 0.17922483 -0.29274628 -0.23406655
000330 22 d8 ec 3e f4 d5 9c be f9 c2 ba be 81 98 83 be
       0.46258646 -0.30631983 -0.36476877 -0.2570229
000340 e2 cc e1 bd 96 29 c0 bc aa c0 f4 be 25 ad 29 be
       -0.110254064 -0.02345733 -0.4780324 -0.16569956
000350 99 98 2c 3f 23 5a a4 3d fd 76 06 bf 30 ed 9d be
       0.67420346 0.08025005 -0.5252531 -0.30845022
000360 05 5c 6e be 9f fb e1 3e 9b 3d fb be e0 3a aa be
       -0.2327729 0.44137284 -0.4907044 -0.33248043
000370 bc 72 d1 be 06 10 48 3e c6 24 d0 3e e6 84 10 be
       -0.40907848 0.19537362 0.40653056 -0.14113197
000380 f7 71 12 3e 68 e0 76 be 13 ef d1 be 32 4a ac bd
       0.14301287 -0.24109042 -0.41002712 -0.08412589
000390 88 e0 11 be a4 a8 80 be b4 0a 48 be 87 8a 46 be
       -0.14245808 -0.25128663 -0.19535333 -0.19388781
0003a0 9c 7e 80 3d d1 af b3 3c 48 c1 1d bf f5 85 cf bd
       0.06274149 0.021934422 -0.6162305 -0.10132972
0003b0 85 2c d7 be aa e6 85 be 8b 67 e0 3d d3 e1 b6 3d
       -0.42026153 -0.26152545 0.10957249 0.08929791
0003c0 9c 7c 1e 3f b3 47 b2 be c6 9c a0 be f5 96 e7 bd
       0.6190889 -0.34820327 -0.3136961 -0.1130809
0003d0 56 75 21 3f 63 15 63 be 63 d5 20 be ac c4 48 3e
       0.63069665 -0.22176127 -0.157064 0.19606274
0003e0 57 16 ab be 82 84 c4 be d4 0e d6 bd 14 3c 4b 3d
       -0.3341548 -0.38382345 -0.10452047 0.04961784
0003f0 2a 6e b0 be 23 35 db bd 6a de c3 be 16 fd b0 be
       -0.34459049 -0.107034944 -0.38255626 -0.3456809

lstm.weight_ih_l1 f4 [256, 64]
000000 85 41 40 3f 31 4f 0b 3f b9 14 b4 bd e5 9a 7f 3e
       0.75099975 0.5441771 -0.08793015 0.24961431
000010 a9 82 79 3e 2f a0 37 3f 02 c8 0c be f0 93 82 3e
       0.24366249 0.71728796 -0.13748172 0.25503492
000020 fc 67 cb 3d 3e bd a5 3e f6 8b 36 bd 18 4b 5e 3e
       0.09931943 0.32370943 -0.04456707 0.21708333
000030 91 41 8f 3e 6e cc 2c bf 87 e4 0c 3e a9 2b 57 be
       0.2797971 -0.67499435 0.13759051 -0.21012749
000040 59 77 4f 3e d2 ab f6 bd 6a 32 01 bc 47 a5 73 be
       0.20260371 -0.12044491 -0.007885555 -0.23793517
000050 6a c9 9d be d2 7c 89 be 2e 52 dd 3c c6 9a b0 3d
       -0.3081773 -0.26853043 0.027016725 0.08623271
000060 9d 27 ad 3e a8 d9 31 3e 51 e3 53 bf 49 52 03 3e
       0.33819285 0.17368186 -0.8276873 0.12824358
000070 0c af 22 be 61 5d 9c bd 37 f8 be be ae 28 99 3e
       -0.15887088 -0.07634998 -0.37298748 0.2991385
000080 0f be 65 be 9e 7b 1d be cf e9 d3 bd 6b f9 71 bf
       -0.22435783 -0.15379187 -0.1034733 -0.94521207
000090 71 fb a7 3c 8d ec 3f 3f 4b f0 63 3f da 17 56 3e
       0.020505639 0.7497032 0.8903853 0.20907536
0000a0 07 b9 cd be e8 28 81 3d ba 09 02 3e 01 86 38 3d
       -0.40180227 0.063066304 0.12699023 0.04504967
0000b0 a2 10 ce be 3d cb 8d 3f 92 7f eb 3d 36 49 5f 3f
       -0.40247065 1.1077648 0.114989415 0.87221086
0000c0 ee bd 80 3e fb b8 ca 3e 16 92 bc be d2 cf 7f 3f
       0.25144905 0.39594254 -0.36830205 0.99926484
0000d0 08 8d 0c bf 48 40 c1 be fd 57 52 bf b8 51 9f 3e
       -0.54902697 -0.37744355 -0.8216551 0.31117034
0000e0 1a 9c a8 be 1e 28 72 3e 32 ae f7 3c b6 c9 98 be
       -0.32931596 0.23648116 0.03023443 -0.29841393
0000f0 7c 00 87 bf 6d ff f7 be 9d 16 20 be 09 e1 1e 3f
       -1.0547023 -0.48437062 -0.15633626 0.62062126
000100 40 42 7a 3e 4a 7f 71 bf db 40 36 3f 3f df 15 bf
       0.24439335 -0.9433485 0.7119271 -0.5854377
000110 f1 59 0e be a6 f9 e5 be 23 5f 27 3e 1d 1b 29 be
       -0.13901497 -0.4491703 0.16344886 -0.16514249
000120 48 ac 88 3d 76 85 91 bd 1e 73 97 be dd 9d 18 3f
       0.06673485 -0.07105534 -0.29580015 0.5961588
000130 ca 2f 92 3d f7 c5 c6 be a3 40 57 3f 8d f6 97 bf
       0.07138021 -0.3882291 0.84083 -1.1872116
000140 8a 2e f7 bd a6 02 a9 be 70 63 27 3f 43 4d f2 3c
       -0.120694235 -0.33009833 0.65386105 0.029577857
000150 56 ce 39 be 00 4d e1 ba 2c 73 07 3f 83 81 88 3e
       -0.18145117 -0.0017189085 0.52910113 0.2666131
000160 07 89 f0 be 7d 46 80 be ba 87 ac 3d 6a aa 35 bf
       -0.46979544 -0.25053778 0.08424325 -0.70963156
000170 8a 86 16 bf 4a 90 7b 3e ed 0a de bc e7 6c 8e bd
       -0.5879904 0.2456676 -0.02710482 -0.06954365
000180 f4 62 8f be 86 11 05 3f 8b f6 19 be 5f 64 47 be
       -0.28005183 0.51979864 -0.15035455 -0.19471882
000190 d3 7f 13 bf 2d ba 12 3e c7 10 a0 be f1 a0 86 bc
       -0.5761692 0.14328833 -0.312628 -0.016434165
0001a0 da e3 0a be cf 78 11 3e fb e3 0f 3f 33 f4 1e 3d
       -0.13563481 0.14206241 0.56207246 0.038807105
0001b0 c2 f2 17 3f d4 d2 ac be df 32 16 3e 82 d0 11 be
       0.59354794 -0.337546 0.14667843 -0.14239696
0001c0 05 1b d8 3e 21 93 7e bf 8a 8d 14 3e b5 2b dc 3e
       0.42208114 -0.9944325 0.14507118 0.43002096
0001d0 9b 51 a3 be a0 ea ea 3e 92 6d 22 3f cb b7 ce be
       -0.31898198 0.4588213 0.6344844 -0.40374598
0001e0 69 2e 8a be 39 d3 1e bf 6e 71 2f 3f 0e de 2e bc
       -0.26988533 -0.6204105 0.68532455 -0.010673059
0001f0 17 d1 21 3f 0c 5e 40 be 61 eb 70 bf 94 33 eb 3c
       0.6320967 -0.18785876 -0.9410916 0.028711118
000200 1f 1c ee be 77 bf 77 bf ac 27 0e 3f e6 d0 95 be
       -0.4650583 -0.9677653 0.55529284 -0.2926094
000210 5c 3f 0d bf 58 fc 1e bf 20 6f 23 3d b9 5d 54 bf
       -0.55174804 -0.62103796 0.0399009 -0.8295551
000220 42 13 3e 3e d7 fc 53 bf 8d 77 ff 3d 67 88 11 be
       0.18562034 -0.8280768 0.124739744 -0.1421219
000230 9e 7a fc be 14 aa 25 3e 9e 2c 9b bd fa 7e fe bd
       -0.493123 0.16178161 -0.075768694 -0.124265626
000240 9d 1a a1 be 2b 6b 09 be 49 ef 22 3e 3a 58 a9 3e
       -0.31465617 -0.13419788 0.15911593 0.33075124
000250 58 b3 0a be bf 22 b0 be 39 d1 04 bf 65 70 33 bd
       -0.13544977 -0.3440151 -0.5188175 -0.04380836
000260 16 47 26 3e 95 5c b2 bc f8 6e a8 3e 76 21 19 3f
       0.16238055 -0.021772662 0.32897162 0.5981668
000270 89 21 93 bc ef 83 e0 bd f6 38 2a bf a2 17 b6 be
       -0.017960327 -0.10962664 -0.66493165 -0.35564905
000280 17 ed 25 bb 0f 67 1d 3e 46 00 13 bf 78 ae 25 3f
       -0.0025318319 0.15371345 -0.5742229 0.64719343
000290 31 7f bb be 64 b6 99 be 2a 3e 4f bf 70 b7 b8 be
       -0.36620477 -0.30021966 -0.8095423 -0.36077452
0002a0 ad 82 b7 be bd 93 d2 3e df 77 79 3f e6 c2 8d 3d
       -0.35841885 0.4112834 0.97448534 0.069219396
0002b0 a3 53 72 3e 39 10 9d be 8d 1a a7 3d df 16 b1 be
       0.23664717 -0.3067644 0.08159361 -0.34587762
0002c0 fc 34 83 be 6d dc 8f be b3 51 de bc 3c 23 7b bf
       -0.2562636 -0.2809786 -0.027138567 -0.9810064
0002d0 da c0 3f 3c e7 66 55 3f 54 70 1d bf 88 c4 e3 be
       0.011703694 0.8336014 -0.61499524 -0.4448588
0002e0 73 b5 9e bd 5f c7 24 3f 32 47 83 3e 86 fa 85 3e
       -0.077494524 0.64366716 0.25640255 0.26167697
0002f0 99 10 47 3e ce 90 b8 3e d3 14 08 3f 51 82 ed bd
       0.19439925 0.36047977 0.53156775 -0.115971215
000300 e5 24 87 bf 10 1e 33 3f 42 b4 8a 3e d7 15 51 3e
       -1.0558134 0.69967747 0.2709065 0.20418487
000310 b0 f9 d1 3d 82 74 ab 3d 74 7e a6 3e 3a ca a7 be
       0.10252702 0.083718315 0.3251835 -0.32771474
000320 ff a7 1e be fe 8e 85 bf 84 95 0c 3f 00 d1 0e bf
       -0.15493773 -1.0434263 0.5491564 -0.5578766
000330 4a 51 f6 be 77 75 a2 3e da af 21 3e 96 d0 c9 3e
       -0.48108894 0.31730244 0.15789738 0.3941695
000340 d8 10 b9 bd e3 a9 41 3d ca 47 df be 72 05 09 3f
       -0.09036416 0.047281157 -0.43609458 0.53523934
000350 2b df 99 3e 16 7e 04 3e d4 53 69 be d4 87 35 3e
       0.30053076 0.12938723 -0.22785884 0.17727596
000360 7f 79 4b 3f 02 bb 87 3e 16 cb c7 3e 5f 06 48 3f
       0.79482263 0.26509863 0.3902213 0.7813472
000370 6c 83 49 be 40 6b 74 bf b3 3e ba be 74 54 04 bf
       -0.1967904 -0.9547615 -0.3637596 -0.51691365
000380 f9 30 d9 3e c8 a2 53 3f 62 a7 2d bf 4b 2c 0e 3f
       0.42420176 0.8267026 -0.6783353 0.55536336
000390 e2 58 23 3f ca f9 fd 3e 19 5e 24 bf 95 d6 88 3e
       0.638075 0.49604636 -0.6420608 0.26726213
0003a0 30 e1 84 3e ba f9 88 bb 21 90 b5 3e 2e 7f f2 3e
       0.25953054 -0.0041801604 0.35461524 0.47362655
0003b0 03 38 e5 be a3 d1 01 3e 07 f0 90 3e 6c 8d bf be
       -0.44769296 0.12677626 0.28308126 -0.37412584
0003c0 c5 b9 0d be 0a d0 a2 ba 5b ae 2b 3f 4d c5 5c be
       -0.13840397 -0.001242162 0.6706292 -0.2155964
0003d0 eb e9 c8 3e df 93 8a be 3b fd f4 be 2d df 36 be
       0.39240965 -0.27065942 -0.4784945 -0.17858572
0003e0 61 5c 5c bd 98 a4 f7 3d f4 bb d0 3e 20 fb a6 3e
       -0.053799037 0.12091941 0.40768397 0.32613468
0003f0 c8 1f 89 be 43 76 93 3f ad 9d 3f 3f a4 f7 10 be
       -0.2678206 1.1520466 0.7484997 -0.14156967

lstm.weight_hh_l1 f4 [256, 64]
000000 8c d3 f3 be fd e9 44 3e 35 02 f4 be b0 51 9e be
       -0.47622335 0.19229884 -0.47657934 -0.30921698
000010 bf 49 eb 3d d6 35 65 bf 22 c8 3f 3f 7d a6 1e 3f
       0.11488675 -0.8953527 0.74914753 0.6197279
000020 ac 37 92 bd 5c dc 8f 3e 08 fb de 3d a1 a1 5a be
       -0.07139525 0.28097808 0.10887724 -0.21350719
000030 14 8b 8f 3d 5a 97 c2 3e fd 44 df 3e 89 0a 45 3f
       0.07008949 0.38006097 0.4360732 0.769692
000040 97 b0 98 bf bd fb aa be f4 f9 bc be 38 a2 f1 be
       -1.1928891 -0.33395186 -0.3690945 -0.47194076
000050 08 e6 9a 3c 9c cd 3c 3f 25 54 26 bf ee 1f a8 3e
       0.018908516 0.73751235 -0.64972144 0.3283686
000060 cb 72 92 be 65 55 da bc 15 c6 e0 be 53 c9 cb bd
       -0.28603205 -0.026652047 -0.43901125 -0.09950509
000070 4f ac 39 3e 43 4c ca 3e ad 75 e1 3e f2 9f 7c be
       0.18132137 0.39511308 0.44035092 -0.2467039
000080 af 7d a7 3e 43 7d ce 3e 31 bc 5d 3e df cb 6b bf
       0.32713076 0.40329942 0.2165382 -0.9210796
000090 97 94 ba 3e 71 08 c7 3e 13 bd 0c 3e a2 e6 78 3c
       0.3644149 0.38873628 0.13744001 0.015191706
0000a0 9e 4b 8b 3f 56 83 88 3d 31 23 85 bf 41 a6 22 3f
       1.0882452 0.06665675 -1.0401365 0.63534933
0000b0 8c f5 b1 be 35 58 05 bf 4c c2 4a be c7 52 0a bf
       -0.3475765 -0.5208772 -0.19800681 -0.5403256
0000c0 76 91 cc be b0 91 ad 3d 0f fc d7 3d c2 bb b9 3e
       -0.39954728 0.08475053 0.10546123 0.3627606
0000d0 ba 43 89 be 56 01 3e 3f 4c 1c 4b 3e 66 dd 7a 3e
       -0.26809484 0.7422079 0.19835013 0.2449852
0000e0 7e 73 47 3f 60 45 a7 be 67 57 fd bc 6b 85 ba 3e
       0.779106 -0.32670116 -0.030925466 0.36429915
0000f0 4e 3c 54 3e 4a 8b 64 3d 66 c8 b7 be 2f 83 84 bf
       0.2072613 0.0557969 -0.3589508 -1.0352534
000100 09 da d6 3f 38 90 51 be e4 5c 91 be 51 a8 14 40
       1.6785289 -0.20465171 -0.28391182 2.3227732
000110 e1 4a 37 3f 79 ff 2a bc 61 be c1 3e 09 34 55 bd
       0.7159863 -0.010436886 0.3784056 -0.052051578
000120 5d 56 15 be 12 47 9b 3d fe 79 8d be 53 3d 78 3e
       -0.14583726 0.07581915 -0.27632135 0.24242143
000130 57 2c bf 3e 7c bb 97 bf b4 3d 30 3f cd 66 5c 3f
       0.37338516 -1.1854091 0.6884415 0.8609436
000140 8b 6f fa be bc c1 18 3e 53 a8 4a 3e bc 73 25 bf
       -0.48913226 0.14917654 0.19790773 -0.6462972
000150 7d 70 14 bf e6 fa 23 bf 81 9d b2 3e ab e1 a8 bb
       -0.57984143 -0.64054716 0.3488579 -0.005153855
000160 fc 77 1d 3f 1e 11 84 bf 64 a9 88 bf e9 20 2e bf
       0.61511207 -1.0317724 -1.0676694 -0.68018967
000170 40 61 bd be 2c bd 29 be bb 76 6b 3f 20 19 46 be
       -0.36988258 -0.1657607 0.91978043 -0.19345522
000180 3b 57 e9 3e 3d 08 b0 be e4 ba 1f 3f 62 65 d1 3e
       0.45574364 -0.34381285 0.6239455 0.4089766
000190 e0 b7 67 3f 3e bb bb bc 9c a4 3a bf cd 8a 3c bf
       0.90514946 -0.022916432 -0.72907424 -0.73649293
0001a0 88 7a b7 3e 05 02 a6 bc 24 e1 8f be b5 b3 14 3f
       0.3583567 -0.020264635 -0.28101456 0.5808671
0001b0 dc 52 10 be b6 e6 ba bd 49 79 cf 3e e7 cd 15 3f
       -0.14094108 -0.09126036 0.4052222 0.5851731
0001c0 da 3f 4d bf 32 ec 51 bf 36 d8 8a be 94 75 14 c0
       -0.80175555 -0.8200103 -0.2711808 -2.3196764
0001d0 3c dc ed 3b a4 00 cb 3e 0c 6a 47 3f 29 6d a8 bd
       0.00725892 0.39648926 0.7789619 -0.08223946
0001e0 f3 5a 82 be 0a 64 54 3f 64 b4 e4 be a3 e3 0f 3f
       -0.25460014 0.8296515 -0.44668877 0.5620672
0001f0 00 0d 23 3f 11 5d 0a 3f 91 d2 85 be 40 bd 32 3f
       0.6369171 0.5404826 -0.26137212 0.6982002
000200 0c c4 74 be 8c 90 3e bf e9 74 8a bd 5e f6 ba be
       -0.23902911 -0.7443931 -0.0676058 -0.36516088
000210 56 91 62 bf 0d c6 01 3d d3 81 64 3b 96 a1 d7 bd
       -0.88503015 0.031683017 0.003486742 -0.10528867
000220 1d b1 37 be 33 e3 2d bf 2d d5 00 3d 14 49 a1 3e
       -0.17938657 -0.67924803 0.0314533 0.31501067
000230 1a 72 af 3e 15 ab b3 3e 9b ff 79 be 46 a9 91 3e
       0.3426674 0.35091463 -0.24413912 0.28449458
000240 0c 96 2e bf e1 a2 37 bf d9 8f d2 3e 1b ad 2b be
       -0.68197703 -0.7173291 0.41125372 -0.16765253
000250 a2 16 5c 3f f3 c3 9a 3f d0 a5 74 3e f3 3a ef be
       0.85972035 1.2091049 0.23891377 -0.46724662
000260 ae 1c 00 3f 7d be 90 bf 77 cc 0f 3f c9 f9 2d be
       0.5004376 -1.1308132 0.56171364 -0.16989817
000270 14 75 4e bf 90 34 b3 be 83 61 b5 bd f1 95 b8 3d
       -0.806474 -0.3500104 -0.088564895 0.09012974
000280 6a 12 52 3e 65 14 21 3e e9 4b fa bc 81 aa 8f 3e
       0.20514837 0.15730436 -0.030553775 0.28059772
000290 e2 e3 8a bf e8 88 27 bf 98 80 8f bd 43 de 25 bf
       -1.0850794 -0.6544328 -0.07006949 -0.6479227
0002a0 ba 91 ac be b3 5d 66 bd d8 df c2 3d 07 05 ba 3e
       -0.3370493 -0.056241702 0.09515351 0.3633196
0002b0 29 ec 76 bd c0 4c 5f 3e 87 fc f0 3e 80 13 0f 3f
       -0.060283814 0.21806622 0.47067663 0.5588913
0002c0 41 23 23 3e 1c 5f fd 3e 35 71 38 3f 95 4c 3b 3f
       0.15931417 0.49486625 0.7204774 0.7316373
0002d0 81 4d 00 bf 2e fe 16 3f 4c 06 f0 bd 2a af 8c 3f
       -0.5011826 0.589816 -0.11719951 1.0990956
0002e0 1d 1b 65 be cd ae 95 3d fa 16 ef bd 15 20 2a be
       -0.22373624 0.07308731 -0.11674304 -0.16613801
0002f0 e7 8f b3 3c c6 65 42 3e 63 55 00 3e 47 fd 7e 3d
       0.021919204 0.18984136 0.12532572 0.062253263
000300 1e c2 ec bd fc 13 22 3e 31 a3 58 3e fa d9 2a 3f
       -0.115604624 0.15827936 0.21156003 0.66738856
000310 f6 87 7d 3f 8d 9f 29 3f 5b 2f e4 3e 24 a5 5b 3e
       0.99035585 0.6625908 0.4456738 0.21449715
000320 f9 ab 96 3e cb 9e 11 be e2 79 f8 3d bf 4b fd 3e
       0.2942808 -0.14220731 0.12132622 0.49471852
000330 8d 9e f9 be 48 89 15 bd 79 ae 16 3e a2 fd 7e 3f
       -0.48753777 -0.036507875 0.14714994 0.9960576
000340 18 bb 5f bd a7 31 e1 3e 0b 2d 25 3f 1b 22 e4 3c
       -0.054621786 0.43983194 0.64521855 0.027848294
000350 d5 1d 2e 3f 17 06 80 3f 7f d1 34 3f 7d 51 09 3f
       0.6801427 1.0001858 0.70632166 0.53639966
000360 e3 9f ae bd 0f 0f 6f be 11 fc 5f 3f 89 12 80 bf
       -0.0852659 -0.23345588 0.87494 -1.0005656
000370 cb 9d 9e be b1 29 34 be 8a 3f 2a bf 41 51 26 be
       -0.3097976 -0.17594029 -0.665032 -0.16241933
000380 1e 35 8c be 99 bd 05 bf 62 34 31 be f4 fb 97 3e
       -0.27384275 -0.5224243 -0.17305139 0.29684412
000390 70 1f a2 be ff a3 b5 3e ab 3a 41 3d d8 c2 e1 3e
       -0.3166461 0.35476682 0.04717509 0.44093966
0003a0 37 66 ff 3e d3 43 93 bf 80 95 50 bf 77 cc 45 be
       0.4988267 -1.1505073 -0.8147812 -0.19316278
0003b0 c9 82 ff be 62 27 c0 3e 98 be f0 3e c4 25 eb 3b
       -0.4990447 0.37530047 0.47020411 0.007176133
0003c0 99 fc ca 3e e7 85 2f 3f 15 13 40 3c 01 b2 5c 3f
       0.39645842 0.68563694 0.0117232995 0.8620911
0003d0 9c 35 c4 3e 61 9f d4 3e 2f ba 3d 3f c3 07 06 3f
       0.3832215 0.41527846 0.7411222 0.52355593
0003e0 53 64 b9 be d6 c1 65 bf 84 98 c4 3e 55 c3 aa 3d
       -0.36209354 -0.89748895 0.3839761 0.08338038
0003f0 2e 04 fc bd e7 27 b9 3e b1 9f 7d 3e 25 f3 60 be
       -0.12305485 0.36163256 0.24767949 -0.21967752

lstm.bias_ih_l1 f4 [256]
000000 5b 3f c1 be 2f f8 df 3c 34 74 db be 30 52 25 be
       -0.3774365 0.027340023 -0.42862093 -0.16144633
000010 12 18 25 3e bd 0d c9 be 14 a5 9a 3c 77 42 97 3c
       0.16122463 -0.39268294 0.018877544 0.01846431
000020 b1 a2 2b bf 25 de a2 be 2d 9a d7 be de ef c0 bc
       -0.6704512 -0.31810108 -0.42109814 -0.023551878
000030 b2 16 e2 3d a4 70 cd be 48 45 d0 3d d7 0d 98 be
       0.11039485 -0.40125 0.10169464 -0.2969806
000040 68 9c 4a 3f 53 9d 82 bd ad 27 dc be 00 11 8f be
       0.79144907 -0.063776635 -0.4299902 -0.27942657
000050 71 31 b7 be 6f d1 e2 be d8 6e e1 bd 6c 66 10 3d
       -0.35779908 -0.4430041 -0.1100747 0.035253927
000060 ca 83 18 3f 1b aa 91 3e 85 24 cd be 78 6e 39 3d
       0.59576094 0.28450093 -0.40066925 0.045271367
000070 c5 b6 30 be 5c 05 11 be 6f 5c 01 bf e8 e8 48 be
       -0.17257221 -0.141622 -0.5053167 -0.19620097
000080 64 0f e5 be ef 7c 12 3d e9 73 d7 3d 2a 52 1c bf
       -0.44738305 0.035763677 0.10520155 -0.6106287
000090 8b 18 fe bd 38 37 d3 3d c7 05 49 bf e0 3d 86 3d
       -0.12407025 0.103132665 -0.7852444 0.065547705
0000a0 d7 ff e7 bd 43 77 84 bc 45 3d f3 be b3 bd 61 be
       -0.113280945 -0.01617015 -0.47507682 -0.22045021
0000b0 df 6e 0f 3f 71 3d f3 bd 7c c8 eb 3e 65 79 12 be
       0.5602855 -0.118769534 0.46051395 -0.14304121
0000c0 53 f9 69 bd 24 59 1f 3d 20 d3 69 be 6c 8a 8d be
       -0.05712254 0.03890337 -0.22834444 -0.2764467
0000d0 5e f9 a3 be 30 90 78 be c2 42 eb 3e 8f 90 51 bd
       -0.3202619 -0.24273753 0.4594937 -0.051163252
0000e0 72 47 80 3d a9 39 be be 41 e0 4c be 27 d3 f6 be
       0.06263627 -0.37153366 -0.20007421 -0.4820797
0000f0 c5 7f 36 be a3 2b 0b bf e2 fe 5d 3e e4 85 cf 3d
       -0.17822178 -0.5436346 0.21679261 0.101329595
000100 51 73 46 3e 77 32 17 3d ac 19 6d 3e 7f 45 be bc
       0.19379927 0.03691336 0.23154324 -0.023226498
000110 88 68 85 be 2a e1 6c 3d 35 65 52 be 3c f4 d2 3e
       -0.26056314 0.05783192 -0.2054642 0.4120196
000120 8d 43 de 3e f7 f9 d7 bd 5d ba dd bd 2a f7 9f bd
       0.43410912 -0.10545724 -0.108265616 -0.07810815
000130 75 ef 7f 3e 0d 2c 08 3e d4 da 42 3d 53 84 97 bd
       0.2499369 0.13298054 0.047571972 -0.07398286
000140 05 9a 12 bf bb 7a 6f 3e 58 89 93 bd 77 66 c4 be
       -0.57266265 0.23386662 -0.072039306 -0.38359424
000150 c4 77 03 3e d6 e7 98 3d d6 b2 9a 3e d3 4d 38 bc
       0.12838656 0.07466094 0.30214566 -0.0112490235
000160 18 9c f8 be 23 48 5a 3f 5c 87 53 3e a3 c0 37 3c
       -0.4855659 0.8526632 0.20657104 0.011215362
000170 30 0e f4 bc 05 d5 78 3d 06 d6 a4 3d 98 66 29 3d
       -0.029791921 0.060750026 0.08048634 0.041357607
000180 94 72 aa bd 0b 1f da 3e bb fd fc 3c 38 61 df 3d
       -0.08322635 0.4260181 0.030882707 0.10907215
000190 71 af 9c 3e e7 27 48 3e ae 86 8b 3e 57 22 e7 be
       0.306026 0.19546472 0.2725119 -0.45143387
0001a0 42 38 76 3e 47 40 a4 3d 74 91 4e 3f 16 f0 9e 3e
       0.24044898 0.080200724 0.80690694 0.31042546
0001b0 79 5c 6d bf 45 9b 0e bf 34 84 bc be 5d ee 3e 3d
       -0.9271923 -0.5570567 -0.36819613 0.04661404
0001c0 a7 2b cc 3d f7 1f 18 bf 9d 72 e5 3e b9 fa 0c bf
       0.099692635 -0.59423774 0.44814005 -0.5507007
0001d0 f6 fe b9 3e 9e 12 08 be 85 17 df 3e 87 c7 09 bf
       0.36327332 -0.13288352 0.4357263 -0.5382008
0001e0 3d 75 96 3e 82 8e fc 3c ea e2 0d 3e 8e 6a 08 3f
       0.2938632 0.030829672 0.13856092 0.5328759
0001f0 21 db 98 3e 56 06 80 bc e8 35 5d 3e 5c 2e c0 3e
       0.29854682 -0.015628021 0.21602595 0.3753537
000200 bf 8c 06 be 6b 25 15 3f af d7 6b 3e fe 6b 54 be
       -0.13139628 0.5826022 0.23031496 -0.20744321
000210 df 69 01 3e 91 6d 2c 3e b5 dd 85 be db 67 6b be
       0.12638043 0.16838671 -0.26145712 -0.22988836
000220 6c 09 c1 bd 07 32 11 be 78 ca 57 3e c0 47 93 be
       -0.09425625 -0.1417924 0.2107333 -0.28765678
000230 cc 60 a4 be 1b 5a f1 3d 4b 9c 27 3c 72 fc ad bd
       -0.321051 0.117847644 0.010230134 -0.08495416
000240 da f7 ca 3d 63 54 2c bd 90 0a e8 3c 3f 79 77 3e
       0.09910555 -0.042072665 0.02832535 0.24167345
000250 14 13 8a be 7f 85 87 3c 19 f3 2b 3b 8d 5a af 3c
       -0.2696768 0.016543148 0.0026237427 0.021405483
000260 74 65 93 be ab 70 3e be 11 3e 89 be d9 05 49 3e
       -0.2878834 -0.18597667 -0.26805165 0.19631137
000270 f4 15 37 bf ac 86 a8 3e 37 d6 a1 bd 7a 20 af 3d
       -0.7151787 0.32915246 -0.07902186 0.08551116
000280 27 96 ab be 97 6d 58 be 1f b3 87 be 85 00 c8 3e
       -0.33512995 -0.21135555 -0.26503846 0.39062896
000290 23 03 91 be e3 b5 3f bd b1 b5 23 bd 7d 60 26 3d
       -0.28322706 -0.04680432 -0.039968196 0.040619362
0002a0 48 ab b9 3e f1 c0 4b 3e 96 90 49 3d 09 94 cc 3d
       0.3626349 0.1989782 0.049210154 0.09989173
0002b0 d7 e1 21 3d 6b 1f 04 bf e4 1d 36 3e 46 ef b7 be
       0.03952202 -0.5161044 0.1778484 -0.3592474
0002c0 09 db db 3e 2d 4f 61 be 56 e3 8a 3c ca 1d 72 bd
       0.42940548 -0.2200286 0.016954105 -0.05911044
0002d0 13 98 97 3e c0 bb 90 3e 3e bc ca 3e b8 b2 c4 3e
       0.2960821 0.28268242 0.39596742 0.38417602
0002e0 66 c1 6c 3e 2f 7a 31 be 3d bf 2d 3e fb c3 f1 bd
       0.2312065 -0.17331766 0.16967483 -0.118049584
0002f0 bc e6 5b 3e f0 29 db 3e 3e 4d de be 3e 58 02 be
       0.21474737 0.42805433 -0.43418306 -0.12728974
000300 f2 b4 ae be 5f 0b 44 be 0c 27 6a bd 74 71 cc be
       -0.34122425 -0.19144963 -0.057166144 -0.39930308
000310 d3 5d 36 be 08 45 a6 3d e0 b9 9e be 87 ae 7f be
       -0.17809229 0.081186354 -0.31001186 -0.2496892
000320 82 4c 1c be 7a 2e 8e be 34 fb 6b be 8f b1 2e be
       -0.1526356 -0.27769834 -0.23045045 -0.1705992
000330 1c 91 19 be d3 58 51 be 92 ff 2b be f4 48 6d bc
       -0.14996761 -0.2044404 -0.16796711 -0.014482725
000340 ce d6 f6 bd 33 28 05 be 06 64 f7 be 09 d5 c1 bb
       -0.120526895 -0.13003616 -0.483185 -0.0059152883
000350 ed eb f5 be b8 3d 29 be 37 3f 0c bf 78 59 de 3e
       -0.4803156 -0.1652745 -0.5478396 0.43427634
000360 ba e5 d8 3e 1d f7 1a be 0d af 51 be be 15 fd bc
       0.42362767 -0.15133329 -0.20476933 -0.030894157
000370 57 8a d7 be 0d fc 65 be 92 2e b4 be 29 38 4d be
       -0.42097732 -0.22459431 -0.3519178 -0.20040955
000380 5f 1b 57 be 5e cd 16 be da 7b 19 3b 5b 2e ad bd
       -0.21006535 -0.14726779 0.0023419769 -0.08456107
000390 5c 0d 57 be 18 c4 e8 3e 86 84 17 bf 52 e8 8c 3e
       -0.2100119 0.45462108 -0.5918659 0.27520996
0003a0 88 a9 0d bf d8 86 b8 bd dc e6 93 bc d7 6c e3 be
       -0.5533681 -0.090100944 -0.018054418 -0.44418976
0003b0 a1 40 c3 3e e4 52 e6 be 32 d1 85 3e 40 46 58 3c
       0.38135245 -0.44985116 0.26136166 0.013200343
0003c0 86 fe b4 be 61 3d b7 be 09 0e 41 bc fb 30 af bd
       -0.35350436 -0.35789016 -0.011783131 -0.08554264
0003d0 be a6 d5 be 0e 05 2b be 50 b3 28 be d9 66 86 be
       -0.41728777 -0.16701147 -0.16474652 -0.26250342
0003e0 8a f4 cc bd f2 b2 87 be 9d e1 99 bd 4b 5d 80 3c
       -0.100075796 -0.26503712 -0.075137354 0.015669486
0003f0 6b 6a d4 be 95 30 07 bc 46 18 90 3e 96 24 6c 3d
       -0.4148744 -0.008251329 0.2814352 0.05765208
