backend/ai_engine/models/lstm_forecast_model.pth (torch, 208325 bytes, 9 tensors)

lstm.weight_ih_l0 f4 [256, 3]
-0.7155801 0.04973553 -1.7067078 -0.9796725 1.810378 0.39511156 -0.61109155 0.5482461
-0.6360377 0.36137128 0.40026852 0.50068265 -1.2672778 0.4271671 -0.04869564 -0.8109211
0.25107995 -1.0367513 -1.0257334 -0.28934807 -0.15506461 0.07877869 -0.08648665 -0.6992381
0.21139486 -0.6545465 -0.925085 0.22173254 0.45301667 -0.42887464 0.18445319 0.40205356
0.08657818 0.30325866 -0.90048224 -1.2562008 -0.80607307 -0.106375515 -0.8148689 0.09241628
0.11566693 -0.48708877 -1.5340809 0.81751186 0.49243352 0.20053808 0.044030502 -0.17224501
-0.022896534 -0.054898895 -0.6696876 0.13345858 -1.0179148 -0.75891584 -0.6415713 1.5435952
1.1293739 -0.32876453 0.39665017 -1.1938907 0.108048506 -0.89285 -0.9456221 0.09580348
-0.7606591 -0.8611291 -0.5480858 0.7607459 -0.1841713 -0.3571311 0.99032056 -0.577446
-1.3601131 1.0853603 0.21809998 0.0059886896 1.4254043 0.36480626 -0.8234989 -0.28645927
-0.9079538 -0.52986944 0.96014297 -0.8707111 0.12331807 0.29788175 -0.38578364 -0.3731178
0.35434487 -0.5592961 -0.60789704 0.60794824 -0.42318133 0.27704522 0.26785055 0.13470548
-0.1973255 -0.38697395 -0.72941184 -0.39131883 0.14467262 -0.64284164 -0.47449762 1.8125386
1.5570232 -0.06881348 -0.39744267 -0.58542484 0.20613734 0.51424587 0.30238628 -0.26368472
0.41853556 -0.55021423 -0.8192956 0.5498674 -0.35948175 -0.23465738 -0.049974 -0.51436436
0.03423305 2.0428345 0.5220384 0.36327666 0.384756 0.03728833 -1.0138605 2.093304
1.5794741 0.80011195 0.27552813 -1.7361267 -1.6016217 0.97225374 -0.5492933 -0.16493642
0.7228914 -0.1132513 -0.27682096 0.12540382 -0.33354995 -0.67284954 -0.20238294 -0.33938754
-0.3607876 -0.62722677 -1.1051565 -0.5391917 -0.03692436 -0.2794871 -0.57321846 0.42003685
-0.12183544 -0.9234111 1.4233044 0.5472352 -0.35883856 0.21862467 -0.14984375 -0.41169846
0.08054405 -0.45621073 -0.3207438 1.0903506 0.9958377 -0.46595153 0.91379166 0.2535378
-0.6984813 -1.0577546 -0.524532 -0.15955387 -0.07977434 -0.6604002 -1.5532254 0.3391388
-0.7371519 -0.64921397 -1.1791105 -0.7033532 0.4554211 0.174668 -0.8222689 -0.75323474
0.8853633 -0.68931806 0.3814155 -0.53321403 -0.5465896 -0.93526286 1.4545442 -0.40967065
-0.4855209 -0.18250237 -0.71056235 -0.6020762 1.3535752 0.463553 -0.22603925 -0.59442747
-0.79058325 0.18444832 0.1697658 0.5149697 -0.28297576 -1.0611713 0.084988266 0.28541297
-0.19581687 -0.83811516 -0.09902772 -0.2637258 -0.06589495 0.29395515 -0.6583123 -0.49073437
0.37929127 -1.08929 -0.82316333 -0.0153469285 0.27611762 -0.026046477 0.059846148 -0.54117596
0.23256648 0.02746996 -1.478202 -1.1576681 0.37529954 -2.3030255 -0.3960037 0.10420505
-0.27281335 -0.42217302 0.29026514 -0.11500359 0.45306748 0.8091099 -0.018791368 -0.09860083
0.012211531 -0.60260415 -0.67105764 -0.41206974 -1.8388555 -0.41605473 -0.47879797 1.2643522
1.2838151 0.19333418 -1.708554 -0.43280333 0.36525872 -0.5104684 -0.7233343 0.14384677
00000000: 4230 37bf 7cb7 4b3d 6775 dabf d1cb 7abf
00000010: 77ba e73f 104c ca3e 7f70 1cbf db59 0c3f
00000020: 5ed3 22bf a805 b93e ffef cc3e bd2c 003f
00000030: 2936 a2bf a5b5 da3e 1475 47bd 8698 4fbf
00000040: 8d8d 803e 44b4 84bf 3b4b 83bf 6e25 94be
00000050: 42c9 1ebe b956 a13d ea1f b1bd 4501 33bf
00000060: e577 583e 5c90 27bf 5fd2 6cbf db0d 633e
00000070: cdf1 e73e 7595 dbbe 4ce1 3c3e f7d9 cd3e
00000080: e74f b13d b844 9b3e 0186 66bf 30cb a0bf
00000090: ce5a 4ebf 68db d9bd 409b 50bf bf44 bd3d
000000a0: c9e2 ec3d b363 f9be c35c c4bf 7548 513f
000000b0: 3f20 fc3e db59 4d3e 5459 343d ff60 30be
000000c0: 8391 bbbc aadd 60bd a670 2bbf 5ea9 083e
000000d0: 084b 82bf 4f48 42bf 043e 24bf 8794 c53f
000000e0: 538f 903f d353 a8be bb15 cb3e 69d1 98bf
000000f0: 8948 dd3d d191 64bf 4a14 72bf 9d34 c43d
00000100: 8eba 42bf f572 5cbf 5a4f 0cbf 3ec0 423f
00000110: 6797 3cbe e3d9 b6be a685 7d3f 80d3 13bf
00000120: 3018 aebf 16ed 8a3f 9a55 5f3e c53c c43b
00000130: a673 b63f e3c7 ba3e d3d0 52bf caaa 92be
00000140: a96f 68bf 86a5 07bf eecb 753f ece6 5ebf
00000150: 2f8e fc3d f583 983e 6f85 c5be 4c09 bfbe
00000160: b16c b53e 072e 0fbf 249f 1bbf 7fa2 1b3f
00000170: 39ab d8be dfd8 8d3e b523 893e 3cf0 093e
00000180: b20f 4abe 7321 c6be bcba 3abf f15a c8be
00000190: 0f25 143e 4591 24bf 5af1 f2be 4401 e83f
000001a0: 894c c73f 15ee 8cbd 9b7d cbbe 67de 15bf
000001b0: ab15 533e 9ea5 033f 60d2 9a3e af01 87be
000001c0: 4b4a d63e d7da 0cbf 5bbd 51bf 1cc4 0c3f
000001d0: fe0d b8be 064a 70be 89b1 4cbd 62ad 03bf
000001e0: f437 0c3d cdbd 0240 4fa4 053f 66ff b93e
000001f0: bdfe c43e a6bb 183d 2ec6 81bf b1f8 0540
00000200: 352c ca3f 23d4 4c3f 0612 8d3e 6639 debf
00000210: f101 cdbf 9fe5 783f 7c9e 0cbf 18e5 28be
00000220: 690f 393f 4cf0 e7bd 7abb 8dbe dc69 003e
00000230: 0fc7 aabe de3f 2cbf 793d 4fbe 34c4 adbe
00000240: 27b9 b8be ef91 20bf c575 8dbf 7808 0abf
00000250: ff3d 17bd ef18 8fbe 72be 12bf 120f d73e
00000260: dc84 f9bd ab64 6cbf d72e b63f 9b17 0c3f
00000270: b0b9 b7be 25df 5f3e a470 19be 24ca d2be
00000280: 47f4 a43d 7494 e9be 8838 a4be 9c90 8b3f
00000290: 38ef 7e3f 3391 eebe 40ee 693f b5cf 813e
000002a0: accf 32bf 8164 87bf bb47 06bf 1762 23be
000002b0: bb60 a3bd fd0f 29bf 17d0 c6bf 9aa3 ad3e
000002c0: fdb5 3cbf e332 26bf 18ed 96bf f50e 34bf
000002d0: f42c e93e 2bdc 323e 3780 52bf fed3 40bf
000002e0: 2ba7 623f 2677 30bf e448 c33e b780 08bf
000002f0: 4ced 0bbf 636d 6fbf 812e ba3f 5ac0 d1be
00000300: 3296 f8be e7e1 3abe 6ae7 35bf aa21 1abf
00000310: f441 ad3f d256 ed3e d576 67be 662c 18bf
00000320: aa63 4abf 05e0 3c3e 16d7 2d3e 0ed5 033f
00000330: 33e2 90be 76d4 87bf 540e ae3d a621 923e
00000340: 3884 48be b78e 56bf 0ccf cabd 1107 87be
00000350: eef3 86bd 4a81 963e 2887 28bf 8941 fbbe
00000360: 7732 c23e db6d 8bbf d5ba 52bf af71 7bbc
00000370: 4a5f 8d3e 6c5f d5bc 3c21 753d 828a 0abf
00000380: e825 6e3e ae08 e13c b935 bdbf 782e 94bf
00000390: 4327 c03e c564 13c0 ffc0 cabe 7569 d53d
000003a0: 31ae 8bbe 1027 d8be a29d 943e 0187 ebbd
000003b0: 76f8 e73e d421 4f3f 5bf0 99bc 3bef c9bd
000003c0: e012 483c 4444 1abf 6fca 2bbf cefa d2be
000003d0: 9e5f ebbf 2005 d5be 0225 f5be 4bd6 a13f
000003e0: 0e54 a43f 65f9 453e e6b1 dabf 6698 ddbe
000003f0: 3103 bb3e 0fae 02bf 702c 39bf 914c 133e

lstm.weight_hh_l0 f4 [256, 64]
0.30230528 0.5317552 -0.045424823 -0.5569321 0.27383274 -0.98295224 -0.16561146 -0.93816733
0.103371955 -0.3399277 -0.8853065 -0.049392074 -0.04698186 -0.22870117 -0.06966135 -0.575018
0.21743877 -0.24816889 -0.30763915 -0.45393282 0.2982257 -0.18047823 -0.2838055 0.28582212
0.46778408 -0.19580674 0.06017811 -0.5228827 0.44667348 0.06223977 0.15670173 1.1541557
-0.011930706 -0.045586307 -1.0496452 -0.14172502 -0.28171885 0.19499591 -0.33901033 0.48901856
-0.6600516 0.21314193 -0.004305735 -0.5211263 -0.61689645 0.06871114 0.37200484 -0.17194393
0.5645528 0.0712586 0.006689464 -1.0062311 0.22430557 -0.088868454 -0.5184001 -0.11121379
-0.2995176 0.24838416 -0.9521602 -0.064718634 0.85412216 -0.39190027 -0.7218396 0.2551405
0.029005412 0.5181019 0.040871367 -0.14280745 -0.46084172 -0.13780782 -0.11239284 -0.3841839
0.085499264 -0.16931443 -0.20342869 0.18935974 -0.5894297 -0.33156484 0.9058604 -0.7909515
-0.19279009 -0.38996437 -0.5096396 -0.3752194 0.24677376 -0.23800743 0.114720106 0.069961734
-0.8269612 -0.21446504 0.6497272 -0.052376006 0.20396072 0.03853696 0.61699474 0.4776367
-0.20845506 0.47959122 -0.4819974 0.07177682 0.27094287 0.3999942 0.39739344 -0.17837662
0.09394463 0.104666844 0.6281917 -0.24135315 0.28497642 0.31773213 0.33336538 -0.56305134
0.5518167 -0.19698629 0.59228677 -0.38499027 0.09693333 -0.06331038 -0.0098396195 -0.18627034
0.1393938 1.1769305 0.7291287 -0.22447489 0.76368994 0.24395858 -0.80515206 -0.5442782
-0.30761504 -0.28873447 -0.21752307 -0.33319446 -0.3156674 -0.23146029 -0.15774687 -0.7696714
0.58161104 -0.5149942 -0.15429358 -0.51579505 -0.4935943 -0.50021595 0.2800862 -0.29944146
0.015055061 -0.15845737 0.70561165 -0.20633742 0.30408597 0.090098724 0.4513223 -0.15662533
0.24460608 -1.1222289 0.34946683 0.38061476 -0.6143741 -0.29821572 0.16498008 0.41794887
0.10904111 -0.040170755 -0.068899825 0.22433539 0.48760793 0.34632576 0.0981971 -0.12230739
0.051907 0.4230626 -0.027223568 -0.30616152 -0.34953627 0.48196334 0.08615042 -0.89804536
0.17052385 -0.41946727 0.319671 0.045302093 0.14570001 -0.35382333 -0.24798192 -0.63107014
0.15306273 0.6622343 -0.49824962 0.4534907 0.44740325 0.28475097 0.038985644 0.06942507
0.054374866 0.61378473 -0.2649937 0.06494272 -0.55320734 -0.134811 0.89946085 -0.23110701
-0.09945015 -0.1626238 -0.35379627 -0.1287585 -0.7247447 -0.10558263 0.25032192 -0.02658696
0.53660905 -0.47118044 0.34033045 -0.8077226 0.8226512 -0.64455 0.239409 -0.014329404
-0.28970665 -0.03990708 0.07922657 0.25459865 -0.1320793 0.0070806053 0.6454601 0.10328044
0.5035444 0.3397509 -0.18132877 0.12191654 0.03548501 0.80766094 0.56960124 -0.08544526
0.1747937 -0.13261491 0.39916423 0.060644794 0.53205216 0.26014942 0.16648687 -0.065872125
0.6967929 -0.32406402 0.3325346 -0.14343493 -0.475447 -0.7449508 0.5314648 -0.0114801815
0.36306378 -0.28376377 0.39089328 -0.14323612 -0.20036921 0.44147894 -0.0769374 -0.34188172
00000000: c2c7 9a3e 1c21 083f 610f 3abd 1a93 0ebf
00000010: ce33 8c3e c2a2 7bbf 0d96 29be bc2b 70bf
00000020: adb4 d33d 010b aebe 72a3 62bf 584f 4abd
00000030: 0d70 40bd a430 6abe 9caa 8ebd 6134 13bf
00000040: 45a8 5e3e fc1f 7ebe e182 9dbe e269 e8be
00000050: 0ab1 983e 49cf 38be f44e 91be 4757 923e
00000060: 6581 ef3e 9081 48be 527d 763d a4db 05bf
00000070: 63b2 e43e 21ef 7e3d 6b76 203e 60bb 933f
00000080: 0279 43bc b5b8 3abd c65a 86bf 5d20 11be
00000090: 743d 90be 02ad 473e c392 adbe a460 fa3e
000000a0: 24f9 28bf e141 5a3e 2017 8dbb 8868 05bf
000000b0: edec 1dbf 6db8 8c3d 6b77 be3e 1212 30be
000000c0: 8886 103f 07f0 913d 4b33 db3b 2ecc 80bf
000000d0: 5cb0 653e aa00 b6bd deb5 04bf 0ec4 e3bd
000000e0: 5f5a 99be 6b58 7e3e c5c0 73bf 348b 84bd
000000f0: c0a7 5a3f 27a7 c8be 7bca 38bf c7a1 823e
00000100: c29c ed3c 53a2 043f bc68 273d 1e3c 12be
00000110: 72f3 ebbe 7e1d 0dbe 382e e6bd c1b3 c4be
00000120: 3d1a af3d c360 2dbe 9c4f 50be 85e7 413e
00000130: dde4 16bf dec2 a9be 78e6 673f cc7b 4abf
00000140: c46a 45be 69a9 c7be be77 02bf c21c c0be
00000150: 43b2 7c3e 38b8 73be 60f2 ea3d 1948 8f3d
00000160: bbb3 53bf b99c 5bbe 8654 263f 3988 56bd
00000170: 14db 503e eed8 1d3d 5ef3 1d3f cc8c f43e
00000180: 3e75 55be fb8c f53e 5dc8 f6be baff 923d
00000190: 06b9 8a3e 0acc cc3e 2777 cb3e 5ca8 36be
000001a0: 0b66 c03d 925b d63d 2cd1 203f 4825 77be
000001b0: 6ee8 913e c9ad a23e deae aa3e 2224 10bf
000001c0: dc43 0d3f c6b6 49be 1ba0 173f 721d c5be
000001d0: fb84 c63d dfa8 81bd 5b36 21bc a7bd 3ebe
000001e0: 40bd 0e3e a9a5 963f 2ea8 3a3f bfdc 65be
000001f0: 2f81 433f 47d0 793e 721e 4ebf d155 0bbf
00000200: b87f 9dbe 01d5 93be 5ebe 5ebe 7798 aabe
00000210: 289f a1be ed03 6dbe 6588 21be 2f09 45bf
00000220: 76e4 143f a9d6 03bf 23ff 1dbe 250b 04bf
00000230: 64b8 fcbe 270e 00bf 7567 8f3e 6450 99be
00000240: 81a9 763c a642 22be f7a2 343f 1e4a 53be
00000250: 28b1 9b3e ae85 b83d b713 e73e 6462 20be
00000260: 047a 7a3e 32a5 8fbf 51ed b23e f0df c23e
00000270: 9f47 1dbf bbaf 98be 8af0 283e 65fd d53e
00000280: f250 df3d 178a 24bd 5a1b 8dbd 2db8 653e
00000290: bfa7 f93e 9c51 b13e 901b c93d 4c7c fabd
000002a0: 6f9c 543d a99b d83e f603 dfbc 34c1 9cbe
000002b0: 6bf6 b2be e6c3 f63e a26f b03d 4de6 65bf
000002c0: ce9d 2e3e 6ac4 d6be ebab a33e b08e 393d
000002d0: 6232 153e 5528 b5be f9ee 7dbe d08d 21bf
000002e0: 7abc 1c3e 3088 293f 931a ffbe ef2f e83e
000002f0: 0a12 e53e e1ca 913e 69af 1f3d bb2e 8e3d
00000300: 2eb8 5e3d ff20 1d3f 41ad 87be b000 853d
00000310: ff9e 0dbf e50b 0abe 1143 663f 51a7 6cbe
00000320: 85ac cbbd da86 26be c924 b5be 45d9 03be
00000330: de88 39bf b53b d8bd 322a 803e e5cc d9bc
00000340: 365f 093f 903e f1be cb3f ae3e e9c6 4ebf
00000350: 4599 523f 3b01 25bf a227 753e e0c5 6abc
00000360: 6e54 94be 9b75 23bd 8a41 a23d c15a 823e
00000370: cc3f 07be 6c04 e83b e03c 253f b284 d33d
00000380: 49e8 003f d4f3 ad3e 40ae 39be 61af f93d
00000390: bb58 113d dec2 4e3f 63d1 113f edfd aebd
000003a0: 1ffd 323e 34cc 07be 415f cc3e ad66 783d
000003b0: 9234 083f 4e32 853e 897b 2a3e f7e7 86bd
000003c0: 0561 323f b8eb a5be fa41 aa3e 9be0 12be
000003d0: ca6d f3be 18b5 3ebf 140e 083f 5f17 3cbc
000003e0: 7fe3 b93e 7c49 91be 2a23 c83e 7dac 12be
000003f0: 962d 4dbe 8709 e23e 5b91 9dbd 1f0b afbe

lstm.bias_ih_l0 f4 [256]
-0.0883991 0.019114573 -0.23934716 -0.20948169 -0.010368295 -0.2155937 0.1270142 -0.3854669
-0.2396063 0.018930942 -0.15167502 -0.22454108 -0.2063482 -0.28385043 0.17150833 -0.18996783
-0.25841582 -0.4368405 0.118411295 -0.0979671 -0.44555333 -0.03453548 -0.23136143 -0.08487547
0.5913675 0.017227227 0.047799036 -0.47922203 -0.27535406 -0.28745335 0.32842407 -0.15286542
-0.2890282 0.21109986 -0.27659118 -0.44512218 0.16815697 -0.28726974 -0.7234416 -0.5851325
0.037552506 -0.09993024 -0.2840896 -0.022935694 0.096370965 -0.40348288 -0.61409837 0.12784894
0.501773 -0.5334292 -0.06771102 -0.16202834 0.006360111 -0.34135294 -0.057304554 -0.55679536
-0.27143413 -0.3394439 0.056520615 -0.12993248 -0.12200973 -0.37483466 0.05262176 -0.26267627
-0.28220367 0.3484421 -0.21519318 -0.090352654 -0.13433817 0.09355946 0.07283344 -0.2723417
0.23618877 -0.20556435 -0.22363096 -0.1648039 0.09235082 -0.012926527 -0.050941568 0.33470178
-0.07549176 -0.31604764 -0.37382147 -0.09855954 -0.39130402 0.02186756 0.23231927 0.44574535
-0.5301973 -0.20872657 -0.09753363 0.12888245 -0.13931265 -0.021914367 -0.24155758 -0.35921288
0.110850394 -0.14543438 -0.35772133 -0.21838947 -0.40697935 0.27920723 0.05709282 0.45210052
-0.122740485 0.50911987 -0.29971844 0.12508446 -0.23362763 0.20041199 -0.2635639 -0.17478971
-0.11936039 -0.053653367 -0.28584692 -0.18481363 0.2956207 -0.09084254 -0.15185724 0.023189778
-0.024310097 -0.1419346 -0.14821056 -0.44822583 -0.08886181 0.15929127 -0.43029425 0.060650356
0.30547154 0.21848583 0.22179267 -0.2352471 -0.25986063 -0.22993831 0.25905988 -0.172473
0.22133715 -0.19280666 -0.14242014 -0.26474878 -0.21752053 -0.18480337 0.1375478 -0.010428851
-0.0032455781 0.17341954 0.11432394 -0.13837548 0.19057569 -0.072333805 -0.060578924 0.18374267
-0.22633441 -0.25678903 0.26908895 -0.05671976 0.10097224 -0.031346187 0.2032107 0.27845114
0.06037401 0.27045512 -0.16235246 -0.03756205 0.24775809 0.0812188 0.08842557 0.11676106
-0.024246303 0.093575224 0.2709765 0.4003488 0.24621576 0.15074311 0.05839976 -0.23456854
0.1469104 0.0054585394 0.32798967 0.044363104 -0.068626896 -0.01823537 0.22403951 -0.017392058
0.26088667 0.26906058 0.25087005 -0.2464903 0.18908961 -0.09033921 -0.093063146 0.17920318
-0.11739696 -0.06758012 -0.38049608 -0.31169623 -0.054429278 -0.36099243 0.12455236 -0.33032274
-0.25625268 -0.16829698 -0.10725142 -0.09974085 -0.14289433 -0.33674467 0.32730228 -0.42318368
-0.37982926 -0.06294033 0.08333024 -0.029860048 -0.54200417 0.023390051 -0.18404934 -0.10534175
0.6055641 -0.020865532 0.23992668 -0.508488 -0.34818712 -0.4624686 0.5023294 -0.34834817
-0.118720256 0.24126743 -0.2846239 -0.52594197 0.088178016 -0.18195584 -0.26124102 -0.4297564
0.19552825 -0.12903136 -0.22312206 0.30008784 0.30364951 -0.33730137 -0.5394456 0.2621253
0.726349 -0.62570566 0.18040326 -0.26197374 0.042229418 -0.19243827 -0.05232714 -0.49791235
-0.39012325 -0.101960465 0.4015872 0.16415738 -0.13271885 -0.36155394 0.020436833 -0.18301947
00000000: 960a b5bd 2a96 9c3c 6c17 75be 5e82 56be
00000010: c8df 29bc 98c4 5cbe 0310 023e eb5b c5be
00000020: 5b5b 75be 1015 9b3c b250 1bbe 19ee 65be
00000030: f14c 53be d854 91be e19f 2f3e ed86 42be
00000040: 144f 84be 8fa9 dfbe 9f81 f23d faa2 c8bd
00000050: 911f e4be 1375 0dbd 03ea 6cbe 31d3 adbd
00000060: dc63 173f 1d20 8d3c ecc8 433d 975c f5be
00000070: 35fb 8cbe 162d 93be 3327 a83e c188 1cbe
00000080: 81fb 93be 902a 583e 5c9d 8dbe 0ee7 e3be
00000090: 5731 2c3e 0515 93be 7833 39bf 3ecb 15bf
000000a0: a8d0 193d 3aa8 ccbd 3174 91be a3e3 bbbc
000000b0: 245e c53d 4f95 cebe 8d35 1dbf d5ea 023e
000000c0: 3274 003f d18e 08bf 13ac 8abd c2ea 25be
000000d0: 7a68 d03b d0c5 aebe 2eb8 6abd 248a 0ebf
000000e0: 6af9 8abe 97cb adbe 2982 673d 050d 05be
000000f0: 3de0 f9bd 54ea bfbe ea89 573d 817d 86be
00000100: 007d 90be 0167 b23e 9a5b 5cbe d00a b9bd
00000110: f28f 09be 1a9c bf3d b329 953d 5f70 8bbe
00000120: 78db 713e 767f 52be 84ff 64be 5bc2 28be
00000130: 6d22 bd3d c9c9 53bc 1ba8 50bd 085e ab3e
00000140: 6d9b 9abd ffd0 a1be 8765 bfbe 96d9 c9bd
00000150: 0059 c8be 9923 b33c 1ae5 6d3e bc38 e43e
00000160: 03bb 07bf 6bbc 55be b6bf c7bd c3f9 033e
00000170: faa7 0ebe c285 b3bc df5a 77be c0ea b7be
00000180: 8805 e33d c0ec 14be 4027 b7be 7da1 5fbe
00000190: 995f d0be 40f4 8e3e 29da 693d b879 e73e
000001a0: 5d5f fbbd ae55 023f b274 99be 2416 003e
000001b0: 153c 6fbe cd38 4d3e d9f1 86be 13fc 32be
000001c0: 3873 f4bd a2c3 5bbd 875a 92be c93f 3dbe
000001d0: 995b 973e a70b babd 7780 1bbe 7df8 bd3c
000001e0: f825 c7bc 4e57 11be 82c4 17be db7d e5be
000001f0: 2efd b5bd 401d 233e 874f dcbe 826c 783d
00000200: c466 9c3e c0ba 5f3e 9e1d 633e 9ee4 70be
00000210: 740c 85be f374 6bbe 7fa3 843e c39c 30be
00000220: 35a6 623e 1c6f 45be 96d6 11be 278d 87be
00000230: b4bd 5ebe 183d 3dbe 55d9 0c3e c5dd 2abc
00000240: c4b3 54bb e494 313e ab22 ea3d 4db2 0dbe
00000250: 4626 433e bf23 94bd 9b21 78bd 0a27 3c3e
00000260: 35c4 67be da79 83be 07c6 893e fb52 68bd
00000270: 89ca ce3d dc64 00bd 7716 503e 2691 8e3e
00000280: bd4a 773d 1879 8a3e b93f 26be aada 19bd
00000290: 4cb4 7d3e 0b56 a63d 7718 b53d 6c20 ef3d
000002a0: 2fa0 c6bc 5ea4 bf3d 6fbd 8a3e 85fa cc3e
000002b0: fc1f 7c3e 675c 1a3e 9634 6f3d bc32 70be
000002c0: ae6f 163e 8cdd b23b 43ee a73e 16b6 353d
000002d0: 428c 8cbd 5862 95bc 9d6a 653e ca79 8ebc
000002e0: f092 853e 4fc2 893e 0a72 803e f467 7cbe
000002f0: b5a0 413e c403 b9bd e497 bebd 0a81 373e
00000300: d16d f0bd 7267 8abd 62d0 c2be a696 9fbe
00000310: 3cf1 5ebd 00d4 b8be 4f15 ff3d 1020 a9be
00000320: 8d33 83be 0b56 2cbe a2a6 dbbd ee44 ccbd
00000330: e452 12be cc69 acbe 2a94 a73e 88ab d8be
00000340: fb78 c2be dce6 80bd 0ba9 aa3d 0f9d f4bc
00000350: c9c0 0abf 7e9c bf3c 6e77 3cbe 6abd d7bd
00000360: 4006 1b3f 31ee aabc 57af 753e 452c 02bf
00000370: 9545 b2be afc8 ecbe a998 003f b15a b2be
00000380: 9b23 f3bd cf0e 773e 39ba 91be 22a4 06bf
00000390: ad96 b43d a252 3abe 62c1 85be 0809 dcbe
000003a0: 8f38 483e cc20 04be 1c7a 64be 1da5 993e
000003b0: f377 9b3e c4b2 acbe 1b19 0abf 4a35 863e
000003c0: 02f2 393f 3f2e 20bf a2bb 383e 6c21 86be
000003d0: c1f8 2c3d 8a0e 45be fc54 56bd 5eee febe
000003e0: 3cbe c7be a6d0 d0bd d69c cd3e df18 283e
000003f0: 73e7 07be 991d b9be 256b a73c 7569 3bbe

lstm.bias_hh_l0 f4 [256]
-0.07390626 0.050885357 -0.2482292 -0.257351 -0.09867588 -0.20716092 0.111095145 -0.3334218
-0.20188896 0.012242673 -0.078493446 -0.16172679 -0.2140855 -0.18320473 0.035392895 -0.09211081
-0.3112905 -0.41733631 0.027183177 -0.06867346 -0.46019277 -0.010170626 -0.22640355 -0.15855722
0.66900456 -0.086434744 0.20875862 -0.45366564 -0.37623534 -0.23137978 0.28749463 -0.33507273
-0.26999226 0.036316816 -0.29364216 -0.5804054 -0.05764661 -0.10852948 -0.53079623 -0.57853746
0.1932212 -0.113387644 -0.35122862 0.026038216 0.09960781 -0.45067194 -0.3773744 0.3055817
0.6959354 -0.53838027 -0.039964274 -0.1625466 -0.038927812 -0.22813317 -0.12593134 -0.5232178
-0.2737644 -0.41381237 0.15515736 0.048215523 -0.18768123 -0.48827183 -0.092178464 -0.3314518
-0.23950148 0.21553078 -0.34431592 0.062902026 -0.30008832 0.2607485 -0.030635972 -0.24974017
0.23351508 -0.32232276 -0.16575193 -0.20207264 0.07380264 -0.066021025 0.011950532 0.25166205
0.10003106 -0.26027435 -0.26158208 -0.09822518 -0.3572023 0.03370142 0.16918749 0.3540765
-0.5418413 -0.06974858 -0.12382311 0.23871997 -0.07826196 -0.0035287084 -0.1397015 -0.38946116
0.226979 -0.28019056 -0.21005203 -0.11398924 -0.3133954 0.1275843 0.23490049 0.38668805
-0.20755574 0.57763577 -0.25117856 0.113241866 -0.35245273 0.08131672 -0.3859694 -0.31155297
-0.077622876 -0.03366959 -0.4056717 0.02623515 0.389591 -0.05468309 -0.061232 0.020234885
-0.21010128 -0.09627139 -0.24712133 -0.5480441 -0.12634306 0.21781906 -0.60023487 0.14651982
0.21900819 0.02713236 0.22553337 -0.14231773 -0.22334252 -0.10467837 0.18655185 -0.16439025
0.09930498 -0.27007025 -0.13596946 -0.16165751 -0.149676 -0.054241724 0.18626447 -0.022481466
0.0054297824 0.27376625 0.31951442 -0.22483303 0.17902264 -0.28919694 0.044750858 0.122600205
-0.34874538 -0.16245186 0.20079409 -0.1688986 0.19198264 -0.109862596 0.38401586 0.040825147
0.23774281 0.14704622 -0.041954022 -0.18035148 0.34602192 0.16317001 0.15602729 -0.049097102
0.15270722 0.10884866 0.0790074 0.22760063 0.20815733 -0.009976408 0.06693251 -0.26441917
0.3507786 -0.14613347 0.23192051 0.026294876 -0.16222101 -0.07400991 0.10920402 -0.043513346
0.1723713 0.27240494 0.14587656 -0.28607115 0.27938968 -0.08149415 -0.3240558 0.06891161
-0.012150027 0.058816347 -0.4125812 -0.30094212 -0.19790415 -0.39772373 0.154584 -0.17716853
-0.21874148 -0.1187412 -0.16725796 -0.11351958 -0.11989779 -0.4206668 0.23550315 -0.23656558
-0.35121414 -0.12882675 0.07501357 0.13846436 -0.53589314 -0.10231342 -0.21925431 -0.23871264
0.5924798 -0.17459677 0.19771145 -0.4579983 -0.2518717 -0.48598573 0.47022206 -0.3806989
-0.18918347 0.22874571 -0.26725763 -0.5391855 -0.0124672465 -0.29908794 -0.38105434 -0.54216105
0.013159846 -0.029129602 -0.13061321 0.3991783 0.38362208 -0.24311127 -0.638558 0.35659105
0.82878995 -0.49978277 0.047373667 -0.29393223 -0.04039058 -0.29039276 -0.15165164 -0.53357947
-0.27179325 -0.09743446 0.4052289 0.10671361 -0.16402954 -0.37252197 -0.024135388 -0.12570255
00000000: 2a5c 97bd 2a6d 503d cc2f 7ebe 83c3 83be
00000010: 9416 cabd fe21 54be da85 e33d 43b6 aabe
00000020: fbbb 4ebe 7e95 483c 2cc1 a0bd b59b 25be
00000030: 3b39 5bbe 059a 3bbe 24f8 103d 98a4 bcbd
00000040: 7861 9fbe 1bad d5be 41af de3c aca4 8cbd
00000050: 639e ebbe b3a2 26bc 55d6 67be d35c 22be
00000060: e243 2b3f b304 b1bd d2c4 553e dd46 e8be
00000070: eba1 c0be d2ee 6cbe 7f32 933e a78e abbe
00000080: 6d3c 8abe f1c0 143d 4458 96be 7395 14bf
00000090: da1e 6cbd b444 debd 43e2 07bf 081b 14bf
000000a0: c7db 453e c837 e8bd 3dd4 b3be 194e d53c
000000b0: 2eff cb3d 79be e6be 3837 c1be 3475 9c3e
000000c0: d328 323f 4ad3 09bf 94b1 23bd 9e72 26be
000000d0: c572 1fbd be9b 69be 25f4 00be 9af1 05bf
000000e0: d92a 8cbe 37df d3be 92e1 1e3e a47d 453d
000000f0: 822f 40be c4fe f9be 10c8 bcbd 0db4 a9be
00000100: e03f 75be 1ab4 5c3e 2d4a b0be c7d2 803d
00000110: 2da5 99be d480 853e 4af8 fabc e3bb 7fbe
00000120: 941e 6f3e 7d07 a5be e0ba 29be 21ec 4ebe
00000130: d725 973d 0836 87bd 2acc 433c d9d9 803e
00000140: 16dd cc3d ae42 85be 16ee 85be 482a c9bd
00000150: 38e3 b6be 800a 0a3d 7c3f 2d3e 8449 b53e
00000160: 1db6 0abf 58d8 8ebd f896 fdbd 0273 743e
00000170: ce47 a0bd e741 67bb e90d 0fbe 7467 c7be
00000180: 2f6d 683e 2375 8fbe e117 57be 3173 e9bd
00000190: 5d75 a0be 75a5 023e c189 703e fafb c53e
000001a0: 7e89 54be f0df 133f 7a9a 80be 5aeb e73d
000001b0: af74 b4be 6189 a63d c89d c5be df83 9fbe
000001c0: bef8 9ebd 20e9 09bd 33b4 cfbe 19eb d63c
000001d0: 7978 c73e 60fb 5fbd 68ce 7abd a1c3 a53c
000001e0: ca24 57be ef29 c5bd 600d 7dbe 9e4c 0cbf
000001f0: 1360 01be f60b 5f3e fea8 19bf 4b09 163e
00000200: af43 603e af44 de3c 38f2 663e bdbb 11be
00000210: e7b3 64be 9d61 d6bd 7307 3f3e eb55 28be
00000220: 6960 cb3d a646 8abe 943b 0bbe 8c89 25be
00000230: aa44 19be 922c 5ebd 1dbc 3e3e 0d2b b8bc
00000240: 51ec b13b 172b 8c3e 6597 a33e a13a 66be
00000250: b651 373e 9f11 94be ad4c 373d d115 fb3d
00000260: c18e b2be c859 26be f79c 4d3e c1f3 2cbe
00000270: 1997 443e a4ff e0bd ba9d c43e 4538 273d
00000280: da72 733e 4993 163e fbd7 2bbd 0fae 38be
00000290: c929 b13e 0a16 273e 9ec5 1f3e 0b1a 49bd
000002a0: 485f 1c3e 0cec de3d a2ce a13d 2410 693e
000002b0: 3227 553e 1774 23bc e913 893d f361 87be
000002c0: 4199 b33e 03a4 15be 927c 6d3e 5a68 d73c
000002d0: 441d 26be 8292 97bd 5ba6 df3d 0d3b 32bd
000002e0: 1a82 303e a978 8b3e aa60 153e eb77 92be
000002f0: 2a0c 8f3e 68e6 a6bd a4ea a5be 8821 8d3d
00000300: e810 47bc 69e9 703d d83d d3be 1615 9abe
00000310: 63a7 4abe 72a2 cbbe 454b 1e3e ab6b 35be
00000320: c4fd 5fbe 962e f3bd ac45 2bbe f47c e8bd
00000330: f98c f5bd a461 d7be bd27 713e 3f3e 72be
00000340: 57d2 b3be 29eb 03be b7a0 993d 9ac9 0d3e
00000350: 4b30 09bf b389 d1bd 3484 60be 1671 74be
00000360: c2ac 173f 7fc9 32be df74 4a3e c17e eabe
00000370: 54f5 80be 1fd3 f8be f2c0 f03e f7ea c2be
00000380: 50b9 41be 513c 6a3e fed5 88be 1008 0abf
00000390: 6c43 4cbc 0e22 99be 8e19 c3be 11cb 0abf
000003a0: 659c 573c 34a1 eebc 78bf 05be 1961 cc3e
000003b0: 1d6a c43e 29f2 78be 8978 23bf 1a93 b63e
000003c0: 942b 543f 87e3 ffbe e40a 423d 497e 96be
000003d0: 9870 25bd 5cae 94be 914a 1bbe aa98 08bf
000003e0: 7c28 8bbe b88b c7bd 2a7a cf3e aa8c da3d
000003f0: 5cf7 27be 33bb bebe 94b7 c5bc 2bb8 00be

lstm.weight_ih_l1 f4 [256, 64]
0.2577937 0.3974809 0.54373324 0.19309147 -0.19573842 -0.061034705 0.23620638 -0.27548677
0.05500132 0.32200903 -0.719264 0.39318863 -0.021660408 -0.011582129 -1.02948 0.5161489
0.6367439 0.12587397 0.2610674 -0.32219797 0.33237013 -0.16919768 -0.09512304 -0.08648501
0.3226544 0.35671493 -0.056870095 -0.06073382 0.04176738 0.019170735 0.20373951 0.073876314
0.14783336 0.42620462 -0.028937653 -1.1540097 -0.93726116 -0.009963054 0.18569851 0.7379454
0.29515952 0.063224845 -0.47221228 0.8001821 -0.3077395 0.6753451 0.55236447 0.4020678
0.31459358 -0.39979163 0.03561411 -0.85344595 0.11594852 -0.47277656 -0.13696262 -0.2641455
-0.08677463 -0.7031024 -0.92970026 0.20438938 0.019702224 -0.12006317 0.37192118 0.14218949
1.536818 0.38922295 0.7563122 0.10254545 -0.1913783 -0.7118856 1.0646317 -0.48985454
0.21646413 -0.75851685 -0.7071025 -0.53373957 -0.56111693 -0.97193456 -0.16890635 -0.34967053
0.8015565 0.20681675 -0.20341906 -1.0133325 0.95451343 -0.8255257 -0.30697823 0.17506891
-0.5634018 -0.6382271 0.49244955 -0.7235485 0.57696486 -0.110004805 1.275391 1.2805032
0.89914876 0.60059315 -0.40306395 -0.7337461 1.0117543 0.46181613 0.46694607 0.6270797
0.47695026 0.058931436 0.3743022 0.5839521 0.4445573 0.03537586 1.3652855 0.29556108
0.28744173 -0.4991885 1.2061828 -0.72819513 0.23316167 -0.47637358 0.12930799 0.08377104
1.0237261 0.46406564 0.6722018 -1.4729476 0.76089716 0.11219265 -0.91085476 0.10940324
0.552229 -0.2852796 0.35253978 -0.16451088 -0.054179158 -0.86855835 0.37979355 -0.35572836
-0.23111969 -0.68124074 -0.33597302 0.0039642756 -0.810773 0.5784124 -0.3966132 -0.19814524
0.24822982 0.09450787 0.7194772 -0.36230752 0.3792092 0.015739812 -0.098194174 -0.057875823
0.5447331 0.35020417 0.510455 -0.65569973 0.28437063 -0.09104517 0.5010136 0.2317842
0.749561 0.76492643 0.31496063 -0.15784943 0.041784555 0.5986254 0.95332134 -0.15223469
0.033918727 -0.31763607 -0.53715736 0.3725217 0.166006 0.89824855 0.6229997 0.22683766
0.6821933 -0.6367837 0.3363801 -0.94765174 0.1590057 -0.6535882 0.42437133 0.24532421
-0.104425564 0.040664956 0.056366198 -0.45050275 0.07205125 -0.4777532 -0.18166548 0.429785
-0.7248334 -0.6236731 -0.09978856 0.48466906 -0.36451888 0.5005351 0.14126493 0.21774521
-0.42158464 -0.30511522 0.12718007 0.23859155 0.19873902 0.9568577 0.5405659 -0.16659893
-0.8754405 -0.41068572 0.35537273 0.3448921 -0.29414913 -0.15859327 0.1997984 -0.19562908
-0.34488302 0.04099606 0.35123342 0.06506001 -0.40125728 -0.15101402 0.27346402 -0.79875416
-1.0090188 -0.28759563 0.055418573 0.7224988 -0.034739852 -0.2815746 -0.1459406 -0.4709423
-0.68407214 -0.018513327 -0.012244819 -0.55836827 0.76771 -0.45613322 -0.4370386 -0.49503973
0.5177019 0.64259386 0.17828982 0.3598066 -0.109599374 0.53416127 0.51500684 0.16681229
-0.7190759 0.11342611 0.7373821 0.70954114 -0.36587885 0.066118486 -0.24639471 -0.25080597
00000000: 89fd 833e 9e82 cb3e 1a32 0b3f c5b9 453e
00000010: a76f 48be 87ff 79bd 16e0 713e 9a0c 8dbe
00000020: 1049 613d 5ede a43e af21 38bf 0550 c93e
00000030: 2b71 b1bc f8c2 3dbc 00c6 83bf 5622 043f
00000040: a601 233f 1be5 003e a0aa 853e 22f7 a4be
00000050: 6b2c aa3e 2842 2dbe decf c2bd 0e1f b1bd
00000060: f532 a53e 57a3 b63e 9ef0 68bd 07c4 78bd
00000070: 4614 2b3d f20b 9d3c 17a1 503e 774c 973d
00000080: a161 173e 7e37 da3e a80e edbc 97b6 93bf
00000090: 59f0 6fbf 143c 23bc c027 3e3e fde9 3c3f
000000a0: 261f 973e 077c 813d cfc5 f1be bcd8 4c3f
000000b0: 0890 9dbe 6be3 2c3f c267 0d3f d5db cd3e
000000c0: 6912 a13e 7db1 ccbe 1ae0 113d 6f7b 5abf
000000d0: 6b76 ed3d c50f f2be ee3f 0cbe 143e 87be
000000e0: e6b6 b1bd 85fe 33bf d600 6ebf 734b 513e
000000f0: 8f66 a13c aee3 f5bd 746c be3e 1f9a 113e
00000100: 74b6 c43f 3b48 c73e ad9d 413f 5903 d23d
00000110: acf8 43be 223e 36bf da45 883f 37ce fabe
00000120: c6a8 5d3e 292e 42bf ab04 35bf 28a3 08bf
00000130: 5ca5 0fbf b4d0 78bf c9f5 2cbe 0408 b3be
00000140: cf32 4d3f c5c7 533e 164d 50be e1b4 81bf
00000150: fe5a 743f a755 53bf 402c 9dbe 4445 333e
00000160: 1a3b 10bf da62 23bf 5922 fc3e 793a 39bf
00000170: f8b3 133f 334a e1bd 0340 a33f 87e7 a33f
00000180: 9d2e 663f 79c0 193f 665e cebe c9d6 3bbf
00000190: 2a81 813f 2a73 ec3e 8e13 ef3e 4c88 203f
000001a0: d332 f43e 1762 713d 8aa4 bf3e e37d 153f
000001b0: 049d e33e 47e6 103d adc1 ae3f c853 973e
000001c0: 902b 933e a395 ffbe 3364 9a3f ff6a 3abf
000001d0: efc1 6e3e 3de7 f3be 5069 043e 2790 ab3d
000001e0: 7509 833f 039a ed3e 6b15 2c3f 8c89 bcbf
000001f0: 28ca 423f 43c5 e53d c72d 69bf ce0e e03d
00000200: e15e 0d3f 2b10 92be 1880 b43e 8a75 28be
00000210: f7ea 5dbd d759 5ebf 4d74 c23e 0722 b6be
00000220: a4aa 6cbe cb65 2ebf a804 acbe c1e6 813b
00000230: d28e 4fbf d612 143f e310 cbbe 96e6 4abe
00000240: f52f 7e3e 588d c13d a82f 383f 5f80 b9be
00000250: b527 c23e c7f0 803c 071a c9bd 330f 6dbd
00000260: a173 0b3f f64d b33e 2ead 023f f0db 27bf
00000270: 0799 913e e475 babd 6d42 003f d658 6d3e
00000280: 3be3 3f3f 38d2 433f 8542 a13e 48a3 21be
00000290: 4826 2b3d 843f 193f de0c 743f 69e3 1bbe
000002a0: 5dee 0a3d 32a1 a2be 2583 09bf 2abb be3e
000002b0: 7afd 293e 9ef3 653f e97c 1f3f 2248 683e
000002c0: 38a4 2e3f 4204 23bf 033a ac3e 4e99 72bf
000002d0: 64d2 223e 8e51 27bf 3347 d93e 4536 7b3e
000002e0: 12dd d5bd 4c90 263d 3ee0 663d 4ca8 e6be
000002f0: 9b8f 933d 119c f4be 8406 3abe c80c dc3e
00000300: af8e 39bf 0aa9 1fbf f25d ccbd 8b26 f83e
00000310: 38a2 babe 1123 003f c1a7 103e 9af8 5e3e
00000320: f1d9 d7be 1038 9cbe 7e3b 023e 5851 743e
00000330: 3e82 4b3e a0f4 743f 8762 0a3f e998 2abe
00000340: de1c 60bf 6645 d2be 6af3 b53e b395 b03e
00000350: b79a 96be 4666 22be f497 4c3e fd52 48be
00000360: 8294 b0be 7ceb 273d ded4 b33e 2f3e 853d
00000370: 9871 cdbe 6ba3 1abe 7a03 8c3e 277b 4cbf
00000380: 8727 81bf bc3f 93be 96fe 623d aef5 383f
00000390: 604b 0ebd 8c2a 90be 7471 15be 591f f1be
000003a0: 5a1f 2fbf 43a9 97bc 7e9e 48bc 39f1 0ebf
000003b0: a488 443f 4b8a e9be 86c3 dfbe d975 fdbe
000003c0: 1d88 043f 0881 243f 9b91 363e 9238 b83e
000003d0: a375 e0bd cbbe 083f 7dd7 033f d7d0 2a3e
000003e0: 5c15 38bf f34b e83d 13c5 3c3f 7da4 353f
000003f0: 7954 bbbe 2169 873d e54e 7cbe a469 80be

lstm.weight_hh_l1 f4 [256, 64]
-0.25712535 0.25254157 -0.42305207 -0.41006884 0.12418728 -0.012575204 -0.05118527 -0.35838127
0.013025426 -0.02159172 -0.21717198 -0.0029467514 0.15190503 0.18323527 0.15604246 0.32145387
0.115074396 -0.42471376 -0.062224522 0.5155461 0.21206988 -0.25399616 0.18347752 0.27401972
0.031961843 -0.42940798 -0.0881629 0.050765377 -0.22061746 0.34031588 0.16255064 -0.1099342
0.08298771 0.39557537 0.019442953 -0.104889035 0.00064623205 0.12228322 0.03551107 0.16225195
-0.32740372 0.082786016 -0.31824094 -0.35878795 -0.17145956 -1.0634818 -0.14589031 0.35385802
0.50144 -0.05925057 0.18929948 0.09854734 -0.8398915 0.078814976 0.2563449 -0.21621458
0.42696452 0.22554849 0.30171952 -0.47032848 0.3112178 0.017875992 0.50816137 -0.33874887
0.76442254 0.33388132 -0.5064408 0.2789126 0.10673962 -0.195105 0.32740477 0.76663715
-0.2950167 0.24257614 -0.36799926 -0.43985397 -0.0072885253 -0.7881042 -0.19661777 0.8812535
0.1322878 0.08441903 0.22179012 -0.3130541 0.08876829 1.1214471 0.0110320365 -0.006710815
0.005549584 -0.06692302 0.07341946 0.2885672 0.35094252 0.37176016 0.34677854 0.50361603
0.09324967 -0.065268055 -0.42266527 0.051069565 -0.08888221 0.3528924 -0.15195894 -0.11105695
-0.42742413 -0.02528368 -0.093971446 0.35551116 -0.44519082 -0.74946016 -0.015637647 -0.42487216
0.2999499 0.23104094 0.21904807 -0.27008203 0.1737086 0.99198866 0.23282318 0.21214099
-0.07348581 -0.58981043 0.22772022 0.38888967 0.42335147 0.09922868 0.52678585 -0.45032746
0.028787652 0.2965532 -0.7231895 -0.02279788 0.68249923 0.22527687 -0.4211319 0.14656414
-0.06752903 0.8635799 -0.41933692 -0.1920404 0.64880997 0.41507408 0.36544836 0.56256986
0.21889521 0.20314008 0.6234501 1.2256768 0.6475156 0.020243544 0.60692036 -0.0070829378
0.001822341 -1.0309381 -0.14626187 -0.061460063 -0.2618195 -0.61309886 0.3768096 -0.42192507
-0.9751354 0.18433926 0.12123917 -0.59788597 -0.2971656 -0.3526742 -0.05465376 0.7951549
-0.47818705 0.23999043 -0.25447384 0.8349196 -0.27015126 -0.3014822 0.7820659 -0.4161885
0.53135383 -0.01675646 0.08577745 0.4543073 -0.68638474 0.790774 0.69206905 -0.33340836
0.15833093 -0.1858731 0.27811822 -1.000708 0.053046826 -0.63787174 -0.08672143 0.7294745
-0.37261662 -0.3332322 -0.6803008 -0.1082773 0.17547417 0.0781659 0.16650009 -0.44468972
-0.0008186977 -0.21556012 -0.88360876 0.30656916 -0.1009593 0.7712052 -0.2260376 -0.10154907
-0.20145173 0.16246733 -0.12116375 0.04772111 -0.08054372 -0.7737103 0.16506808 0.121960096
-0.13159344 -0.54469615 0.3281843 0.19143122 -0.49528393 -0.18579876 -0.18429871 -0.03765724
-0.16045937 0.088686086 0.119785465 -0.42840597 0.30193877 -0.013470602 0.054519713 -0.26969486
0.66823995 0.07260592 0.11123392 0.022171998 0.70061654 0.10687322 0.079201505 0.23469985
-0.15659556 -0.30974278 0.28787905 -0.13855627 -0.43896082 0.113251604 0.11582786 -0.102225214
-0.22515723 0.34987855 -0.034275375 -0.24884704 0.63498646 0.10099467 0.15918516 0.008034622
00000000: efa5 83be 214d 813e 489a d8be 8bf4 d1be
00000010: e755 fe3d 3a08 4ebc a5a7 51bd c07d b7be
00000020: 9968 553c 1ee1 b0bc 5562 5ebe 491e 41bb
00000030: fe8c 1b3e 07a2 3b3e 98c9 1f3e 9a95 a43e
00000040: 20ac eb3d 1574 d9be 24df 7ebd d4fa 033f
00000050: d928 593e c90b 82be 88e1 3b3e 504c 8c3e
00000060: 6cea 023d 5ddb dbbe c08e b4bd 5bef 4f3d
00000070: 8be9 61be e23d ae3e ad73 263e 2f25 e1bd
00000080: 76f5 a93d db88 ca3e d446 9f3c 10d0 d6bd
00000090: e667 293a a06f fa3d 0e74 113d 6025 263e
000000a0: 76a1 a7be b78b a93d 7af0 a2be 0eb3 b7be
000000b0: 1893 2fbe 2c20 88bf 4564 15be e12c b53e
000000c0: 5f5e 003f bab0 72bd b9d7 413e 30d3 c93d
000000d0: 2103 57bf bf69 a13d a43f 833e 5b67 5dbe
000000e0: 189b da3e 2ff6 663e fb7a 9a3e e5ce f0be
000000f0: f157 9f3e ac70 923c dd16 023f 7e70 adbe
00000100: 32b1 433f 7ef2 aa3e 1ba6 01bf a2cd 8e3e
00000110: 4d9a da3d 9bc9 47be 99a1 a73e 5542 443f
00000120: 6e0c 97be e165 783e 666a bcbe 8a34 e1be
00000130: 95d4 eebb 32c1 49bf 2b56 49be d499 613f
00000140: 7476 073e e2e3 ac3d f31c 633e a148 a0be
00000150: 26cc b53d 948b 8f3f b7bf 343c 65e6 dbbb
00000160: 49d9 b53b f00e 89bd f15c 963d 14bf 933e
00000170: bdae b33e 5957 be3e f58c b13e fbec 003f
00000180: aff9 be3d 42ab 85bd 9567 d8be 522e 513d
00000190: e007 b6bd 50ae b43e 209b 1bbe d471 e3bd
000001a0: 56d7 dabe b81f cfbc 1a74 c0bd 8f05 b63e
000001b0: 0df0 e3be 9fdc 3fbf 861a 80bc d888 d9be
000001c0: 0993 993e ff95 6c3e 234e 603e 3148 8abe
000001d0: abe0 313e f8f2 7d3f 3369 6e3e 7d3b 593e
000001e0: ba7f 96bd d1fd 16bf 7d2f 693e 8c1c c73e
000001f0: 86c1 d83e 6838 cb3d 70db 063f 5291 e6be
00000200: 15d4 eb3c d2d5 973e f222 39bf 9fc2 babc
00000210: 45b8 2e3f fbae 663e 9a9e d7be e914 163e
00000220: a94c 8abd 9313 5d3f 54b3 d6be 3da6 44be
00000230: 6918 263f 9784 d43e 0c1c bb3e 9404 103f
00000240: 1126 603e f403 503e 6d9a 1f3f fae2 9c3f
00000250: 95c3 253f cad5 a53c 225f 1b3f fd17 e8bb
00000260: 9edb ee3a c8f5 83bf acc5 15be 8cbd 7bbd
00000270: 350d 86be 0cf4 1cbf 30ed c03e 9006 d8be
00000280: 79a2 79bf 6ec3 3c3e 3e4c f83d 0e0f 19bf
00000290: 1726 98be b691 b4be 9fdc 5fbd 468f 4b3f
000002a0: efd4 f4be 0dc0 753e 654a 82be 4abd 553f
000002b0: 4451 8abe e05b 9abe 7935 483f a916 d5be
000002c0: ce06 083f d844 89bc 16ac af3d f79a e83e
000002d0: e9b6 2fbf 2a70 4a3f 702b 313f 80b4 aabe
000002e0: 8121 223e 8555 3ebe 8365 8e3e 3317 80bf
000002f0: a147 593d 904b 23bf 019b b1bd d7be 3a3f
00000300: 9bc7 bebe 699d aabe 3128 2ebf 7dc0 ddbd
00000310: 80af 333e 7215 a03d 007f 2a3e 5fae e3be
00000320: df9d 56ba cbbb 5cbe 2f34 62bf a2f6 9c3e
00000330: c0c3 cebd b46d 453f 6776 67be f5f8 cfbd
00000340: 5d49 4ebe d65d 263e b324 f8bd 3677 433d
00000350: 1bf4 a4bd e111 46bf 9b07 293e 37c6 f93d
00000360: 6ec0 06be 3571 0bbf c607 a83e 8c06 443e
00000370: db95 fdbe 0842 3ebe cdb8 3cbe 7a3e 1abd
00000380: 764f 24be 0da1 b53d 1552 f53d 0758 dbbe
00000390: b897 9a3e cdb3 5cbc 1050 5f3d 7215 8abe
000003a0: c611 2b3f 6ab2 943d 9cce e33d 0da2 b53c
000003b0: 9b5b 333f 59e0 da3d 6634 a23d 2855 703e
000003c0: 965a 20be 9b96 9ebe e264 933e b2e1 0dbe
000003d0: 79bf e0be 75f0 e73d 2837 ed3d 745b d1bd
000003e0: 9e8f 66be 4823 b33e 5664 0cbd c2d1 7ebe
000003f0: 798e 223f 4bd6 ce3d 6f01 233e a6a3 033c

lstm.bias_ih_l1 f4 [256]
-0.13153763 0.2687377 -0.5723276 0.015575254 -0.25764248 -0.007946588 -0.0047399467 0.045416906
-0.45145926 -0.043745056 -0.48155543 -0.21285734 -0.854148 -0.27529317 -0.056398258 -0.09800036
0.055477597 -0.13266401 0.8868614 -0.3276411 0.2616488 -0.24899097 0.6681585 -0.48298657
-0.18677475 0.081809536 0.20337632 -0.36869138 -0.34160966 -0.19451977 -0.074411914 -0.3559639
0.1456378 -0.113625154 0.21388361 -0.17497072 -0.007828013 -0.21688716 0.04184317 -0.0330702
-0.16231652 -0.24875192 -0.39417937 -0.13135915 0.012728188 -0.16108967 -0.18025823 -0.08237548
-0.39483815 -0.11617578 -0.082724586 -0.20509247 -0.4939337 -0.4501427 -0.14368765 -0.3011457
-0.1480692 0.21239772 -0.16545206 -0.30336484 -0.36422935 -0.4130885 -0.070967846 -0.3535933
0.4106014 -0.06606709 -0.28718987 0.25924614 0.018850375 -0.25548697 -0.11853626 0.12541796
-0.47987452 -0.02291692 -0.47236082 -0.4000002 -0.77868605 0.13191377 -0.24267402 -0.4751959
0.059122562 -0.38402548 0.19553252 -0.041584324 0.31172478 0.10432434 0.34472924 -0.32790264
-0.10883716 0.44972232 -0.18318646 -0.23337017 -0.18011172 -0.10149723 0.24114633 -0.016130725
-0.20061651 -0.47522163 -0.23178421 0.108430415 -0.18791622 -0.1291748 0.3672881 -0.21916603
-0.19651441 0.16967835 0.07469599 -0.1027612 -0.08704664 -0.28523058 -0.29648367 0.12169399
-0.0057206 -0.006577783 -0.17791796 -0.1792995 -0.25534245 -0.2191898 0.14909777 -0.53826404
0.1832565 -0.2683501 -0.11955702 -0.21149857 -0.54242396 0.5170146 -0.13945195 -0.27606708
-0.01735245 0.051722728 0.0033142897 -0.10930307 0.14097868 0.1634192 -0.05542883 -0.16557941
-0.07219251 -0.08463303 -0.023704799 0.04012515 0.078553274 -0.07382299 -0.06467691 0.1118122
-0.27017626 -0.10469283 -0.35751277 -0.13466433 -0.35796434 -0.004440411 -0.5514352 -0.16777027
0.035027932 0.03367917 -0.1508637 -0.12617292 0.24844344 0.29832336 -0.019643726 0.13085465
0.41829023 -0.11021467 -0.3015497 -0.0015080036 -0.042431317 0.06008853 0.010651001 -0.113194995
0.15211754 -0.16224301 -0.13035236 -0.23420557 -0.36789548 -0.03069746 -0.26600263 0.10329324
0.13830842 0.18788335 0.23864676 -0.07509456 0.14433998 0.22964108 0.13718633 0.013613853
-0.065986894 -0.17237489 0.07237518 0.23629378 0.10379828 -0.10502195 -0.04167369 -0.12830389
-0.006867879 0.010142464 -0.4746356 -0.18041866 -0.32207263 -0.085211165 -0.1676006 -0.00910593
-0.5977257 -0.023045251 -0.5142645 -0.28684592 -0.80029696 -0.17392084 0.08393314 -0.35822693
-0.06021596 0.049065255 -0.0043606414 -0.2410436 -0.23718391 -0.016650872 -0.1702661 -0.41002977
-0.154835 0.011420419 0.2545533 -0.18438068 -0.43021107 -0.2119569 0.008259891 -0.20252861
-0.5555808 -0.22179641 0.010468503 -0.13640234 0.052653015 -0.4297475 -0.23321863 -0.11104841
-0.222118 -0.28395736 -0.031121913 -0.14235261 -0.041207094 -0.20087959 -0.26621532 -0.29945737
-0.38737994 -0.4359751 -0.13834402 -0.19265768 -0.2771539 -0.47667223 -0.07952919 -0.30672935
-0.14789046 0.30276987 -0.15366824 -0.4073315 -0.36672503 -0.23026237 -0.07925596 -0.31256574
00000000: cdb1 06be fd97 893e 1084 12bf 5a2f 7f3c
00000010: b7e9 83be 6832 02bc 8e51 9bbb 1407 3a3d
00000020: ab25 e7be 042e 33bd 6f8e f6be 46f7 59be
00000030: 71a9 5abf 3af3 8cbe dc01 67bd 6ab4 c8bd
00000040: 7a3c 633d 13d9 07be 5909 633f 93c0 a7be
00000050: d5f6 853e 7df7 7ebe 6f0c 2b3f 044a f7be
00000060: e141 3fbe c28b a73d e241 503e 1ec5 bcbe
00000070: 76e7 aebe 3130 47be 4665 98bd e640 b6be
00000080: 1322 153e 4eb4 e8bd 4e04 5b3e 862b 33be
00000090: 1141 00bc ab17 5ebe be63 2b3d 9e74 07bd
000000a0: 4d36 26be d3b8 7ebe e1d1 c9be 0383 06be
000000b0: e489 503c b1f4 24be 9d95 38be 7ab4 a8bd
000000c0: 3a28 cabe 91ed edbd 826b a9bd c303 52be
000000d0: e1e4 fcbe 1b79 e6be db22 13be c52f 9abe
000000e0: 749f 17be ca7e 593e 446c 29be a352 9bbe
000000f0: 457c babe 5680 d3be 9757 91bd 2e0a b5be
00000100: 593a d23e 2f4e 87bd 8d0a 93be e9bb 843e
00000110: 1a6c 9a3c 30cf 82be 24c3 f2bd 916d 003e
00000120: 1db2 f5be 44bc bbbc 47d9 f1be d4cc ccbe
00000130: f857 47bf 6714 073e 8a7f 78be e14c f3be
00000140: 802a 723d fd9e c4be ad39 483e 5354 2abd
00000150: 649a 9f3e 00a8 d53d 5a80 b03e dbe2 a7be
00000160: 04e6 debd 0142 e63e 3b95 3bbe 97f8 6ebe
00000170: 356f 38be c8dd cfbd 10ef 763e 9524 84bc
00000180: 6a6e 4dbe 4050 f3be d758 6dbe c410 de3d
00000190: 1c6d 40be 6646 04be 300d bc3e 0f6d 60be
000001a0: 133b 49be 29c0 2d3e 36fa 983d 7774 d2bd
000001b0: 8245 b2bd be09 92be b5cc 97be b33a f93d
000001c0: df73 bbbb 718a d7bb 2030 36be 4a9a 37be
000001d0: 3fbc 82be 4a73 60be 16ad 183e accb 09bf
000001e0: 98a7 3b3e 2f65 89be 50da f4bd 1593 58be
000001f0: 4cdc 0abf 125b 043f 7ecc 0ebe aa58 8dbe
00000200: ba26 8ebc 36db 533d 8e34 593b 4ada dfbd
00000210: b75c 103e 5d57 273e 5709 63bd a68d 29be
00000220: abd9 93bd 1554 adbd 9130 c2bc 455a 243d
00000230: 8ae0 a03d 8230 97bd 5475 84bd cbfd e43d
00000240: 8b54 8abe 3269 d6bd ea0b b7be 72e5 09be
00000250: 1a47 b7be de80 91bb db2a 0dbf f8cb 2bbe
00000260: 7379 0f3d 2bf3 093d 047c 1abe 7933 01be
00000270: f567 7e3e d7bd 983e e1eb a0bc c3fe 053e
00000280: 232a d63e 3bb8 e1bd b964 9abe 34a8 c5ba
00000290: 76cc 2dbd 641f 763d 8981 2e3c c7d2 e7bd
000002a0: b3c4 1b3e 0823 26be 177b 05be 96d3 6fbe
000002b0: cc5c bcbe 3d79 fbbc 7f31 88be 688b d33d
000002c0: b9a0 0d3e 7e64 403e d15f 743e 2dcb 99bd
000002d0: dccd 133e 0827 6b3e 937a 0c3e a30c 5f3c
000002e0: 2324 87bd 0b83 30be 7039 943d fff6 713e
000002f0: 3194 d43d c015 d7bd 08b2 2abd 1862 03be
00000300: f20b e1bb 942c 263c 7003 f3be abbf 38be
00000310: b4e6 a4be 3183 aebd 7e9f 2bbe 0a31 15bc
00000320: 8d04 19bf 65c9 bcbc d7a6 03bf 78dd 92be
00000330: 43e0 4cbf 4e18 32be 23e5 ab3d 8569 b7be
00000340: 03a5 76bd a6f8 483d b6e3 8ebb 22d4 76be
00000350: 57e0 72be 6967 88bc 3d5a 2ebe 6cef d1be
00000360: 118d 1ebe b61c 3b3c cf54 823e 4ace 3cbe
00000370: a044 dcbe 3b0b 59be 7e54 073c a963 4fbe
00000380: 8b3a 0ebf 991e 63be 1684 2b3c 0ead 0bbe
00000390: b0aa 573d dd07 dcbe ddd0 6ebe 596d e3bd
000003a0: e772 63be dc62 91be 62f3 febc e2c4 11be
000003b0: c5c8 28bd 61b3 4dbe 604d 88be 7a52 99be
000003c0: aa56 c6be 2138 dfbe 0eaa 0dbe 0e48 45be
000003d0: 1ee7 8dbe 620e f4be 33e0 a2bd a10b 9dbe
000003e0: 9970 17be a704 9b3e 355b 1dbe c18d d0be
000003f0: 62c3 bbbe e6c9 6bbe f350 a2bd 9e08 a0be

lstm.bias_hh_l1 f4 [256]
-0.115502015 0.055711236 -0.49857664 -0.047543492 -0.3553455 -0.04808047 -0.20652175 0.0660643
-0.6245586 -0.14118406 -0.40493962 -0.13885397 -0.991984 -0.082542546 -0.110889085 -0.24255124
-0.04487124 -0.21681735 0.77634376 -0.282298 0.24761973 -0.27690843 0.80747336 -0.50888854
-0.16944475 0.14344943 0.27315468 -0.43428528 -0.28454727 -0.093352266 -0.0137171205 -0.27592963
-0.06948279 -0.050367806 0.21860698 -0.120417304 -0.010625798 -0.41978472 0.19744556 0.047440864
0.015720062 -0.21937452 -0.20061283 -0.12283699 0.02293554 0.014303685 -0.18749548 -0.1707373
-0.4211766 -0.1050353 -0.038588747 -0.07728204 -0.43064976 -0.30296424 -0.043431804 -0.26464608
-0.17025346 0.24539118 -0.30471373 -0.455278 -0.44646868 -0.397164 -0.029589586 -0.38809752
0.3415852 -0.04790739 -0.3685136 0.118567884 -0.08984829 -0.2245514 -0.10863778 0.0868786
-0.35122994 -0.0628657 -0.6260696 -0.3487342 -0.81097996 0.027022932 -0.26726022 -0.4103147
-0.18276156 -0.52896625 0.4358235 -0.014042552 0.11126331 0.07049636 0.24334583 -0.38325164
0.055467725 0.36544916 -0.077009976 -0.17222543 -0.17092673 0.018454349 0.14595994 -0.0067426753
-0.023349794 -0.29595453 -0.21271859 0.05293526 -0.27143216 -0.14133963 0.28742257 -0.16297819
-0.16328005 0.18913756 0.11805677 -0.2649679 -0.036669966 -0.2912534 -0.29077184 0.045498867
-0.16130069 -0.17056397 -0.36673337 -0.35501796 -0.1984087 -0.24332239 -0.009721495 -0.46139276
0.026710175 -0.26996687 0.037391808 -0.002816903 -0.52112484 0.4896103 -0.09226273 -0.18729548
0.01474155 0.084294185 -0.0016157466 -0.07593466 -0.08844591 -0.033681463 -0.06585966 0.0016464553
-0.13339737 -0.2128152 0.06560801 -0.007549382 -0.022302002 0.033624012 -0.0019593914 0.120384835
-0.20702185 -0.014335452 -0.41380697 0.024023553 -0.20530082 0.12396784 -0.43468335 -0.28284916
0.06993245 -0.035557605 -0.06575494 -0.08927439 0.24861206 0.32560453 0.1298143 0.24941704
0.4470344 -0.12358499 -0.18742262 -0.07662892 -0.02820268 0.0061869253 0.24199203 0.012651199
0.024614107 -0.06285935 -0.083652586 -0.07798176 -0.32152563 -0.19800206 -0.16814439 0.19317053
-0.008140216 0.16259992 -4.7187554e-05 -0.06207128 0.0036405842 0.20646663 0.08476273 -0.13475499
-0.23960751 -0.15617006 -0.043462556 0.16439323 0.1289132 -0.14083534 0.08701418 -0.25920796
-0.07915282 0.03130439 -0.5684251 -0.04180679 -0.21458359 -0.2478377 -0.007315628 -0.024208596
-0.532005 -0.05967313 -0.38678673 -0.15873687 -0.8303134 -0.27524439 -0.0072950344 -0.39834812
0.0034417235 -0.072526574 0.05650165 -0.31764475 -0.273973 -0.07326395 -0.042840708 -0.5761926
-0.13343704 -0.055345915 0.040808722 -0.2964128 -0.52900356 -0.1295791 0.13508464 -0.11548874
-0.44828606 -0.031798065 0.029925913 -0.2982347 0.05227796 -0.55147356 -0.29229644 -0.1516764
-0.13442764 -0.304636 -0.09648928 -0.11898562 -0.15883215 -0.1343521 -0.14469376 -0.32436782
-0.4083495 -0.21309678 -0.085037895 -0.22542357 -0.45038646 -0.53208095 -0.1132785 -0.35887334
-0.16548057 0.23567481 -0.13939223 -0.17484277 -0.47523072 -0.07077046 -0.027764736 -0.37567365
00000000: 528c ecbd 7731 643d 7045 ffbe f7bc 42bd
00000010: d8ef b5be 07f0 44bd 707a 53be b84c 873d
00000020: 13e3 1fbf 8e92 10be 3f54 cfbe bc2f 0ebe
00000030: aaf2 7dbf 110c a9bd d119 e3bd 5a5f 78be
00000040: e8ca 37bd 5e05 5ebe 77be 463f 5d89 90be
00000050: 0790 7d3e f1c6 8dbe 93b6 4e3f 8546 02bf
00000060: ed82 2dbe 68e4 123e eeda 8b3e a45a debe
00000070: 2eb0 91be 792f bfbd c6bd 60bc a646 8dbe
00000080: fe4c 8ebd 794e 4ebd 82da 5f3e 599d f6bd
00000090: d417 2ebc 06ee d6be 2b2f 4a3e 5a51 423d
000000a0: 5cc7 803c b7a3 60be 736d 4dbe f691 fbbd
000000b0: 50e3 bb3c 015a 6a3c d1fe 3fbe c2d5 2ebe
000000c0: 76a4 d7be bf1c d7bd 3c0f 1ebd 0c46 9ebd
000000d0: 207e dcbe 211e 9bbe 8ce5 31bd b17f 87be
000000e0: ec56 2ebe d347 7b3e 7003 9cbe 331a e9be
000000f0: 8b97 e4be 1459 cbbe dc65 f2bc b8b4 c6be
00000100: 41e4 ae3e 8a3a 44bd d1ad bcbe b8d3 f23d
00000110: 6102 b8bd cdf0 65be 7c7d debd 68ed b13d
00000120: 69d4 b3be bbbf 80bd 1946 20bf 4a8d b2be
00000130: 629c 4fbf 325f dd3c 55d6 88be c514 d2be
00000140: d925 3bbe 556a 07bf 4224 df3e bb12 66bc
00000150: 05de e33d 6560 903d a62f 793e 8f39 c4be
00000160: 2032 633d 271c bb3e 68b7 9dbd dd5b 30be
00000170: 6b07 2fbe 932d 973c 8676 153e a9f1 dcbb
00000180: 1148 bfbc 5a87 97be e7d2 59be a5d2 583d
00000190: 28f9 8abe 56bb 10be 0d29 933e c1e3 26be
000001a0: e332 27be 47ad 413e bfc7 f13d dfa9 87be
000001b0: 3f33 16bd 2a1f 95be 0ce0 94be 055d 3a3d
000001c0: 022c 25be 52a8 2ebe 7ac4 bbbe eac4 b5be
000001d0: a62b 4bbe 8129 79be e846 1fbc ac3b ecbe
000001e0: 4ccf da3c 1939 8abe 2728 193d ca9b 38bb
000001f0: 7068 05bf 34ae fa3e 3ef4 bcbd 63ca 3fbe
00000200: 8b86 713c 6ea2 ac3d 76c7 d3ba a283 9bbd
00000210: 2123 b5bd 93f5 09bd 6ee1 86bd dfcd d73a
00000220: 5299 08be 3aec 59be 7e5d 863d ce60 f7bb
00000230: b0b2 b6bc 55b9 093d 2269 00bb 538c f63d
00000240: 89fd 53be 3edf 6abc 82de d3be 0bcd c43c
00000250: 613a 52be dae2 fd3d d18e debe 9bd1 90be
00000260: bf38 8f3d daa4 11bd 87aa 86bd 7ed5 b6bd
00000270: 2994 7e3e a3b5 a63e 0aee 043e 2e67 7f3e
00000280: b1e1 e43e 211a fdbd b7eb 3fbe a0ef 9cbd
00000290: 4f09 e7bc b1bb ca3b c2cc 773e f946 4f3c
000002a0: 86a3 c93c 67bc 80bd 0c52 abbd e7b4 9fbd
000002b0: 029f a4be 0dc1 4abe 0b2e 2cbe 7fce 453e
000002c0: 8a5e 05bc 9880 263e 40eb 45b8 743e 7ebd
000002d0: de96 6e3b fd6b 533e 1598 ad3d 36fd 09be
000002e0: ac5b 75be 0beb 1fbe cb05 32bd b356 283e
000002f0: d201 043e 2437 10be 7e34 b23d e8b6 84be
00000300: e01a a2bd 0839 003d 4f84 11bf 993d 2bbd
00000310: cdbb 5bbe 2bc9 7dbe f0b7 efbb 1b51 c6bc
00000320: 7b31 08bf d06b 74bd e908 c6be eb8b 22be
00000330: 6b8f 54bf d5ec 8cbe 2f0b efbb 49f4 cbbe
00000340: 8a8e 613b d088 94bd 466e 673d 55a2 a2be
00000350: 3046 8cbe 690b 96bd bd79 2fbd 5c81 13bf
00000360: b8a3 08be 66b2 62bd 0c27 273d 6bc3 97be
00000370: c76c 07bf 62b0 04be a153 0a3e 5c85 ecbd
00000380: c085 e5be b03e 02bd 3027 f53c 38b2 98be
00000390: 6a21 563d 5f2d 0dbf e1a7 95be 0f51 1bbe
000003a0: 66a7 09be 40f9 9bbe 2c9c c5bd bcae f3bd
000003b0: e5a4 22be 9993 09be 9a2a 14be 8a13 a6be
000003c0: 3013 d1be 0b36 5abe 5928 aebd 70d5 66be
000003d0: 0e99 e6be 7536 08bf 8ffe e7bd 3fbe b7be
000003e0: bd73 29be bd54 713e d6bc 0ebe fc09 33be
000003f0: 7151 f3be 1af0 90bd df72 e3bc 4c58 c0be
