backend/ai_engine/models/lstm_forecast_model.pth (torch, 206277 bytes, 9 tensors)

lstm.weight_ih_l0 f4 [256, 1]
00000000: 885f 1abe ffbd 043f c1ac 5abd ad6a 2f3d
00000010: df03 8d3b 1a29 21ba b72f 03be da8b c7bd
00000020: 80ea ca3a bece 1dbe cc20 49be 8662 123e
00000030: f659 6bbe f231 efbd 02fb 18be d51d 0d3c
00000040: c5fe 203d cea0 0e3e 696a c13c 5102 26be
00000050: cfbd c0bd 2c6f 1fbe f6f0 ebbb 9929 193e
00000060: ae94 c63d 78fa adbd c1ec abbc 801c 0abe
00000070: 0c88 5a3d a5b2 8ebd 8b37 7bbc 6e4b 28be
00000080: 6247 17be fffb 79bd b53a bbbd b35c e1bd
00000090: e427 28be e764 83bd 8d19 6e3d c00c 1cbe
000000a0: f1f7 f8bd 210a edbc 0c72 87be 06df 013c
000000b0: fe37 e83d 3c24 88be 19ab 1cbd 066a c7bd
000000c0: eeec efbd 6823 c2be 3847 acbb 7fb8 873d
000000d0: a826 a7bd 8d89 f4bd 3625 4ebe ad72 0cbd
000000e0: 912f 053c cdba a5be 5bc9 62be 1942 2ebe
000000f0: 0aa0 5dbe d1ad 49be 57e6 74be 202b 94be
00000100: adc8 d13d dbde d13e a7f8 183e 2347 3fbe
00000110: 6b48 c0bd a73d 3bbe 404a 06be d5aa b13d
00000120: 6dd9 bc3d 84f3 b5bc f2e3 c83d a76a 863c
00000130: b0d4 95bd 178d 953d a90a 2a3d 9de9 abbc
00000140: 2d7c a13c c3ac eb3d 269c e23d a135 19bd
00000150: f767 0bbc 1ee5 faba b021 0dbe f30e b8bd
00000160: 95b8 37bc ef9c 273d 7007 203e 129a 2a3b
00000170: 291c 713e 096a 333e 52bf ea3d 82e3 79bd
00000180: 9f07 f63c aa46 f7bd fe26 df3d 3fac adbd
00000190: 609f 10be 440f c6bd 65d8 cd3d 50cc 13be
000001a0: 832c 0d3d 6db7 d7ba 47af 8d3e 2f6b c1bc
000001b0: a825 8d3d 878f 843c fc27 1dbe 189f 7cbd
000001c0: fdb7 fc3c 50ba e23d 8af6 63bd 34a0 a13d
000001d0: 931c d4bd 634f a5bd 1b98 663d cf23 50bd
000001e0: aa3b 09be bd8b acbc b907 483d 56bc 8eba
000001f0: b458 26bd 8389 8f3d 7b3c b33d c0ba 82bc
00000200: 9dd1 41bc e329 943e cea0 febd 4844 d53d
00000210: d26e 3cbe e4fd 3e3d acbf cbbc 1073 ee3c
00000220: a60a 243d f357 bdbd 08fd 4bbe e2f3 34be
00000230: 41dd e03c f77a c1bd 57c1 733e 5dd2 823d
00000240: f5aa 2bbc 1c5f 17be 388e fd3d 01d3 313e
00000250: 5b75 673e 7421 bb3d d87e b3bd bbe7 f7bd
00000260: 388d 253e 6772 cc3d cf27 0ebd bf70 2a3e
00000270: 1ae0 373e a8a9 3d3e b6a3 67bc 7b2a 4c3b
00000280: 9bbd 25bd 0737 983d 97f9 df3d 7bc8 30be
00000290: 3f6b d43d fc50 9c3c 41ba a7bc 0bc0 823d
000002a0: f783 3fbe e307 173e fa3a 2d3e 6cb7 01be
000002b0: 9c24 e33d a74e 0abe 61f5 5c3d 1631 8cbb
000002c0: 4ef6 003e 2e88 13be 8109 f0bd 59c3 47be
000002d0: 3d07 76bd ab02 93bc f083 12be e5b5 583d
000002e0: 89ff 623d 9aff 66bd b682 04be 852b f43d
000002f0: c62b 123e 8c9d ff3c 6a2e f6bd 1924 193c
00000300: f5f4 9e3d b55b 063f 9f1e 6a3d 21c1 c9bd
00000310: c67e 82bd c8d4 42bd 3c0f 8dbd 8b58 6dbd
00000320: 419d d0bd e749 1cbe f002 30be ae85 983d
00000330: 3a49 edbd 9a27 133d 6f61 723d eab8 a53d
00000340: c5db 16be 51e9 043e 89e9 15bd bc91 023d
00000350: 2daa b9bd cc1b 73be c45c d1bd a566 72bd
00000360: 7206 b83d 6c2f b8bd c82b 0c3e f310 2fbe
00000370: 0079 9b3e 38f5 3f3e 9bd8 e93b 495f dabc
00000380: 4ee5 95bd 0335 9ebd 24a1 ffbd 56cd 8f3c
00000390: 6334 85be 734c e9bd 0c25 acbd ac50 6cbd
000003a0: 9b98 3fbe e30a d1bc 6512 1bbd 82ee 0ebe
000003b0: 7f4d 15be 39a2 60be cd7e 15bd 0390 24be
000003c0: 3818 28be 1a8d 48bc 0a8a 453c 4f99 babc
000003d0: 796e 55be 0484 5ebe 3bdf 7cbd 3da6 ebbd
000003e0: ff18 eabd 0946 68be 95e7 2fbd 372d d43d
000003f0: 72a5 b1bd a25e 69bc 74ac 4b3b 5505 98bd
-0.15075505 0.5185241 -0.053387407 0.042826343 0.00430344 -0.0006147787 -0.1281117 -0.097434714
0.0015481263 -0.15410897 -0.19641417 0.14295396 -0.22983536 -0.11679448 -0.14939502 0.00861307
0.039305467 0.1392853 0.02361031 -0.16211821 -0.09411203 -0.15569752 -0.0072003556 0.14957274
0.09696327 -0.08495039 -0.020986916 -0.13487434 0.0533524 -0.069676675 -0.015333067 -0.16435024
-0.14773324 -0.061031338 -0.09142057 -0.11004009 -0.16421467 -0.0641573 0.058129836 -0.15239239
-0.12156666 -0.028935494 -0.26454198 0.007926708 0.11338805 -0.26590145 -0.03824911 -0.09737019
-0.117151126 -0.37917638 -0.0052575134 0.06626987 -0.0816167 -0.11940298 -0.20131382 -0.03428905
0.0081290165 -0.3236908 -0.22147124 -0.17017402 -0.21643081 -0.19695212 -0.23915993 -0.28939152
0.10243354 0.40990338 0.14938603 -0.1867948 -0.09388813 -0.18285237 -0.13114262 0.08675162
0.09221158 -0.022210844 0.09809102 0.016408278 -0.073159575 0.073023014 0.041514073 -0.020985419
0.019712532 0.11507561 0.11064939 -0.03740466 -0.008508674 -0.0019141769 -0.13782382 -0.08987226
-0.011213441 0.040921148 0.15627837 0.0026031774 0.23545898 0.17520918 0.11462273 -0.061007984
0.03003293 -0.12074025 0.10896109 -0.08480119 -0.14123297 -0.096708804 0.100510396 -0.14433408
0.034466278 -0.0016457863 0.27672789 -0.02361068 0.06891948 0.01618172 -0.15347284 -0.06167516
0.030849451 0.110706925 -0.05565504 0.078918844 -0.103570126 -0.080717824 0.056297403 -0.0508154
-0.13401666 -0.021062726 0.04883549 -0.0010889869 -0.040611938 0.0700865 0.0875177 -0.01595819
-0.011829761 0.28938207 -0.12433015 0.10413414 -0.1840165 0.046628848 -0.02487167 0.0291076
0.040049218 -0.092452906 -0.19920743 -0.17671159 0.027449252 -0.09447282 0.23804222 0.0638778
-0.010477771 -0.14782375 0.12380642 0.17365648 0.22603361 0.0913724 -0.08764428 -0.12104746
0.16167152 0.09982758 -0.034705933 0.16644572 0.17956582 0.1852175 -0.014138153 0.003115325
-0.040464025 0.07432371 0.10936277 -0.17263977 0.10372018 0.019081585 -0.020474555 0.063842855
-0.18702684 0.14749102 0.16917029 -0.12667626 0.11090967 -0.13506566 0.05394495 -0.0042783124
0.12593958 -0.14407417 -0.11720563 -0.19508113 -0.060065497 -0.017945608 -0.14308143 0.052907843
0.05541948 -0.056396104 -0.12940487 0.11922363 0.1427451 0.031203054 -0.120205715 0.009346985
0.077615656 0.52483684 0.05715811 -0.098512895 -0.06371836 -0.047566205 -0.06887671 -0.05794577
-0.10186244 -0.15262567 -0.1718862 0.074473724 -0.115862325 0.03592644 0.05917495 0.0809191
-0.14732273 0.12979628 -0.03659967 0.031877264 -0.090656616 -0.23741072 -0.10222772 -0.05917992
0.08985604 -0.0899342 0.13688576 -0.1709631 0.30365753 0.18745887 0.007136417 -0.026656764
-0.07319127 -0.07724955 -0.12481907 0.017553966 -0.2601653 -0.11391535 -0.08405504 -0.057694122
-0.18710558 -0.025517887 -0.03785934 -0.13958171 -0.14580344 -0.21936883 -0.03649788 -0.16070561
-0.16415489 -0.0122406725 0.012056837 -0.022778181 -0.20842923 -0.21730047 -0.061736327 -0.11506317
-0.11430549 -0.22682966 -0.042945463 0.103601865 -0.08674134 -0.014243754 0.0031078132 -0.07422892

lstm.weight_hh_l0 f4 [256, 64]
00000000: 61a2 91bd 8257 d43e f57b c3bd 1a8c 043e
00000010: 2f47 2cbd 8503 dcbc 808c 52bd ec94 8abd
00000020: bcfa fb3c bbd8 c2bd 56d4 573d a2b9 06be
00000030: 09da 003b 5e26 b5bc 95b7 523c 8d78 eebc
00000040: 50f5 78bd c9c7 c6be 4f3b f3bd 5f55 b53d
00000050: f696 8a3e 068d bdbc 5f7c d6bc bf91 24be
00000060: 85f1 f33d 7a19 96bc 89ca 043e cf77 50bd
00000070: cbd1 843b c67f b23e 197b 97bd ab36 de3d
00000080: b144 eabd 95b6 ca3d d5bd c93c 2906 13bc
00000090: 5b9b 5fbd cbf6 9abc 92cb efbd 37bc 0cbe
000000a0: 4661 cebd 64ab 47bc e87b d53c 1e37 22be
000000b0: decc 613d 2d9b 95bd 2804 523d f357 15bd
000000c0: c90d fb3d 07ea 19bd a517 12bb 2de3 0bbe
000000d0: 3709 00bd de50 173e 87c7 a6bc ac2a d1bd
000000e0: 6224 bcbd 9b2a 663d 8389 bebd 40e2 18be
000000f0: cfab 15bd d008 9abd a741 313d d2c1 4b3e
00000100: 9e5b d2bc 9a77 433e 64d9 34be d1b3 893d
00000110: ae1f b2bd 0d0d 9bbc 9981 32be 2c21 5cbe
00000120: 336d 9ebe 5051 a6be 5953 b73d 303f 82be
00000130: 45be 7e3e 5b2a 9a3e 8f64 1a3d 7999 623d
00000140: e170 93bd 413f 9a39 fb30 a03e cd2f 58bd
00000150: 6265 33be 3741 ff3e 4fcd 8ebe 89de c4be
00000160: 76ee 953e dbc1 c53e 0a61 35be 463d 813e
00000170: 52f0 cd3e 20e5 573e caca dc3c 84c2 6bbb
00000180: 1203 a7be c460 0b3e b754 853d 2cc6 a0bc
00000190: b627 843c f812 23bd 7583 763e dcaf 13be
000001a0: 952c 76be dec2 993c c7a5 843e 2fd3 34be
000001b0: ee79 ac3e 3f61 74bd 858d 95bc 4e55 353e
000001c0: a2fe a63e 3a33 59be 65b2 e43c 1ccc 1ebc
000001d0: 9eab 913d fc3f b4bd bff6 843e e7ec 713d
000001e0: c395 f73d 5445 5b3e 325d bf3d 4740 b83d
000001f0: e0e5 37bb e683 8ebe 50a9 57be 2510 4f3e
00000200: f850 c9bc a2b1 d73d 2383 f3bc a3b6 5e3d
00000210: 3439 b23d 52f8 36bc 6693 313d 04b4 29bd
00000220: 2367 b6bd fb7f 223d d4e4 7d3d 4221 f1bd
00000230: 0e7f d6bd fafd ec3d ce33 543d 6a71 9a3d
00000240: 4c72 1ebb 4883 aabd 09c8 73bd 636d edb9
00000250: e7d7 bfbd 9101 fabc eb56 a03d de75 12be
00000260: 6f64 483d 9621 4c3d 6f56 1abd d5cc d93b
00000270: 0da6 26bd d908 823c 51c7 44bd b07e f0bc
00000280: ed90 e33b f6a3 ecbd b7a6 0dbc 4044 e3bd
00000290: 2952 ebbd 462b 783c a317 83bd 3b1a 663d
000002a0: c088 50bd 6429 b23d b329 423d 53bc aebb
000002b0: 2f7a edbd 7d08 f6bb 344a 26bd 752d ca3d
000002c0: ce86 9abc 3778 23bd 9bba 1abd 38b9 d5bd
000002d0: 97f6 ae3d 0abf 06bd 14a9 29bd 53cb 9e3d
000002e0: 9429 9d3d ca02 01be d025 e23d b06a 513d
000002f0: 0352 513e 06f1 b4bd 5aa0 b53c 80a7 ff3d
00000300: cf57 1cbd fe0f 0b3f 1db8 c63d b37f 85bb
00000310: dce0 25be 235b 953d 74d5 91bd 221a a43d
00000320: a14f d63b c83c a9bd 8c50 93be bb1a 313d
00000330: c105 a7bc 2fe8 5abe 93d0 1c3f 8d18 85bc
00000340: 181b 7bbd f58b 0cbf 2a60 e5bc 9eab 063d
00000350: ccb1 9a3e 18eb c03c 6466 04be 26c4 ccbd
00000360: d0a6 86bd 8c8a 253e f718 b8bd feb2 293e
00000370: 9f5c 933e d630 e03e e298 45be 6fcf ecbc
00000380: 34de 5bbd d84a 963d 4038 3e3e 87fb 803c
00000390: cf44 ce3d 56c6 b7bd dbe7 84bd 960a 16bd
000003a0: bc32 b6bd d1d1 9b3d 373a d83d 1ab8 13bd
000003b0: 27f2 0f3e 3f51 8e3d b64f 173e 702f bfbd
000003c0: 3447 d1bd f2e5 a2bc f197 c9be fab1 383d
000003d0: 5ab0 09be be36 2f3e 888e cabc 1667 3d3d
000003e0: 4517 ff3c d1a5 9dbd 2e3d 2cbe ad79 a9bc
000003f0: 4d32 afbd ef71 393e 82fc aabe 41b6 f93d
-0.071110494 0.41473013 -0.09545127 0.1294407 -0.042060073 -0.026857147 -0.051403522 -0.06766686
0.030759208 -0.09513994 0.052692734 -0.13156751 0.001966121 -0.022113021 0.012861152 -0.029110217
-0.060780823 -0.388243 -0.118765466 0.08854174 0.270683 -0.023138534 -0.026182352 -0.16071223
0.119113006 -0.018322695 0.12967886 -0.05089551 0.0040533296 0.34863108 -0.07396526 0.10850271
-0.11438883 0.09898106 0.024626652 -0.008973637 -0.054591518 -0.018916508 -0.1170875 -0.13743673
-0.10077147 -0.012186859 0.02606006 -0.15841338 0.055127017 -0.07304988 0.051273495 -0.036460828
0.12258489 -0.0375767 -0.0022291925 -0.1366088 -0.031258788 0.14776942 -0.020358814 -0.10213217
-0.09186627 0.056192975 -0.09303572 -0.14930058 -0.036540803 -0.07521212 0.0432755 0.19898155
-0.025678452 0.19088593 -0.17661053 0.067237504 -0.08697449 -0.018927122 -0.1743225 -0.21497029
-0.30942687 -0.32483912 0.08951444 -0.25438833 0.2487727 0.3011044 0.037693556 0.055322144
-0.07199264 0.00029420297 0.3128737 -0.05277996 -0.17519143 0.49854442 -0.27891013 -0.3845103
0.29283494 0.38624462 -0.17712799 0.2524206 0.40222412 0.21083498 0.026952166 -0.0035974095
-0.3261953 0.13611132 0.06510299 -0.019625746 0.016132217 -0.039813012 0.24073584 -0.14422554
-0.24040444 0.018769678 0.25907728 -0.17658685 0.33686775 -0.059663054 -0.018255958 0.17708322
0.32616144 -0.21210948 0.027917096 -0.009692218 0.071128115 -0.088012666 0.25969502 0.05906382
0.12089112 0.21413165 0.093439475 0.08996635 -0.00280606 -0.27835006 -0.21060681 0.20221002
-0.024574742 0.10531928 -0.029725617 0.054373395 0.08702317 -0.011167603 0.04335346 -0.041431442
-0.089063905 0.039672833 0.061985806 -0.117739215 -0.104734525 0.1157188 0.051807217 0.07541163
-0.0024177013 -0.08325821 -0.05951694 -0.00045285662 -0.09367352 -0.030518325 0.07829078 -0.14302775
0.048923906 0.049836718 -0.037680086 0.0066467323 -0.040685702 0.01587336 -0.048041645 -0.029357284
0.0069447667 -0.115547106 -0.008645705 -0.11097002 -0.1149028 0.015147036 -0.06400993 0.05617736
-0.050911665 0.08699301 0.04740305 -0.0053325086 -0.1159557 -0.007508336 -0.04059811 0.098719515
-0.018863108 -0.039909568 -0.037775617 -0.10435718 0.08543127 -0.032897033 -0.04142101 0.07753625
0.07673946 -0.1259872 0.110423684 0.051127136 0.20441441 -0.08835034 0.022171188 0.1248312
-0.03816968 0.5432128 0.097030856 -0.004074061 -0.16199058 0.072927736 -0.07120791 0.08012797
0.006540254 -0.08263546 -0.2877239 0.043238383 -0.020388486 -0.21377634 0.6125576 -0.016247058
-0.061305135 -0.5490106 -0.027999956 0.03287851 0.30213773 0.023549601 -0.12929684 -0.0999835
-0.06574786 0.16166133 -0.08989137 0.16572186 0.28781602 0.4378726 -0.19296601 -0.028907506
-0.053678706 0.07338494 0.18576145 0.015744938 0.10071718 -0.089733765 -0.064895354 -0.03663119
-0.088963956 0.07608379 0.105579786 -0.036064245 0.14057218 0.0694909 0.14776501 -0.0933522
-0.10218659 -0.019885037 -0.39373735 0.045091607 -0.13446179 0.17110726 -0.024726167 0.04624089
0.031139025 -0.076976426 -0.16820213 -0.020687902 -0.08554516 0.18109868 -0.33395773 0.12192965

lstm.bias_ih_l0 f4 [256]
00000000: 7107 e8bb 4f71 0a3f a047 8ebd b8ea 7c3b
00000010: 65c7 43bc cac4 9b3d 7c99 8d3d cea6 303d
00000020: 68dd 24be f084 a83c 4759 ad3d 126d 86bd
00000030: 573e 963d 6a38 24bd 7473 3f3e eba5 5cbd
00000040: 2b38 d33d ddbd 2f3e 262f 113c 9176 2fbc
00000050: 1f45 403e 0440 3abe a224 813d ed6b 71bc
00000060: 6fbc ca3d 4a9d 873b 4695 8f3d 4ba8 90bc
00000070: 873a b13e bb33 0d3e 0b74 bebc 2b1b 89bd
00000080: d43a ee3d 1248 0f3d 65d3 b9bd 6ea8 7ebd
00000090: d3bd b0bd 71e2 1b3d 2e13 79bb e15e f4bd
000000a0: 7af1 06bd c742 11bd 361f e93d 7ed7 dcbd
000000b0: 317f 97bd b93b c1bc a6f0 28be 554f e4bd
000000c0: a6a5 5dbd 9e74 88bd 6c05 9c3d 362f f33d
000000d0: 9b7e 023e 2471 0ebe 9519 b83d 873b 02bd
000000e0: dcc6 84bd 642a cabd 292b c23a 0992 5e3d
000000f0: 4fad 6bba 8899 7fbd b2b7 0cbd 887e 123c
00000100: 3c1a d8ba f4fb 3a3e e796 a8bc c9db 073e
00000110: 2248 a33d cffa 223d 90b6 243e 45e0 eb3d
00000120: ed1a 933d 2ed4 90bd f67b 39bc eb87 843d
00000130: 7925 f8bd 0301 033e 5497 42bd 5b95 b73c
00000140: 5027 99bd f666 af3d 75be a6bd 9692 043e
00000150: 6c34 1d3e 3155 18bc 247e 5ebd b175 46bd
00000160: 88b5 a63d 2e93 8d3d 74c2 bd3c 096b 97bd
00000170: 5e84 553d 8924 41bb 5207 d13d 9aed 4f3d
00000180: acb2 003e 64a3 b23d 4cd1 49bd 00d2 3abd
00000190: bbc3 383d a047 223c ec80 0a3d 3616 8abd
000001a0: e176 263e c125 cabd e4d0 6ebd 5bc9 473d
000001b0: a6c2 02bd ea3b e2bc 7191 dfbd c58f 04be
000001c0: 9a24 54bd 3e95 21be 99e9 38bd 2fdf 2f3c
000001d0: 0e57 033e 01ae 503d 441e 213e fb40 d03d
000001e0: bd60 c1bd ea07 d1bd 8b95 a1bd acc6 753e
000001f0: aed1 41bd c6f2 83bc 1aaa ce3d e9a9 f43d
00000200: 3eaf 9abd 5803 04be 39fd c63a 09d5 023e
00000210: e208 4c3c ff6a 083e 9aa2 d2bd acef f7bd
00000220: 9e37 5cbc d956 b0bc cec1 e73d b180 febd
00000230: 5112 24be a861 0d3e b9b5 01be a7cc 5cbc
00000240: d9ca b4bd 4275 1f3d c027 c33c 4c21 09be
00000250: 1433 41be af04 81bd 2d52 aebd 35c1 1abe
00000260: 6270 01bd 51d9 0ebe a893 b43c bd1e b03d
00000270: b15b bebd fbcc 753c 0c3a 1b3e 1a2c 04bc
00000280: d179 92bc 7e86 183e a149 ee3b 14e4 3a3d
00000290: b710 8bbd b5cd b8bd 6def 273d ac37 20be
000002a0: cbf2 21bb 6095 5abd 5e85 5bbd e7ea 80bd
000002b0: f4a4 763b 4eb1 8cbd b0f6 04bd 7851 a43d
000002c0: 84a2 f03c d467 f43d 6535 bd3c 1b2c dabc
000002d0: 6b5e d23c 5c8d 3c3d 4c0d 203e 4120 a3bd
000002e0: d556 0d3e 4235 4ebb 2ff9 6a3d 9e35 15be
000002f0: 8cdf 88bd 7f6b 893d c134 4b3d 66d2 563c
00000300: a1e8 eabd 8ed3 093f eb30 493d 55e5 193d
00000310: 82bf adbd 210b bebd 1f7c 73bc 70ae b93d
00000320: ded3 7ebd 996c 843c 13f8 abbc 4ff0 153e
00000330: 1109 83bd b96b 013c c9e8 f33d 72e5 aebd
00000340: f57c 95bc f8fe a33e ef67 1ebd 5be2 b8bb
00000350: c915 cf3d 4dc7 d5bd 258d 473c 900c 0c3e
00000360: 6ce0 5ebc 5265 8bbd 6246 02be b1e6 47bb
00000370: 9ca5 363e 4d24 fd3d 2f50 f4bd e9de 6b3d
00000380: 966f adbd 6b0e 91bd 3b0b 7dbd 7b1e f43d
00000390: 5035 0fbe 1fa0 013e bb88 a53d 56fe 86bd
000003a0: 5096 443d 8536 bc3d 93ac 653e 55f6 d63d
000003b0: 1696 50bd 97ac 053d 0d46 51be 8c2f 96bd
000003c0: 38d2 36bc ec3b 1cbe 964d 12bd e288 c5bd
000003d0: 3499 2c3b 1bae aebd 8416 c2bb 4ee1 a93d
000003e0: 8faf 64bd 8f2f a7bc e3f2 6ebd 2718 7b3e
000003f0: a968 b53d 4685 99bd 3b84 10be ed35 0cbd
-0.007080965 0.54079145 -0.06947255 0.0038592052 -0.011949395 0.07605894 0.069140404 0.043127827
-0.16100085 0.020571202 0.08464294 -0.06563772 0.07336109 -0.040092863 0.18696386 -0.05386917
0.103134476 0.17162271 0.008861339 -0.010709421 0.18776368 -0.18188483 0.06305815 -0.014735204
0.09899222 0.0041386234 0.070108935 -0.017658373 0.34614965 0.13789265 -0.023248693 -0.06694635
0.11632314 0.03498084 -0.090735234 -0.062172346 -0.08629956 0.03805775 -0.0038005817 -0.11932159
-0.032945134 -0.035464074 0.11382906 -0.107832894 -0.07397307 -0.023588048 -0.1649805 -0.11147944
-0.054113053 -0.06662868 0.07618222 0.11874239 0.12743609 -0.13910347 0.089892544 -0.03179505
-0.06483242 -0.098713666 0.0014813888 0.05433849 -0.00089903636 -0.06240228 -0.034354873 0.0089413
-0.0016487311 0.18260175 -0.020579768 0.13267435 0.079727426 0.03978997 0.16085267 0.115173854
0.0718287 -0.0707172 -0.0113210585 0.06471237 -0.12116522 0.12793355 -0.0475076 0.022410085
-0.074782014 0.0856456 -0.081417955 0.12946543 0.15352029 -0.009297655 -0.054319516 -0.048452083
0.08140093 0.06912838 0.023164012 -0.07393462 0.05212819 -0.002947124 0.10206474 0.050763704
0.12568158 0.087225705 -0.049271867 -0.045610428 0.045108538 0.009904772 0.033814356 -0.06742518
0.16256286 -0.09870482 -0.058304682 0.048776012 -0.031923912 -0.02761646 -0.109164126 -0.12945469
-0.05179272 -0.15779588 -0.04514465 0.010734363 0.12826177 0.050947193 0.15734202 0.10168644
-0.094422795 -0.102065876 -0.07889851 0.24001569 -0.047319107 -0.016106974 0.10091038 0.1194647
-0.07552956 -0.128919 0.0015181667 0.12776579 0.01245329 0.13322066 -0.1028492 -0.12106261
-0.013440995 -0.021525787 0.11316262 -0.1242689 -0.16022612 0.13806784 -0.12666978 -0.013476527
-0.088277526 0.038930185 0.023822665 -0.13391608 -0.18867141 -0.062997214 -0.085117675 -0.15112765
-0.031601317 -0.13950087 0.022043064 0.08599613 -0.092948325 0.015002484 0.15158862 -0.008067155
-0.017880352 0.14895055 0.007271961 0.04562767 -0.067902975 -0.090236105 0.04099982 -0.15646237
-0.0024711366 -0.05336511 -0.053593986 -0.06294804 0.003763494 -0.06869756 -0.032461822 0.080233514
0.029374368 0.11933866 0.02309675 -0.02663236 0.025679788 0.04603325 0.15630072 -0.07965136
0.13802655 -0.003146485 0.057366546 -0.14571235 -0.06683263 0.067099564 0.049610857 0.013111686
-0.11470152 0.5383843 0.049118917 0.037572224 -0.08483793 -0.092794664 -0.014861136 0.090664744
-0.06221377 0.016165065 -0.020992314 0.14642452 -0.06398214 0.007899218 0.119096346 -0.08539857
-0.01824806 0.32030463 -0.038673338 -0.005642218 0.10111577 -0.10438404 0.012179648 0.13676667
-0.013603311 -0.06806435 -0.12722161 -0.0030502493 0.17836612 0.123604394 -0.11929356 0.05758563
-0.08468549 -0.07082828 -0.06177829 0.11919876 -0.13985181 0.12658738 0.0808272 -0.065914795
0.04799491 0.09190086 0.22429113 0.10496203 -0.050924383 0.032635298 -0.20436879 -0.073332876
-0.0111585185 -0.15257233 -0.035718523 -0.09645249 0.0026336433 -0.08529302 -0.005923094 0.082949266
-0.05583149 -0.02040842 -0.058337104 0.24520932 0.08857853 -0.07496123 -0.14112942 -0.034231115

lstm.bias_hh_l0 f4 [256]
00000000: 2f6d 4bbc 2b15 f13e f0bb c3bd 749f 88bd
00000010: 79a9 3d3d ee5a d93d 2438 b5bd 3580 f93d
00000020: 3ffe c4bc dc11 cd3d da41 053d d6cd ac3c
00000030: bbb0 783c a880 543b 37e6 e23d cd93 3c3c
00000040: 2e52 d2bb e345 103e 3d15 46bd 179a 7cbd
00000050: 807d cb3d fb6f 03be 8655 e1bd 3a3e 333d
00000060: d649 9dbc 1c39 02be 15f1 693d 44a6 42bd
00000070: 9180 a13e cafa 123b 047a 43bd cf07 e4bd
00000080: aa6a ba3d 2331 793d 79c2 063c 70ba aebd
00000090: 8bc3 963c e7cd f3bc a037 1abe f866 e5bd
000000a0: 78ce 513c 1b46 463c 1ad7 673d 14c7 b73b
000000b0: 4f55 4dbe 0b47 613d fec8 34be 4023 03be
000000c0: bdcc 22bc 5da0 36be 908b c13d 81a4 25bd
000000d0: 85d9 90bc 0e22 b8bd fcbd c23c 907d 75bd
000000e0: 39dd 2b3d f666 a6bd 59de f93c 25c8 4dbc
000000f0: 2e9b 193d 2d8c b13d 6ad4 99bd c82d 3cbd
00000100: 9d69 b33d 2ec0 283e 4bd6 b93d ca39 423c
00000110: 86cb c63d d74e 583d 5cc4 093e 79e1 233d
00000120: eda1 ce3d 7e6c a2bd 9ec5 8ebd 9883 70bd
00000130: 21b5 123d 8e54 ac3d bd21 8dbd 6195 c03d
00000140: 8e62 90bd 3efb 8abc c70b b23d 0e76 103d
00000150: 14ed 983d e033 e23c c64a cf3d 110c ce3b
00000160: 9096 e83d 7afa 2e3d 759f 36bd 26d4 7ebd
00000170: a0e0 613e 3c1d b7bd db50 403d 61ac 593c
00000180: 04b5 b6bd 6c31 ae3d 2830 06be dc5e e13d
00000190: e447 41bc 7101 0a3e d243 82bd 0a6f 8fbd
000001a0: 5cc3 b03d 9fda 07bd 69b9 973d b1b4 993d
000001b0: d8c9 50bd 1c1d b3bd 7de4 bd3c 9294 583d
000001c0: 6cfa 7abd 141e 8b3d 40c0 2dbb faf1 e03c
000001d0: c7c8 cb3d 8d71 c13d 3d0e 60bd c215 9e3d
000001e0: 31b0 8cbd 5a56 debd 7129 133e 2783 713d
000001f0: 0fa4 e43d 0826 bf3d 7836 e3bd 83c5 9e3d
00000200: 4f94 40bd 7c27 a8bc e062 af3d d1f1 7b3d
00000210: 5915 403d 4e76 d63d f125 84bd aec3 d6bd
00000220: 0c62 ee3a 2bf6 25bd f33f 3bbc 19e5 8cbd
00000230: 5314 063d 2088 863d 6676 22bb b128 4f3d
00000240: 8804 febc 2db0 123e fac7 f73c 6d9d 25be
00000250: 8d12 16bd 400d 65bd 1874 83bd f5c3 7c3d
00000260: 2653 ab3d 6ff5 8e3d 3a46 083d e371 9abd
00000270: ff6d 00be fd0a c7bd a80f 25bd 41aa a73d
00000280: 4fcc d7bd 7336 013e d069 febd 502e 0dbd
00000290: 83f3 adbd 3e12 1cbe 5b17 d73b a737 d3bd
000002a0: 6517 b53d 2075 13be f354 19be 7d50 903d
000002b0: 063d 083c 9e3b cf3d c612 3c3d bcf6 063e
000002c0: e0df ceba b101 12bd 8c3c d93d d2bc 673d
000002d0: 2c4a 2d3e 32b4 663d 50ee 243e 59a7 093e
000002e0: 9990 ba3d 7e5e f83d a189 0d3e 1062 cbbd
000002f0: 7770 1fbe 5c43 13be 9dc2 513d 9a2f b13d
00000300: df8c cd3b ea34 bc3e 3b70 8d3d 7766 49bd
00000310: fb91 053c 4f81 93bc 5cca ad3c 423d cf3d
00000320: 5888 b6bd 60a5 ad3d 46d2 e03d a267 b13d
00000330: e683 99bd 50e6 133d b853 1b3e 6813 b63d
00000340: 6a22 a6bd 96f0 9f3d 9e35 e63d 0e0b 4c3d
00000350: 5f08 073e c262 36be aae4 e53d cdbb c43d
00000360: c77d 8e3d 3aa6 a7bd 3760 5f3d 8b14 373d
00000370: 4027 753e 4111 b93d 67bf 06be dfec 93bd
00000380: 49bd 6a3d 2799 dbbd aa4b 71bd 2804 003d
00000390: 908b ccbd ffb6 1d3e 7b77 cabc b484 403d
000003a0: ccef 60bd dd45 883d 000c 2f3c 0b9b 1fbd
000003b0: de19 a5bd 201c d93c 73d6 debd 2c43 893d
000003c0: 5278 e2bd 45c1 813d 4d9e c3bd 303a eb3d
000003d0: 8207 d0bd dcc7 c5bb 3b57 fcbb 027f f2bc
000003e0: 210b fabd 124d 22be 27cc 26bd 7d45 473e
000003f0: c30d 223c 7243 743d 87e9 f5bd db6c 51bd
-0.012416168 0.47086462 -0.095573306 -0.06671038 0.0463042 0.106130466 -0.088485986 0.12182657
-0.024047015 0.10013172 0.032533504 0.021094244 0.015178855 0.0032425318 0.11079066 0.011509848
-0.006418488 0.1408916 -0.0483601 -0.06167039 0.099360466 -0.12835686 -0.110026404 0.043760516
-0.019200247 -0.12717098 0.05711468 -0.047521845 0.315434 0.0022427314 -0.047723785 -0.11134302
0.09102376 0.060837876 0.008225077 -0.08531654 0.018403789 -0.029761268 -0.15060282 -0.1120128
0.012805574 0.012101675 0.05660162 0.0056084488 -0.20052074 0.054999392 -0.17654797 -0.12806416
-0.009936509 -0.17834611 0.094504476 -0.040440086 -0.017681846 -0.089908704 0.023772232 -0.0599342
0.04195902 -0.08125107 0.030501531 -0.012559925 0.037501507 0.086693145 -0.07511218 -0.045942098
0.087603785 0.1647956 0.09074076 0.011854598 0.09706788 0.052809563 0.13453811 0.04000995
0.10089479 -0.079308495 -0.06971286 -0.058719248 0.03581727 0.08414565 -0.06891201 0.09403492
-0.07050048 -0.016965505 0.086936526 0.035268836 0.07467094 0.027612627 0.10121684 0.0062880595
0.113568425 0.04271934 -0.044585664 -0.06221404 0.22058344 -0.08941123 0.04695211 0.013285727
-0.08921245 0.0850552 -0.13104308 0.11004421 -0.011796925 0.13477112 -0.06360592 -0.07003601
0.08631012 -0.033167478 0.07408411 0.07505167 -0.050973743 -0.087457865 0.02318024 0.052876063
-0.061273977 0.06792846 -0.0026512295 0.027459133 0.099504046 0.09445486 -0.05470108 0.07718994
-0.06869543 -0.10856314 0.14371277 0.058962967 0.11164104 0.09333426 -0.110943735 0.07752516
-0.047016438 -0.02052664 0.08563781 0.06150991 0.04689536 0.104717836 -0.06452549 -0.10486542
0.0018187179 -0.040517967 -0.011428821 -0.068796344 0.032734226 0.065689325 -0.002478981 0.050575916
-0.03100802 0.14325018 0.030246723 -0.16173334 -0.036638785 -0.05592084 -0.064186275 0.061710317
0.08365469 0.069804065 0.0332701 -0.075412534 -0.1254196 -0.09718893 -0.040298134 0.0818677
-0.10537016 0.12618427 -0.12422526 -0.034467995 -0.08493712 -0.15241334 0.0065640635 -0.10313349
0.08842353 -0.14400148 -0.14973812 0.07046602 0.00831533 0.10118793 0.04591634 0.13180059
-0.0015783273 -0.035646144 0.106072515 0.056576557 0.16922826 0.05632419 0.16106534 0.13442744
0.09109611 0.12127398 0.13822033 -0.09930813 -0.15570246 -0.14381164 0.05121099 0.086516574
0.0062728967 0.3675912 0.06906172 -0.049169984 0.00815248 -0.018005995 0.021214657 0.10119106
-0.08912724 0.084788084 0.109776065 0.086623445 -0.07495861 0.036108315 0.15168655 0.0889042
-0.08112033 0.0780956 0.112406954 0.04981523 0.13186787 -0.1781111 0.11225255 0.09606133
0.06957584 -0.08186002 0.054535117 0.044697326 0.23940754 0.09036494 -0.13158952 -0.07222914
0.057309423 -0.10722571 -0.05891005 0.031253964 -0.09987557 0.15401839 -0.024715176 0.047001556
-0.054916188 0.0665395 0.010684013 -0.03896622 -0.080615744 0.026502669 -0.10880747 0.06702265
-0.110581055 0.06335691 -0.09551678 0.11485708 -0.10157682 -0.006035788 -0.0077008284 -0.029601578
-0.12209154 -0.15849712 -0.04072204 0.19460101 0.009890976 0.059634633 -0.120074324 -0.051129203

lstm.weight_ih_l1 f4 [256, 64]
00000000: 1332 bfbc a4e9 1abe da3f a3bd e870 c33d
00000010: f745 e5bc 9c19 bbbd f6ab 773d 07c4 4abc
00000020: 72ac d9bd b079 e03d 7a8e 0bbd 9a06 bbbd
00000030: 941e d93b 69d2 273d 163a aabd dcdc 44bd
00000040: d20e af3d a83f 56bc b8c2 a73d 4113 fbbd
00000050: 63a9 e1bd 7e6c f6bc 877c f2bc 050e fc3c
00000060: 96e9 cebd 25de 7bbd f049 2fbd 64dd d5bc
00000070: ff99 3e3d 6f6f bcbd 9e97 5fbd 9114 d0bd
00000080: 4958 f93d bbe4 0ebe 9ebc 69bb 2e67 88bb
00000090: 75a3 21bc 414e f33d 6804 8dba 5119 afbc
000000a0: 34b4 d9bc 43bd fabd 6a8a 363d 42cd ee3d
000000b0: c4fd 9fbd 9c5f cd3c 02f0 7dbd 895b 32bd
000000c0: 2c84 ed3c 0609 b13c 33f6 33bc c23f 9a3d
000000d0: 2c93 e53d d842 80bd 01ce 8fbd a0e5 013d
000000e0: 7db6 e13d fbe0 50bd 2d4a 853d 3f7a 503d
000000f0: 2693 ba3d 809d 65bd 06a6 04bd 4545 c8bb
00000100: be9e afbd 971a d73d 0204 a9bd 73d5 a3bd
00000110: 2241 003e 60fc 593d e3f7 a83c eb9e 3dbd
00000120: 3314 073d 9f79 50bd 5f6e 243d 6a31 09bd
00000130: e526 943d 88d1 863b 83da 12be 41ad c23c
00000140: fcfe 1cbd 0bb4 c43d fd3d 9abd 5a88 14bd
00000150: 532a b1bc da3b 8abd 644b aabd 58df 073d
00000160: 2f38 b63d 1c90 80bd 5540 553c ccd6 873d
00000170: 7525 4ebb e9e3 33bd 532e 41bd f14a a3bd
00000180: 87ec 5c3d 1603 ed3c a513 11bc 0af2 aabd
00000190: b8c2 acbd 7410 76bd eec1 4dbd 2e56 13bd
000001a0: 9c08 f5ba 1bec 91bc a38d 073e 9314 9d3d
000001b0: 1f5e c3bd fd40 5d3d 9583 eabd b4fd a6bd
000001c0: e6b3 a43d 1753 953d 33ca 7c3d 1699 8dbd
000001d0: a42c 18bd cfb7 973d 9c7a c3bd 96cc d2bd
000001e0: a13b 0abd 1b6f cf3b f8a1 353d c15f 05bd
000001f0: fe62 973d d1e8 903d e201 a9bd abb8 2bbb
00000200: f56d 783e c6f7 073e d954 ea3d 8000 ebbc
00000210: ec41 08be 708e bbbc 700f 2f3e 5b29 6e3d
00000220: f3d6 393e e139 1b3e 7cb3 933d 36d7 603c
00000230: f274 24be 244e 6cbe c527 8b3d 0334 9cbe
00000240: beb4 253e a831 42bd 9029 55be 4432 d33e
00000250: ee68 8d3d f7f5 0c3e de5a 193e 30f5 43bd
00000260: 661c 3bbe 04ec 263d 3026 6bbe 7520 87bc
00000270: 912b b23e 2933 843e 8436 74be 33e9 a5be
00000280: f2c0 ea3c fd22 8ebb e338 833e 9e44 643d
00000290: 04ad 5d3e 2f84 903e 1d73 cabe 0f67 bc3b
000002a0: ab24 863d 0b22 c23e 8a6a d73e f449 353e
000002b0: 60b1 3e3e dd89 763e 357c b43c 3f99 8abc
000002c0: 8d43 57be 6f0a 40bc 286a 8bbe 049f 0b3e
000002d0: 5a08 26be 1bcd 913e 07a1 a53c c711 6abe
000002e0: 0844 5bbe 0320 2bbd 63ed a1be 94a0 113e
000002f0: ef4e 9fbe 3e2a 213e 9737 64be d933 f5bd
00000300: 002d 1bbc ae48 023e 9968 d63b affe a2bd
00000310: 27dd edbc d026 a6bd 68fe 123e 39a7 e53c
00000320: 01fe 1b3d a363 2bbd f0b0 8bbd 4c91 46bd
00000330: c289 c4bb 7b64 99bd a12d bfbd 5a55 9e3c
00000340: 331a a8bd bdf1 b3bd 8571 44bc d6e8 323e
00000350: ec13 123e b644 4ebd 86d4 e0ba 3f7a 893d
00000360: a3d3 9ebc f826 f0bd acdd cf3d 80bd 8cba
00000370: 8aa6 2fbe b87c e8bd 2e64 bbbd b443 b2bd
00000380: 86f0 663c 7d6d ffbd 4d20 1a3d 0a85 98bd
00000390: 95d5 18bd f74f 3ebd 329e 9f3d b5ea 933c
000003a0: d4ba a0bd ac02 b9bd 7698 453d 7bb8 d43d
000003b0: e9c8 1ebe a70f 33bc 77b4 b23d a899 b23c
000003c0: 0fea 93bd 4451 103d 6ff7 e5bd a393 023e
000003d0: 7a39 aebd 02a7 ad3d e54a c2bd ddae d6bd
000003e0: 6266 febd bb23 e0bd 4a22 07be 248c ca3d
000003f0: d58d 113d 7a52 093e 47b6 f63d 666c 5c3c
-0.023339307 -0.1512819 -0.07971163 0.095430195 -0.027987463 -0.09135744 0.06046673 -0.012375838
-0.106285945 0.1096071 -0.034071423 -0.091321185 0.0066259596 0.040972147 -0.0831186 -0.04806219
0.085477486 -0.0130767 0.081914365 -0.12259532 -0.11018636 -0.03008103 -0.029600395 0.030768404
-0.10103147 -0.06149115 -0.04279512 -0.026106544 0.04653358 -0.09200942 -0.054587953 -0.10160173
0.12175042 -0.13954441 -0.0035665403 -0.0041626906 -0.009865631 0.1188016 -0.001075876 -0.021374376
-0.026575185 -0.1224313 0.044565596 0.116602436 -0.07812074 0.025070004 -0.061996467 -0.043544326
0.028993689 0.021610748 -0.010983991 0.07531692 0.112097114 -0.062627494 -0.07021714 0.031713128
0.11021135 -0.050995808 0.065082885 0.050897833 0.091100976 -0.056058407 -0.032384895 -0.006111773
-0.085751995 0.105031185 -0.082527176 -0.079996966 0.12524846 0.0532192 0.020626014 -0.046294134
0.032978248 -0.050897237 0.04014432 -0.03349439 0.07233981 0.0041143335 -0.14341168 0.023764255
-0.03832911 0.09604653 -0.075313546 -0.036262847 -0.021626627 -0.06749697 -0.08315161 0.03317198
0.08897435 -0.06277487 0.013015826 0.06632766 -0.0031455432 -0.043918524 -0.04716332 -0.07973278
0.053936508 0.028932136 -0.008854781 -0.083469465 -0.08435577 -0.060074285 -0.050233774 -0.03597086
-0.0018694582 -0.01781278 0.13237624 0.0766994 -0.095394365 0.054017056 -0.114508785 -0.08153859
0.080421254 0.07291239 0.06171627 -0.069139645 -0.037151948 0.074081056 -0.0954487 -0.10292928
-0.033748273 0.0063303835 0.04434392 -0.03256202 0.07391928 0.07075656 -0.08252312 -0.00262026
0.24260695 0.13278112 0.11441965 -0.028686762 -0.13306397 -0.022895068 0.17095733 0.05814491
0.18148403 0.15158798 0.07211968 0.013723185 -0.16060236 -0.23076683 0.06794695 -0.30508432
0.16182229 -0.047410637 -0.20816636 0.41249287 0.069047794 0.13765703 0.1497607 -0.04784125
-0.18272552 0.040752426 -0.22963786 -0.016494969 0.34798864 0.25820282 -0.23848921 -0.3240448
0.028656457 -0.004337667 0.2562934 0.0557295 0.21648031 0.28225848 -0.3954095 0.00574959
0.065499626 0.37916598 0.4207347 0.17703992 0.1862235 0.24076028 0.022031883 -0.016918777
-0.21021862 -0.011721238 -0.27229428 0.13634878 -0.16214123 0.28476796 0.020218385 -0.22858344
-0.2141267 -0.041778576 -0.31626424 0.14221412 -0.3111491 0.1573877 -0.22286831 -0.1197278
-0.009471178 0.12723038 0.0065432307 -0.07958733 -0.029036118 -0.08112872 0.14354861 0.02803384
0.038084034 -0.041843068 -0.068208575 -0.04847841 -0.0059978673 -0.07489868 -0.09334875 0.019327808
-0.08208122 -0.08786342 -0.011989956 0.17471632 0.14265412 -0.050358497 -0.0017153181 0.0671277
-0.019388026 -0.11726183 0.101497024 -0.0010737628 -0.17153373 -0.11351913 -0.09149967 -0.087043196
0.014095431 -0.12472055 0.03762846 -0.0744725 -0.037313063 -0.04646298 0.07793845 0.018056253
-0.07848135 -0.09033713 0.0482411 0.10386749 -0.15506329 -0.010929025 0.08725827 0.021801785
-0.072223775 0.03523375 -0.11228835 0.12751631 -0.085070565 0.0847912 -0.09486941 -0.10482571
-0.12421872 -0.10944315 -0.13196674 0.09890011 0.035535652 0.13410369 0.120464854 0.013453579

lstm.weight_hh_l1 f4 [256, 64]
00000000: 57ff 3dbd 62bb 023d e6ce 913d a99f f6bd
00000010: b96b c7bd 51aa c43d b86c 54bb 95b7 cd3d
00000020: 3f02 d4bd b754 c2bd eec7 513c 8888 b13c
00000030: f5ab de3c 49e3 5cbd 6550 1abe cc2c b8bd
00000040: 6d8f 0ebe f4c5 903d d34a 8bbc 0da6 cabb
00000050: 443d 873d dc95 fdbb 7127 113d b0dc 2c3c
00000060: 77c8 873d 4b5f b83d b376 8b3d ebe9 d9bd
00000070: a266 bc3c d47e 003d 4e2e 4dbd bda4 d8bc
00000080: 9114 eebd 0127 d13d cd44 81bd 04a3 c7bd
00000090: 4743 bebd 0536 0b3d a8c3 c13b 3ea4 843c
000000a0: 61bb e0bd 602c 853b 646d d9bd 857d 80bc
000000b0: 9462 333d d93f 4cbd c243 f93a ee6f db3d
000000c0: c3ef 96bd 298e edbc 1e13 1bbe f499 433d
000000d0: 5d72 443c eca9 6d3d 5cf6 453c c3a0 00bd
000000e0: 3820 dabd 32fd 83bd a631 7cbd 73fe 293e
000000f0: 6135 143a a548 b33d f058 d73c 1053 dabd
00000100: 2441 283e 385e 413d c751 ffbc 8749 d3bd
00000110: 6c51 603d 4d55 4f3d 512c 5d3d 9ebb 1b3e
00000120: f2b0 f33d 6746 2fbe c1c8 94bd ff18 8f3d
00000130: 8d31 893b b707 febd 681e d2bd 8eaa 093e
00000140: f5c8 c23c a20d 123d c2d4 e03d c5fe 40bb
00000150: 7832 13bd 8565 153e e69d 27be be04 683d
00000160: 0803 503c ff92 533d 226c 83bd b6d7 10be
00000170: 0b77 943d 0e82 19bd 48b7 b43d 416d 053c
00000180: a1fb 70ba c6df 253e 2981 103e 4e6c c43d
00000190: 3213 923d b7f6 9cbd c9ce 14be 04e9 6b3d
000001a0: 6613 89bd a5b6 713c b625 763c 8b37 1bbe
000001b0: 331e 06be 41fb 0dbd 8486 b0bd 9f52 9abd
000001c0: 4380 febd 5f53 05bd a0ba 33bc 4641 843c
000001d0: ac8d 1c3d 3a7d 793d 220e 7c3d 4fbe 11bd
000001e0: 1a7e fcbd 1047 8bbd 06f0 abbd 0b9d e83d
000001f0: cf67 2e3c c337 f6bd c711 a73c a2de a4bd
00000200: e1a6 3c3e 6dc2 353e 8b19 673e d6a8 5cbe
00000210: 5cba b03d fc35 02be cdd3 de3d 1307 883e
00000220: 839c c53d 511e 86be c50e 54bd 4d37 d7bd
00000230: d4de 2cbe 734a e63c e466 21be 28b1 16be
00000240: c703 b93c e5dd 97bc f792 c3be f2b5 d93d
00000250: 5f1d 133e f5d8 5dbe 4ec7 84bd 925a 9f3d
00000260: 8c62 bfbc f945 873d 9916 13be 4183 0ebe
00000270: ed51 2a3e 1444 ebbd 525f 2d3e c67f 0f3e
00000280: 1120 95bb c16a e03d 163f 3f3e 968d f93d
00000290: 2f25 00be 9021 78bd 3fb6 7d3d 11ce 5cbe
000002a0: 020d 43be 38fc 8b3d 606c b2bd bf1d 083e
000002b0: f2f3 833d d496 3abe 0264 403d 066d ab3c
000002c0: aff9 09be ee95 8f3d a5c0 acbd 9086 423e
000002d0: b9a2 473e 214b a53c 6577 313e d851 d4bc
000002e0: 78d4 513e 8f78 50bd 1e49 afbd 0149 4bbc
000002f0: 63b9 24be 1e12 043e fa13 a4bb 3761 f4bd
00000300: d5e5 1e3d 3db0 923c 0fab 7a3d 7e5b 04be
00000310: a56a 8a3d 5d45 98bd bd43 f3bc 2925 c6ba
00000320: 077b 24bd e06d 07be 724f c13c 77f6 163d
00000330: ccfd 59bd 6a76 25be 7f4e 83bd 3468 70bc
00000340: c48b 89bc 6112 493e 160b a5bd 217b 2f3e
00000350: 0b32 0fbd f24a 333e 47e6 5d3d 10db 4dbc
00000360: 842b a7bd 1f0d fd3d 8507 09be 0a88 1cbe
00000370: 6291 f83c a4f8 e33d 1f44 253d 9b57 9f3d
00000380: 7b79 27be d4f2 2a3c cb93 93bd 48d9 16be
00000390: d07b 61bd 7cd2 a4bd 9ec4 eebd 7954 773d
000003a0: 12f1 403d b0d6 81bc 8582 ccbd 8d53 cfbd
000003b0: 9b6e 5cbc 92a0 f8bd a5f0 2c3d c338 fe3d
000003c0: 6649 a13d bd63 213e c9f2 9dbd e47c 2abd
000003d0: 66ab 243e 4fe8 893c ff1c a9bd 5030 bdbc
000003e0: 323f e73d 1463 e4bc 3657 d5bd eb5d 093e
000003f0: 5f68 abbd 02bc 15be b26a e6bd ed6b 49bd
-0.04638609 0.031916983 0.07119541 -0.120421715 -0.09737343 0.09602798 -0.0032413434 0.10044781
-0.10351991 -0.09488814 0.012804015 0.021671548 0.027181605 -0.053927694 -0.1506973 -0.08992919
-0.139219 0.070690066 -0.017003452 -0.0061843456 0.06603482 -0.007738812 0.035438005 0.010550663
0.066300325 0.09002551 0.068097495 -0.106403194 0.022998158 0.031370953 -0.050092988 -0.02644574
-0.116250165 0.102125175 -0.06311951 -0.0974789 -0.09290176 0.033987064 0.0059132166 0.016191598
-0.1097324 0.004064128 -0.10616568 -0.015684852 0.043795183 -0.049865577 0.0019017386 0.10714708
-0.0736995 -0.028998451 -0.15144011 0.047754243 0.011990157 0.05802338 0.012082662 -0.031403314
-0.106506765 -0.064447775 -0.061570786 0.16600971 0.0005653706 0.0875409 0.026287526 -0.10660374
0.16431099 0.047208995 -0.031166924 -0.103167586 0.05476515 0.05061846 0.05399734 0.15208289
0.11898984 -0.171167 -0.07264853 0.069871895 0.004186815 -0.12403815 -0.10259706 0.13443968
0.023777464 0.035657533 0.1097808 -0.002944873 -0.035936803 0.14589508 -0.16368827 0.056645148
0.012696035 0.05165386 -0.06417109 -0.14144787 0.07249268 -0.037477545 0.088240206 0.008143724
-0.0009192769 0.16198644 0.1411177 0.0959097 0.071325675 -0.076642446 -0.14532007 0.057595268
-0.06693153 0.0147530185 0.015023639 -0.15157907 -0.13097458 -0.034663443 -0.08619407 -0.0753529
-0.12426808 -0.032550212 -0.010969788 0.016144406 0.038221046 0.06091044 0.061536916 -0.035581883
-0.123287395 -0.068006635 -0.0839539 0.113580786 0.010644867 -0.120223545 0.02039422 -0.08050276
0.18423034 0.17749949 0.22568338 -0.21548781 0.08629295 -0.12715906 0.108802415 0.26567897
0.09648993 -0.26195005 -0.051771898 -0.10508595 -0.16881877 0.028111672 -0.15761906 -0.14716017
0.022584809 -0.018538425 -0.38198063 0.106304064 0.14366673 -0.21664794 -0.06483327 0.07780947
-0.02336242 0.06605143 -0.14364089 -0.13917257 0.16632815 -0.11487594 0.16930893 0.14013585
-0.0045509418 0.10957862 0.18676409 0.121852085 -0.12514184 -0.060578883 0.06194138 -0.21562983
-0.19047931 0.06835216 -0.08712077 0.13292597 0.06443013 -0.18221599 0.046970375 0.02092601
-0.13474153 0.07011019 -0.084351815 0.18996644 0.19495668 0.020177426 0.17330702 -0.025917932
0.20491207 -0.050896224 -0.08558868 -0.012407542 -0.16086344 0.12897536 -0.005007264 -0.11932605
0.038793404 0.017906303 0.06119829 -0.12925526 0.06758622 -0.07435105 -0.029695386 -0.0015117276
-0.04015639 -0.13225508 0.023597453 0.03685614 -0.053220555 -0.16158453 -0.06411456 -0.014673281
-0.016790278 0.19635917 -0.08058755 0.17136814 -0.034959834 0.17509058 0.054174688 -0.012564436
-0.08162597 0.12356018 -0.13381775 -0.1528627 0.030342761 0.11131409 0.04034817 0.07780381
-0.16354935 0.010433871 -0.07205924 -0.14731324 -0.055049717 -0.08047959 -0.116585955 0.060383294
0.047104903 -0.015849441 -0.09985832 -0.10123358 -0.013454105 -0.12140001 0.042221684 0.1241317
0.07875328 0.15760703 -0.07712323 -0.04162301 0.16081008 0.016834406 -0.08257484 -0.023094326
0.112913504 -0.027879275 -0.10417025 0.13414733 -0.083695166 -0.146225 -0.11250819 -0.04917519

lstm.bias_ih_l1 f4 [256]
00000000: 14e5 263d 3185 a8bc ecdd 07be 55de f83c
00000010: 4c2a e3bd 2ed0 cd3c 80a6 a1bd 501e f33b
00000020: ceb2 b9bd fd2b dcbd 928b c1bd e0cd 373d
00000030: 969e 9c3c d20a 70bc 5b68 cc3d 84d1 64bd
00000040: d91b c7bd 1a3a 853d e2ca 6fbd 26d6 edbc
00000050: d9a4 babd 8c3b 0c3c fd81 ad3c 5201 1abe
00000060: cc13 9d3c 4555 a43d b8f6 5d3d dac2 003e
00000070: bc43 03be 94b6 073e 3d06 9dbd 14c7 f03c
00000080: 315f e5bc e6ac f9bd 1b21 af3c 30ab 46bd
00000090: 0fe6 c5ba 5acf ff3c bab6 233c a9d2 1cbd
000000a0: 01e3 8cbd 70b6 eebc d3aa b2bd a111 b93c
000000b0: 667d c7bd 4a81 213b fa82 4c3d fdbb 91bd
000000c0: f01b c0bd 55b6 aebd 0094 753c 9ce0 9bbd
000000d0: 5473 bdbc 2d43 4d3d c1fe 58bc 0f44 0a3c
000000e0: 8949 03bd 8349 c5bd 8eca f03d 3df8 87bc
000000f0: ac30 0b3d e5a6 19be b082 02be c96d 93bd
00000100: 55b8 333a 78fe d93d b188 e5bc 003a 05be
00000110: 900d 05bd c39e b73d 0b22 103e 9d0f 073c
00000120: 9d10 4cbd 5ace e3ba 51c0 fe3a 982b 903d
00000130: 1fe3 febc 34aa 7bbc 8aeb 8bbd 8411 873d
00000140: 3c0d 233d e54f f3bd 81e6 e5bd 3d23 cc3d
00000150: de0a eabd ba63 22bd 8462 ac3b 6229 a73d
00000160: 875a 573c f7b1 0b3d 7b63 ff3d 973a d7bc
00000170: d7a6 0cbe fd1f 8ebb bc2a b33d ff4f be3d
00000180: 5bec d03d 7c07 16bd 8bbd cc3c fe11 ddbd
00000190: 5808 093d 84eb bbbd 1aef d7bd 369d aebd
000001a0: 30d8 ac3c a244 ee3c 0ab1 f3bc 3b57 89bd
000001b0: f86f 2f3d b5a1 cf3d 7b55 d2bb e566 19be
000001c0: 4e29 b0bd 192d fb3d de32 ec3c 1ca3 6dbd
000001d0: ac3c 1c3e 4e1a 42bd 82c2 323c 33f9 0c3e
000001e0: 1d28 4abd 3e7e 42bc 991c db3d 1394 7bbd
000001f0: 0141 21bd 507b f8bd 1f0a 74bd 6780 4cbd
00000200: 18c7 0bbe 75bb 8abd 90c0 d2bd edf7 c03d
00000210: 5d69 5b3d aa3b ccbd 6d72 593d d174 c0bd
00000220: 7539 75bd f77c 213d 4f9a 1fbd 469a 9fbc
00000230: 23d5 bdbc 3a3e 853d e2ab b43d 56f3 c63d
00000240: 4165 2bbc 368b 76bd 5813 da3d f02d e8ba
00000250: 95a5 9f3d 595f db3d c7e4 5abd b05d 863a
00000260: 00a4 bbbd eb36 03be 0865 58bc 4ca8 85bc
00000270: 5a50 cfbd 0af1 203c d90c bdbc c190 bc3d
00000280: b29c c3bc 524f a9bd 82f0 e5bd f814 d03d
00000290: 74a6 333d 871a 743c bb05 a9bd b729 90bd
000002a0: 7299 44ba e5c1 043e 49d3 673d 2198 d23d
000002b0: cb14 333d bb09 803d ae03 5ebb 63da 163d
000002c0: dc1c c7bc d592 1ebd 0786 34bd c696 a3bc
000002d0: e266 adbd eb68 953c 6505 8ebc 4b52 9cbd
000002e0: 4780 0d3d 7082 303d 3d2e 193e e620 e13b
000002f0: 00b4 443d 8ea8 d83c 17dd d0bd 0ed3 c83d
00000300: dcd1 3cbd 51ce 7a3d ad1b f1bd e4ae 3cbd
00000310: a993 bebd 1cb7 6ebc 5658 4cba 8a79 e3bc
00000320: 96df bbbd 6551 4cbc 927a 8cbb a3c0 313d
00000330: 80e5 b5bd 3d2b ecbc 3a10 623d ac56 40bd
00000340: 01f7 08be cb81 f3bd b2f0 9d3b 9dcd 6cbd
00000350: dad8 58bb 4873 c1bd c51c 903d 4a70 093d
00000360: 3ed7 3ebd 1c7d 353d b11a 4ebd 1f98 acbd
00000370: 0bb7 db3b 0fed eabc c5a4 523c 5cbf 16be
00000380: cee3 8cbc 3912 c03d 87e8 7fbc eb8e c83c
00000390: 019e e5bd 5fde b7bd 30c5 97bd 2766 f0bd
000003a0: 7d51 7a3d a489 363d bc4d 90bc 9c43 713d
000003b0: 7568 10be e4c7 873d 0a63 9dbc 01a6 27be
000003c0: ca01 1cbe 3c81 e5bd f376 69bc 6969 29be
000003d0: 7064 35bc 0186 f6bc 72b8 8dbd 30c0 013d
000003e0: 82e0 0b3e 1926 bfbd 31b6 253d 721e 75bd
000003f0: 34a1 ccbd 2466 093d 832e ffbd 0605 2e3d
0.04074581 -0.020571323 -0.1326825 0.030379454 -0.11092052 0.025123682 -0.078930855 0.007419385
-0.090673074 -0.107505776 -0.09450449 0.044874072 0.019118588 -0.014651017 0.09980842 -0.055863872
-0.097221084 0.065052226 -0.058543094 -0.029032778 -0.091134734 0.008559119 0.021180147 -0.15039566
0.019174479 0.08024076 0.054190367 0.1257433 -0.12818807 0.13253242 -0.076672055 0.029391803
-0.027999492 -0.12191181 0.02137809 -0.0485031 -0.001509847 0.031226803 0.009992296 -0.03828684
-0.06879235 -0.029139727 -0.087239884 0.022591414 -0.09740715 0.0024643713 0.049929596 -0.07115934
-0.09380329 -0.08530871 0.014988899 -0.076112 -0.023126282 0.050112892 -0.013244332 0.008439078
-0.03205255 -0.09633162 0.11757384 -0.016597861 0.033981964 -0.15005071 -0.12745166 -0.07198674
0.0006855776 0.10644239 -0.028019281 -0.13010406 -0.032483637 0.08965828 0.14075486 0.008243469
-0.04982053 -0.0017380223 0.0019435977 0.07039565 -0.03111416 -0.015360404 -0.06832035 0.06595138
0.039807543 -0.11880473 -0.11225606 0.09967659 -0.11427854 -0.039645888 0.0052607674 0.0816219
0.013144142 0.034105267 0.12470146 -0.026273055 -0.1373552 -0.0043373094 0.08748385 0.09292602
0.10201331 -0.03662823 0.024992725 -0.10794447 0.033455223 -0.091757804 -0.10543652 -0.08526079
0.02109918 0.029085461 -0.029747505 -0.06706091 0.04283139 0.10138265 -0.0064188815 -0.14980657
-0.08601628 0.12264461 0.02883285 -0.05801688 0.1525752 -0.047388367 0.010910632 0.13766937
-0.04935466 -0.011870919 0.10698814 -0.06142051 -0.039368633 -0.12132895 -0.059579965 -0.04992714
-0.13650167 -0.06774036 -0.10290635 0.09422288 0.05356728 -0.099723175 0.05308764 -0.09397281
-0.05986925 0.039425816 -0.03896552 -0.019482743 -0.02317292 0.065060094 0.088218465 0.097143814
-0.0104611525 -0.060191356 0.10648221 -0.0017713886 0.07795254 0.107115455 -0.053440835 0.001025131
-0.0916214 -0.12813918 -0.0132076815 -0.016315602 -0.10122748 0.009823093 -0.023077415 0.09207297
-0.02387843 -0.08267082 -0.11227514 0.101602495 0.043859914 0.014898903 -0.08253046 -0.070392065
-0.0007499672 0.1296459 0.05659798 0.102829225 0.043721 0.06251856 -0.0033876705 0.036829364
-0.024305753 -0.03871425 -0.04407313 -0.019969355 -0.08466889 0.018238505 -0.017336557 -0.07632884
0.034546163 0.043093145 0.14959045 0.006870377 0.048023224 0.02644756 -0.101984195 0.098058805
-0.046098575 0.061231915 -0.11772857 -0.046065226 -0.09305508 -0.014570024 -0.00077951455 -0.027767915
-0.09173505 -0.012470578 -0.0042870725 0.043396603 -0.08881664 -0.028829211 0.055191256 -0.046957657
-0.13375475 -0.118899904 0.004819953 -0.057813276 -0.0033088238 -0.09445816 0.07036737 0.033554353
-0.04659199 0.044308767 -0.050318424 -0.08427452 0.00670517 -0.028677491 0.012856667 -0.14721435
-0.01719847 0.09378476 -0.015619404 0.024482211 -0.112117775 -0.08977961 -0.074106574 -0.11738234
0.06111287 0.044564858 -0.017615192 0.058902368 -0.14102347 0.06629923 -0.019212265 -0.16371919
-0.15235057 -0.1120629 -0.014249551 -0.16544117 -0.011071309 -0.030093195 -0.06919946 0.031677425
0.13659862 -0.093334384 0.040456954 -0.059843488 -0.099916846 0.033544675 -0.12460043 0.04248526
