backend/ai_engine/models/lstm_forecast_model.pth (torch, 211397 bytes, 9 tensors)

lstm.weight_ih_l0 f4 [256, 6]
000000 e5 b6 82 bd a8 ff 85 bf e7 41 03 3e 7a 1f 97 3e
       -0.063825406 -1.0468645 0.12818108 0.29516202
000010 1e 1d d7 bd bd 54 11 be e6 cf 80 bf 5b 4d 22 bf
       -0.105036005 -0.14192481 -1.0063446 -0.63399285
000020 da 8d 8d 3d db d1 b6 3e 80 07 2e be 97 8c 11 bd
       0.06911822 0.35706982 -0.16995049 -0.035534468
000030 8f e0 9a 3e c3 ed 7f be 5f 47 68 be e9 0e 33 3e
       0.3024945 -0.24993043 -0.22683476 0.17486157
000040 39 56 f5 be e2 e5 92 be 01 45 b3 3c b9 1b 14 bf
       -0.47917345 -0.28691012 0.02188349 -0.578548
000050 2f a3 b1 bd 68 27 95 3d f4 dd 84 3e fb cd b4 bd
       -0.08673703 0.07282907 0.25950587 -0.0882835
000060 01 4b ac be 33 f5 7d be 79 59 4a 3e 9e 6c 80 3e
       -0.33650973 -0.24800567 0.19760694 0.25082868
000070 4d a7 a8 be 6a d5 f6 3d 35 b7 f5 be 35 4d 79 be
       -0.3294014 0.12052424 -0.47991338 -0.24345858
000080 63 95 2c be a9 55 b6 be 27 31 18 bd aa 79 fc be
       -0.16853862 -0.3561223 -0.03715625 -0.49311572
000090 e7 f4 6b bf 4b d6 22 be 72 c7 af bd cc a6 06 3e
       -0.92170566 -0.15902059 -0.08582963 0.13149565
0000a0 3a f3 88 bd bc 54 3d 3f eb 39 15 3e 2b 4f b7 3d
       -0.06687017 0.7395742 0.14572875 0.08950647
0000b0 da 07 b9 bd 35 59 3a 3e 77 10 aa be 7e 9d 4b be
       -0.09034701 0.18198092 -0.33215687 -0.19884297
0000c0 92 03 1f bf 30 b4 9a 3e f9 9d 0d be 34 f0 c0 bd
       -0.6211482 0.30215597 -0.13829793 -0.09420815
0000d0 f8 05 22 be 30 86 44 3e eb a7 5d be 17 b4 93 3e
       -0.1582259 0.19191813 -0.21646087 0.28848335
0000e0 e2 53 ba bd 30 f5 c3 bc 08 fe 7f bd 22 94 94 be
       -0.090980306 -0.023920625 -0.062498122 -0.29019266
0000f0 97 28 6a bd 7f c9 24 3d ea ac 1b 3e 6b 0c a1 3c
       -0.057167616 0.040231224 0.1520268 0.019659242
000100 99 52 32 3e b4 6c a5 be 92 ef dc 3d f9 7d b4 3e
       0.17414321 -0.32309496 0.10787882 0.3525236
000110 95 97 f9 bd f8 49 37 be a4 35 25 be e1 c7 3f be
       -0.12187115 -0.1789931 -0.16133744 -0.18728592
000120 66 59 6a 3e 1e 47 85 be 20 2d d3 3b e6 74 9f 3b
       0.22885665 -0.2603082 0.0064445883 0.0048662303
000130 76 44 fe be fa 60 d3 bd 0e 37 83 3e e4 b8 53 bd
       -0.49661607 -0.10321231 0.2562794 -0.051689997
000140 dc 71 8e bc 15 10 1f be 73 d8 23 bf b1 57 31 3f
       -0.017388277 -0.15533479 -0.6400215 0.6927443
000150 b8 d7 22 be 14 10 7f be 35 68 0f be aa d8 43 be
       -0.15902603 -0.24908477 -0.14004596 -0.1912562
000160 06 15 7f be 0f 5d e9 3c f1 73 0b bf 75 8a 57 be
       -0.24910364 0.028486757 -0.5447379 -0.21048911
000170 fa 01 19 3d 56 89 ff bc ed e6 6c bb a0 be f6 bd
       0.0373554 -0.031193417 -0.0036148385 -0.120480776
000180 c3 10 00 be 6a 51 05 3f be 69 27 3f 61 94 da 3e
       -0.12506394 0.52077353 0.65395725 0.4269133
000190 cb c9 2e 3d 11 80 cc 3e 64 75 48 be bd ae bd 3d
       0.042672914 0.39941457 -0.19576031 0.09261844
0001a0 2e d3 17 3c 6a c6 13 bf 45 89 d3 be 45 b0 48 3e
       0.009266658 -0.5772463 -0.41315666 0.19598491
0001b0 21 07 e2 be d7 a6 b9 be d8 bf d3 be c7 09 02 be
       -0.44146064 -0.362601 -0.41357303 -0.12699042
0001c0 da 34 ab be 16 1c 29 3f 5f c4 cd 3d 15 c7 7b 3d
       -0.3343876 0.6605848 0.100472204 0.061469156
0001d0 65 92 5b be 48 34 2a be 21 4c 14 bf 69 7b 03 3f
       -0.21442564 -0.16621506 -0.57928663 0.51360184
0001e0 c5 71 07 be 57 25 73 3d 9e 31 a6 3d 7f 76 81 bf
       -0.13226993 0.059361782 0.081149325 -1.0114287
0001f0 5f 89 30 bf 76 17 88 3e ef 3e 0d be cd 64 16 bf
       -0.6895961 0.265804 -0.13793539 -0.5874756
000200 bc f8 b1 bd 99 9c 91 3e 64 36 80 be af 24 f2 be
       -0.086900204 0.28439787 -0.25041497 -0.47293612
000210 3a 66 6f 3e 17 f0 86 3d d9 cd 28 3e 66 e7 f7 3d
       0.2337884 0.06588762 0.16484775 0.121046826
000220 b6 5e 36 bf 61 f7 c6 3e 3b 52 03 be bf 76 81 be
       -0.7123827 0.3886061 -0.12824337 -0.2528591
000230 e0 02 f2 be a5 3b 9b be 72 54 3c bf 77 6b 92 3e
       -0.47267818 -0.30318943 -0.73566353 0.28597614
000240 44 9d eb be 25 03 e7 3e 48 b5 88 3d 43 f9 e6 be
       -0.46018422 0.45119587 0.06675202 -0.45112047
000250 53 c1 15 be 1d b9 36 3e 54 f4 c2 3e a3 27 27 bf
       -0.14624529 0.17844053 0.38077033 -0.65294856
000260 e8 36 5c 3d 19 e8 0f 3e e7 f3 dc be 4d 97 cb bd
       0.0537633 0.14053382 -0.43154833 -0.09940968
000270 9e 36 ed 3e f1 66 ab 3e fd a4 40 be 13 a0 66 3d
       0.46330732 0.33476976 -0.18812938 0.056305002
000280 26 b9 fa bd 5a 8e 17 3e c2 19 ea 3e a8 12 11 3e
       -0.122423455 0.14800397 0.45722777 0.14167273
000290 31 d9 02 3e ae ec 4c bd 5e 77 80 bd 1a 30 93 3d
       0.12778164 -0.050030403 -0.062727675 0.07186909
0002a0 bc 7a e8 be 7c 74 8b 3e ad 5c 48 3e 4f 1f 1b 3d
       -0.4540614 0.27237308 0.19566603 0.037871655
0002b0 d9 d8 88 be ee 72 fa 3d 0e 1b 36 be 71 43 a2 3e
       -0.26727942 0.12228952 -0.17783758 0.3169208
0002c0 5f 32 41 be 0c 60 8b bb 23 a7 c5 be 68 5c 44 be
       -0.18866871 -0.004253393 -0.38604078 -0.19175875
0002d0 19 3b 1f bc 04 26 8c be a1 ed 1e 3e 8f c5 cc 3e
       -0.00971868 -0.27372754 0.15520336 0.39994475
0002e0 9a 12 cd 3d 6f 4b 10 be e8 6a 55 3c 04 57 01 be
       0.100133136 -0.14091276 0.013025977 -0.1263085
0002f0 bb ef 5b be a4 86 e1 bd c8 c9 d8 be f6 3b 38 be
       -0.21478169 -0.11012009 -0.42341447 -0.17991623
000300 e1 75 4e be 4a 83 f7 bd 93 ba 39 be 03 73 e3 be
       -0.20162155 -0.12085588 -0.18137579 -0.44423684
000310 fd 8a 31 be d2 4a 08 3e 71 47 ae be 00 ed 21 bf
       -0.17338176 0.13309792 -0.3403888 -0.6325226
000320 9f 6c d4 bd 07 08 9c 3e bd 9f 09 be 5f ef 52 3e
       -0.1037228 0.30474874 -0.13439842 0.20599125
000330 50 68 0c bf bf 65 d6 be 29 fa 0f be 9e bb 8b 3e
       -0.5484667 -0.418745 -0.14060272 0.27291578
000340 7f 8b 04 bf 58 e5 b0 3e 9b 91 07 bf ee 59 98 be
       -0.51775354 0.34549975 -0.5295655 -0.2975611
000350 42 99 d5 bd aa fd 85 bc d3 22 c1 be c1 34 83 3d
       -0.10429622 -0.016356308 -0.3772188 0.064065464
000360 56 94 23 3e 01 02 44 bc 2a 97 b0 bb 39 71 7c 3e
       0.15974554 -0.011963368 -0.005389114 0.24652566
000370 96 16 7e be 58 27 b6 3e 0b 36 92 be 81 0d 63 3e
       -0.24813303 0.35576892 -0.28556857 0.2217312
000380 6f d3 93 bd bb 41 e0 be 9b 04 8c be c7 f6 f7 3e
       -0.07218062 -0.43800148 -0.27347264 0.48430464
000390 d2 37 25 be fe 5f 27 be 48 c1 2a 3c c1 8d ac bb
       -0.16134575 -0.16345212 0.010422058 -0.005265922
0003a0 41 d6 9c be 55 a9 14 bd b0 ee 62 be ab 32 f9 be
       -0.30632213 -0.0362943 -0.22161365 -0.4867147
0003b0 e7 a3 46 3e 24 b6 b3 3e cf 00 f0 3d 9f 5f a8 3e
       0.19398461 0.350999 0.11718904 0.32885453
0003c0 55 72 67 be db ff 9e 3e eb 1b 7a 3e 3d 58 d8 be
       -0.22602208 0.31054577 0.24424712 -0.4225482
0003d0 c0 1d a0 b9 64 94 b0 be 5d 25 cd be 52 5f 98 be
       -0.00030539744 -0.34488213 -0.40067568 -0.29760224
0003e0 d9 3f e3 3e fe c8 2d bc 77 a2 98 3d 9b 50 d4 3d
       0.4438465 -0.010607002 0.07452863 0.10366937
0003f0 a4 ed 2a be e6 f3 f2 be 3f 6b ae 3c a8 c5 2d 3e
       -0.16692215 -0.47451705 0.021291373 0.16969931

lstm.weight_hh_l0 f4 [256, 64]
000000 b7 c9 2f be 0c e6 60 be f0 6d 14 3f d6 d8 83 3e
       -0.17166792 -0.21962756 0.5798025 0.2575137
000010 9c 61 8d 3d ee b3 a7 3d 6c a7 8f 3d 75 c8 79 3e
       0.06903383 0.08188616 0.07014355 0.24392875
000020 2d a2 e3 bd f3 7a 04 bb 95 65 a8 3d b9 9e 83 be
       -0.11114917 -0.0020214885 0.082225 -0.25707033
000030 77 09 02 bd 66 93 89 be 34 b7 4a 3e d3 ff 2a bd
       -0.031747308 -0.2687027 0.19796449 -0.04174788
000040 b8 b7 18 3d 5b 02 b8 3e 40 4d 2a 3f 5c 1b 3d 3e
       0.037284583 0.35939297 0.66524124 0.18467468
000050 8a 8f e4 3d 95 98 3b 3d 9c 5b 1d be b8 78 29 bd
       0.111601904 0.04579981 -0.15366977 -0.041374892
000060 c9 ba a5 bd 6e 7d a7 bd 1c 9b 3f 3e d1 12 92 be
       -0.08092267 -0.08178221 0.18711513 -0.2852998
000070 b8 24 21 3e e7 14 00 3e a4 a3 50 3d 11 8a 83 3e
       0.15736663 0.12507974 0.05093731 0.25691274
000080 bf 44 63 3d c1 2d 88 3e 61 3a 61 be 84 fe ec bd
       0.055485483 0.26597407 -0.21994926 -0.115719825
000090 2d 4a 2a 3d 28 da bb be d3 b7 20 bd 0a ce 32 bd
       0.041574646 -0.36689878 -0.03923781 -0.043653525
0000a0 72 74 69 3d 60 3d 2d 3e 94 e7 1a bf 10 bf 8c bd
       0.056995817 0.16917944 -0.6050961 -0.0687238
0000b0 c8 1c e9 bd 98 cd dd bd 35 14 4e be a5 cf 52 be
       -0.11382443 -0.108302295 -0.20124896 -0.20587023
0000c0 f9 ad ab 3d f4 93 0f 3e d3 8e fe 3e 6c 41 f9 3d
       0.08382792 0.14021283 0.4971834 0.12170681
0000d0 42 ac 7e 3c 2c 5d 12 3e 7f c9 ad 3d 42 79 c6 3d
       0.015543999 0.14293355 0.08485698 0.09691097
0000e0 41 88 48 bc f6 21 81 3e 20 e0 f5 be 34 dc 4f be
       -0.012239517 0.25221223 -0.48022556 -0.20298845
0000f0 b5 9a 79 3e e9 de a3 be 22 f0 ce 3d bd 35 ba bd
       0.24375422 -0.32006004 0.101043954 -0.09092281
000100 19 6a f7 be bb 19 b1 be da 96 8e be 19 49 ff 3e
       -0.48323134 -0.34589943 -0.27849466 0.49860457
000110 52 68 ea bd 2c 8f 62 3f 48 67 23 3e 03 9c a0 be
       -0.11445679 0.8849971 0.15957367 -0.31369027
000120 98 2b b5 be 5c 09 37 3e e4 c9 d8 3e ff e4 ea 3d
       -0.35384822 0.17874664 0.4234153 0.11469459
000130 14 ab 22 3e 2b e8 d3 3e 28 ec f8 3d fd 4f 2b be
       0.15885574 0.41388068 0.12154418 -0.16729732
000140 93 c9 39 3f 17 a1 27 bd c5 aa d5 3e 3f 57 ce 3e
       0.725732 -0.04092511 0.4173185 0.40300938
000150 ab f6 b4 3e a5 3e 94 3e ce e7 25 3d cb f4 db bd
       0.35344443 0.28954044 0.04050427 -0.1074005
000160 00 03 49 3c 90 52 2f bd bd fd 32 3e 31 a4 14 3e
       0.012268782 -0.042803347 0.17479606 0.14515759
000170 d9 e8 e4 3e 71 e6 fc 3b 5c 36 58 3f dc e3 4a 3e
       0.447089 0.0077179004 0.84457946 0.19813484
000180 13 d1 ac bd f3 81 03 3e 8c ed 94 3e d6 7d 94 be
       -0.08438315 0.1284254 0.29087484 -0.29002255
000190 47 a8 bc 3d 2f 46 92 3e 7a 10 9e 3e 51 83 4c be
       0.09211784 0.2856917 0.30871946 -0.19971968
0001a0 0e 92 c7 3e be 84 16 3f 28 89 1e be 29 46 9c 3d
       0.38978618 0.587963 -0.15482008 0.076305695
0001b0 1a 82 22 bd 20 3e 20 3e 07 d7 94 be a7 7f a0 3e
       -0.039674856 0.15648699 -0.29070303 0.3134739
0001c0 ea 72 8e bd 39 c3 ec 3e b4 39 7e be 43 57 a9 3f
       -0.06955512 0.46242693 -0.248267 1.3229755
0001d0 27 6d 16 3f d8 f5 0e 3e 1c 73 65 be 7b c6 b4 be
       0.58760303 0.1396097 -0.22407192 -0.3530768
0001e0 93 44 4f bd eb 67 da bb 0d 30 8a 3e c0 36 dc be
       -0.050602507 -0.00666522 0.26989785 -0.4301052
0001f0 31 f4 9e 3e 15 88 4e be e9 bc 9f be 72 cd 90 be
       0.31045678 -0.20169099 -0.31198815 -0.28281742
000200 29 e1 0b be 03 e9 2c 3f 7d e2 09 3e 59 20 62 bd
       -0.1366011 0.6754305 0.13465305 -0.05520663
000210 53 c5 4c 3d 28 f6 11 3e 02 73 f5 3e 54 8c d8 3d
       0.04999287 0.14254057 0.47939306 0.105736405
000220 cb ff b2 3d 07 07 c9 be e2 cc d2 3e a7 6a c4 bd
       0.08740195 -0.39263174 0.41171938 -0.09590655
000230 b1 1a 17 bf 12 d0 90 bf cb 92 6c be 33 cc 3f be
       -0.590251 -1.1313498 -0.23102872 -0.1873024
000240 c6 25 ab 3e 5d 64 d9 bd b0 78 77 3e 39 f0 0d bf
       0.33427256 -0.10614846 0.24167132 -0.55444676
000250 81 18 ca bc 83 a3 2c 3e 50 7f d8 be 21 31 3a 3f
       -0.024669887 0.1685925 -0.42284632 0.72731215
000260 44 a2 9a 3d be 23 bd 3e 33 79 01 3f 00 55 10 bf
       0.07550481 0.36941332 0.5057556 -0.563797
000270 7a 67 b4 be 6b c1 a0 3e 45 e9 0d 3e 95 95 17 3f
       -0.35235196 0.31397566 0.13858517 0.5921262
000280 43 50 0b be f3 77 0e bd d2 6d 2a 3f a9 4b c2 be
       -0.13604836 -0.03478236 0.6657382 -0.3794835
000290 be 25 17 3f 0a 1c 25 3f b7 6f 8b be 09 f6 2c 3e
       0.59041965 0.6449591 -0.2723367 0.1689073
0002a0 0b 17 2b 3f 49 5b b4 be 48 82 c2 3e 2b 7a 6a 3e
       0.66832036 -0.35225895 0.37990022 0.22898166
0002b0 4a 3d e1 3e 28 49 bb 3e 08 63 97 3e c3 5f f1 3e
       0.43992072 0.3657925 0.29567742 0.47143373
0002c0 ed 42 da 3e 55 8d 87 bd 2e 1c 7e bd 54 f3 14 3f
       0.42629185 -0.06618754 -0.062038593 0.5818379
0002d0 99 0c 89 bd 31 34 d2 bd cc a1 a3 3d 3f 9b 0b bf
       -0.06691856 -0.10263861 0.07989845 -0.5453376
0002e0 de d8 07 be 58 7f 4a bc 6f b7 0f be 6d d5 a8 bd
       -0.13266322 -0.012359463 -0.14034818 -0.08243833
0002f0 1f b2 12 bf 5b 35 1c bf 84 b1 cd 3e 92 d5 eb bd
       -0.5730304 -0.61018914 0.40174496 -0.11515345
000300 28 8b df be 11 75 12 be ac 29 20 3d 14 25 42 3d
       -0.43660855 -0.1430247 0.03910224 0.04739864
000310 12 33 88 3e ed be 41 3e a0 2e 70 be ce 28 1a 3e
       0.26601464 0.18920489 -0.23455286 0.15054628
000320 a1 61 2e 3e 02 e8 a7 bc fa 56 25 be 3a 56 22 be
       0.1702943 -0.020496372 -0.1614646 -0.15853205
000330 fb d4 d2 3d 3d 6f cf 3e d5 04 4a be 4e 2c 3a bc
       0.10294529 0.40514556 -0.19728406 -0.011363102
000340 dd 25 a7 3e 1c d6 48 be 6e 64 94 3e 73 c5 9b bd
       0.32646075 -0.19612926 0.28982872 -0.0760602
000350 2e 01 e7 3e b9 e7 c8 3e ea cf 0d bd 86 e2 c3 bd
       0.45118088 0.3923929 -0.03462211 -0.0956469
000360 cd 2d bb 3e 0c aa a7 be 44 bc 3e be 95 29 63 3e
       0.3655838 -0.32746923 -0.18626505 0.22183831
000370 c4 f4 a1 3e ff 52 a1 3e 24 f1 52 3e 8e 82 b6 3e
       0.31632054 0.31508633 0.205998 0.3564648
000380 ae 72 6f 3e b6 db 63 3e 89 ed 26 be b7 76 82 be
       0.2338359 0.22251782 -0.1630155 -0.25481197
000390 3a ad 4c 3e 1a a7 8a 3e e9 bd 4b 3e 1a 34 af bd
       0.19987956 0.27080613 0.19896664 -0.085548595
0003a0 22 4b e1 be b4 38 19 3d 6b 5f bc be e4 36 d4 bd
       -0.44002634 0.037407592 -0.36791548 -0.10362032
0003b0 cf 7d 16 be 16 87 1b 3e 6a ea 51 be ea b5 36 be
       -0.1469643 0.1518825 -0.20499578 -0.17842832
0003c0 c2 f2 59 3e 0b ff e9 be 2c 2b 06 3e c7 4c 2f 3f
       0.21284011 -0.45702395 0.13102406 0.6847653
0003d0 be 69 24 be 3a 70 91 bd 15 08 9d 3d f1 ae d2 be
       -0.16055962 -0.07101484 0.07667557 -0.41149095
0003e0 cd e2 b3 be 7b 27 a8 bd 10 9d b7 bd 63 20 80 3e
       -0.35133973 -0.08210655 -0.08965504 0.2502471
0003f0 85 01 60 be 28 ed 0c bf f1 bf 15 3e 86 a9 e4 be
       -0.2187558 -0.5504937 0.14624001 -0.44660586

lstm.bias_ih_l0 f4 [256]
000000 3d 5b a5 bd 38 11 c9 bd d7 65 b2 bc 40 4d 93 bd
       -0.08074043 -0.09817737 -0.021777077 -0.07192469
000010 24 6e c8 bd d5 97 51 bd f7 24 1f 3e 5a 1c 1f be
       -0.09786633 -0.05117019 0.15541445 -0.15538159
000020 28 1f a8 bd e9 77 87 3e a4 89 c4 bd 26 13 0f be
       -0.082090676 0.26458672 -0.09596565 -0.13972148
000030 5e d3 9c bd 88 a0 47 bb 3f 2b d1 be 7b ba 7f be
       -0.076575026 -0.0030460674 -0.40853307 -0.2497348
000040 0c ba 0e 3f c1 f1 c7 bc 29 26 f3 3b 3f df 73 3d
       0.55752635 -0.02440727 0.0074203205 0.059539076
000050 7a ce 18 3a c2 f4 01 bf 04 15 67 3e 7f 54 20 be
       0.0005829107 -0.50764096 0.2256661 -0.15657233
000060 75 ef 74 be 7e 8c 58 be 83 b9 63 3d 4c e3 99 3e
       -0.2391947 -0.21147344 0.05559684 0.30056226
000070 74 18 2f 3e 47 98 10 be 75 1c 10 be f2 34 d3 be
       0.17099172 -0.14120589 -0.14073355 -0.41251332
000080 e9 0d 25 be 2f 4c 55 be 2d c4 9e bd 27 29 3e be
       -0.16118588 -0.20829843 -0.07752261 -0.18570386
000090 e3 02 c1 bc a1 a5 30 be 96 42 e1 bc 3f 1f f6 3d
       -0.023560947 -0.17250682 -0.027497571 0.120176785
0000a0 7c f2 a2 3d e5 a5 05 3e 57 4d 1d 3d 3e 0a a3 be
       0.079564065 0.13051565 0.038403835 -0.31843752
0000b0 be 0a 20 be 81 34 f2 bd 72 1a 32 bd 85 70 e9 bd
       -0.15629098 -0.118264206 -0.04348225 -0.113984145
0000c0 2b 06 85 be ac 87 2d be ea ae 5e be 28 2a ed 3e
       -0.25981268 -0.16946286 -0.21746412 0.46321225
0000d0 cc b6 87 be 1c c5 55 be 75 8f 38 be a4 46 46 be
       -0.2650665 -0.20875973 -0.18023475 -0.19362885
0000e0 9b 36 2b be 65 fa b1 bd ef ad 25 be 39 2d d6 be
       -0.16720049 -0.08690337 -0.16179632 -0.41831377
0000f0 cb 21 50 3e 29 58 0a bf 4e ff 20 3e 4b 78 49 3e
       0.20325391 -0.5404077 0.15722391 0.19674794
000100 0f f2 27 be de 7a aa bc 63 30 aa be 8c 51 26 3e
       -0.16400932 -0.02081054 -0.3324004 0.16242045
000110 4b 4f 72 be 24 b9 a5 bd d8 4b 99 bd f6 c2 09 3d
       -0.2366306 -0.080919534 -0.07485169 0.033633195
000120 d1 5d 3c be fc 25 3b bd 5d d9 94 be cd 8b fb bd
       -0.18395163 -0.04569052 -0.29072085 -0.12282524
000130 92 65 b5 be 76 2b b2 be ef 4c 33 3e 06 96 a3 3d
       -0.35429054 -0.34798783 0.17509817 0.07987599
000140 84 c3 e3 be b4 30 f2 3d 1b 34 e3 3e ec 56 9c 3d
       -0.44485104 0.11825696 0.4437569 0.076337665
000150 a4 ec 16 be 8d 2f b2 be eb 42 65 3d e4 35 73 be
       -0.14738709 -0.34801903 0.05597202 -0.23751026
000160 85 60 9b 3d 24 8d 3e be 14 fe 0e bf a5 84 86 be
       0.07586769 -0.18608528 -0.5585644 -0.26273075
000170 19 d1 29 be 11 bc c3 bd 39 15 4e be 4f f1 d3 bd
       -0.1658367 -0.09557355 -0.20125283 -0.1034876
000180 d0 76 c3 bc ea 00 7a be 99 f6 96 be 12 1b 4a bd
       -0.023860365 -0.24414411 -0.29485014 -0.049342223
000190 ae 27 86 be b6 02 10 bf f1 e8 e3 be 92 95 82 be
       -0.26202148 -0.56254137 -0.44513658 -0.25504738
0001a0 bf b1 52 be e4 54 db be db 4e 85 3e 57 48 2f 3e
       -0.20575617 -0.42838204 0.26036724 0.17117439
0001b0 64 96 b0 be 15 48 fc be 68 80 b9 3d c8 97 ef be
       -0.3448974 -0.49273744 0.09057695 -0.46795487
0001c0 3b 7f 69 be 86 24 e3 b8 d5 a4 db 3d d4 09 b4 bd
       -0.22802441 -0.000108310065 0.107247986 -0.08790937
0001d0 37 ae 63 be 06 03 14 bc 46 3f f4 bd 35 ec 5e be
       -0.22234426 -0.009033924 -0.11926131 -0.21769793
0001e0 a2 a8 d9 be 68 51 6a be 91 1e 3c be 9f 8e 0b 3e
       -0.4251147 -0.22882617 -0.18371035 0.13628624
0001f0 cc eb 8d be 09 33 b3 be 16 fe 68 bc fb 01 3e bf
       -0.2771896 -0.34999874 -0.014220735 -0.7422177
000200 39 00 96 bd 02 84 91 3d bb 5b a6 3c 40 6c 70 bc
       -0.07324261 0.071052566 0.020307412 -0.014674246
000210 c4 c9 81 3e 0d 2f f4 bc d7 36 1d be 0e de 57 3d
       0.25349247 -0.029807592 -0.15352951 0.052702002
000220 26 85 38 be d0 22 84 3e 66 05 e0 bc c7 f0 30 3d
       -0.18019542 0.2580781 -0.027346324 0.043198373
000230 8a 79 16 3e 3c 44 88 be d5 2b 92 3c 96 b5 47 3e
       0.14694801 -0.2661456 0.017843166 0.19502863
000240 0f c8 e8 3d b7 88 54 be 4b 50 5d be f2 e1 cf bd
       0.11366283 -0.20755278 -0.2161266 -0.101505175
000250 14 a8 97 bd 9f e3 3d 3e 52 f3 20 3e de f5 40 3e
       -0.07405105 0.18543862 0.1571782 0.18843791
000260 54 b6 fd bb 50 b6 46 3e ae 46 22 3c f0 e0 8c 3e
       -0.0077426825 0.19405484 0.009904547 0.27515364
000270 73 82 04 3e a9 f0 2a 3e 72 dd 80 3d 51 b4 35 3e
       0.12940387 0.16693367 0.06292237 0.17744567
000280 45 06 15 be ff 4e c4 3d 28 30 1b 3c 60 63 21 3d
       -0.14553173 0.0958538 0.009471931 0.039401412
000290 89 19 28 be 91 b6 8b 3b 09 ec 66 3c 8d 8f 1b be
       -0.16415991 0.004263707 0.014094361 -0.15191479
0002a0 d6 96 65 be ea 72 61 3e 96 9a 73 3e d5 f8 3a bd
       -0.2242082 0.22016492 0.23789439 -0.04564746
0002b0 92 37 19 be 0d 27 a0 3e 8e 4e 7a be 88 9f 69 be
       -0.14962605 0.31279793 -0.24444029 -0.22814763
0002c0 1a 78 1f 3d 3e 49 17 3e 3b 62 ed bd 30 c4 75 3d
       0.038932897 0.14774033 -0.115910016 0.060001552
0002d0 f1 fe 95 3d 71 15 a3 3c 72 3f 47 3e 0e d6 17 3c
       0.07324017 0.019907685 0.19457796 0.009267343
0002e0 f8 cb 34 bd 09 89 db 3d 8a 1b 0a 3e b3 af 0d 3e
       -0.044139832 0.10719497 0.13487068 0.13836555
0002f0 66 91 07 3d a6 05 38 3d 9f 51 fa bd 1f cf 54 be
       0.033097647 0.04492726 -0.12222599 -0.20782135
000300 6e 15 5a be c9 96 d6 bc 82 71 a9 bd 8e bf 87 bd
       -0.21297237 -0.026194947 -0.08273603 -0.06628333
000310 76 c9 be bd 3d 50 c5 bb d2 7a 04 3d ef 67 a0 bd
       -0.093157694 -0.006021528 0.032343693 -0.07832324
000320 0e 49 45 bd b7 b3 e9 3d 0a 8a 4a 3e eb 23 91 bd
       -0.048165374 0.11411231 0.1977922 -0.07086929
000330 d4 62 30 bd 96 f4 53 bd 16 5b fa bd 2c b9 4e be
       -0.043063 -0.051746927 -0.122244045 -0.20187825
000340 d9 97 7d 3e 99 cd ac bd af 7c fe bd 76 23 53 b8
       0.24764957 -0.08437652 -0.12426125 -5.0339346e-05
000350 ac ee 11 be cf bd 22 be d1 e2 bd bd 5d 61 03 be
       -0.14251202 -0.15892719 -0.092717774 -0.1283011
000360 84 19 c0 be a3 90 87 3c 9b c6 b2 3d 17 e2 a2 3e
       -0.37519467 0.01654846 0.08729287 0.31813118
000370 18 0a 7e 3e 6d a0 12 be ae db 3b 3e d8 73 d5 bd
       0.24808538 -0.1431901 0.1834552 -0.10422486
000380 5e d5 f6 bd 11 ab 90 be eb 07 55 be 6a 49 3d be
       -0.12052415 -0.28255513 -0.20803802 -0.18485036
000390 1e c6 87 3d 9e 89 2a be b8 ed b4 bc 32 6e 86 3e
       0.06629585 -0.1665406 -0.02208601 0.26255947
0003a0 45 39 e5 bd 26 3c ea bc 8e ac 1c 3d 59 88 e7 bd
       -0.11192564 -0.028593134 0.0382505 -0.11305303
0003b0 11 f2 80 be e0 9d 22 bb 09 06 c8 3d b1 12 27 be
       -0.25184682 -0.002481334 0.09766776 -0.16315724
0003c0 51 6c c5 be 40 6c a4 bc aa 89 c8 bc 80 ed b0 3e
       -0.385592 -0.020071149 -0.024479706 0.34556198
0003d0 fb 9e cb be 2e d7 c2 3d 51 83 0c be 6d 31 9a 3c
       -0.3976973 0.095136985 -0.13721968 0.018822396
0003e0 93 ab af be 73 ac f4 bd d6 32 9c be fb 20 1e be
       -0.34310588 -0.119469546 -0.30507535 -0.15442269
0003f0 4a ee a7 bd b6 b5 95 be 02 88 15 3e d6 c3 8e 3e
       -0.08199747 -0.29240197 0.14602664 0.27883786

lstm.bias_hh_l0 f4 [256]
000000 4a 98 48 be 20 0b 73 bd fd ab 45 bd 1a c7 9b 3d
       -0.19589344 -0.05933678 -0.048259724 0.07606335
000010 06 f9 8e bd fc 94 17 bc 23 ef a7 bd 20 d1 96 be
       -0.06981091 -0.009251829 -0.081999086 -0.29456425
000020 9d 79 ac bd 58 d5 2f 3e 2b a0 9a bc 65 49 9a 3b
       -0.084216334 0.17171228 -0.018875202 0.0047084563
000030 c5 db 1b bd 0d d2 0c bd f1 bc a1 be 9e c1 87 be
       -0.038051385 -0.034380008 -0.31589463 -0.26514906
000040 0c 36 13 3f cf ba 1e 3e 65 7a f1 3c a5 18 2e bd
       0.57504344 0.1550095 0.029477308 -0.04250397
000050 08 59 05 be bd 04 04 bf 39 d0 c4 3d 99 f1 a8 be
       -0.13022244 -0.5156973 0.09610028 -0.32996824
000060 ff 2d e2 bd 79 29 2c bd 18 1e 7d bd be 57 cd 3e
       -0.11043929 -0.04203174 -0.061796278 0.40106004
000070 14 41 54 3e ac 1e a1 bd 86 4b ff bd 9c af af be
       0.2072795 -0.07867178 -0.12465577 -0.34313667
000080 31 9b 37 be 71 df 4b be 3d 9c 05 be 81 34 4e be
       -0.17930295 -0.19909455 -0.13047881 -0.20137216
000090 30 c2 a7 bd 6d 12 8a be 28 19 16 3c e6 76 a1 3e
       -0.08191335 -0.26967183 0.009161271 0.31536025
0000a0 48 9f c6 3d 3a 46 a4 bd bd a6 c7 3c d0 54 83 be
       0.09698349 -0.08021207 0.0243715 -0.25650644
0000b0 fc b1 7b bc e7 96 a8 bd 21 b3 e9 3d 87 ac 1b be
       -0.015362259 -0.08231907 0.11411119 -0.15202533
0000c0 2d 71 b4 bd d6 4e b4 bd ec e0 56 be a8 9b 08 3f
       -0.08810649 -0.08804099 -0.20984238 0.5336251
0000d0 ed ad 45 be cc 89 3b bc dc 7d 51 bc 9e a2 68 bd
       -0.19304629 -0.011446428 -0.012786355 -0.05679571
0000e0 29 91 b5 be f2 7c 33 bd cf 95 73 be 8b e4 df be
       -0.3546231 -0.04382033 -0.23787616 -0.43729052
0000f0 2b 23 1b 3e 30 cf fc be a9 23 a2 3e 0c c7 aa 3e
       0.15150134 -0.49376822 0.31667832 0.33354986
000100 66 50 74 be b5 4e 95 bd 74 9c b4 bd 42 d1 15 3d
       -0.23858795 -0.07290403 -0.088189036 0.036576517
000110 ae 52 5f bd 18 0c e2 bd 14 29 34 be a5 8c 4b bd
       -0.05452221 -0.11037463 -0.17593795 -0.049694676
000120 46 8e f1 bc 87 dc e9 bc 80 39 7a be b3 87 5c bb
       -0.029486787 -0.028547538 -0.24435997 -0.003365022
000130 e0 3b 86 be f3 c5 f2 be 6e d5 fb 3d a4 1f e8 3d
       -0.26217556 -0.47416648 0.12296568 0.1133416
000140 db 67 0d bf 36 be ea 3d 2a fd 0d 3f eb 4f 66 bd
       -0.55236596 0.11462061 0.5546442 -0.05622856
000150 6f d2 63 be fa 61 0a be ef ec a2 3d 3e 7b 1c bc
       -0.22248243 -0.13513938 0.07955348 -0.009550868
000160 02 9d 5f 3e 21 15 5c bd 74 84 12 bf 15 59 56 be
       0.21837237 -0.053731088 -0.5723336 -0.2093242
000170 3f aa b4 be 82 e1 6f bd 31 3a 88 be 18 a2 18 be
       -0.35286137 -0.05856467 -0.26606897 -0.14905584
000180 3b b0 1e be 92 80 e6 be 02 9e 5a be e9 d7 01 bd
       -0.15496914 -0.45019966 -0.21349338 -0.03170005
000190 8a 9f 9c be 8b f4 f0 be 83 ef e5 be 5f 0b 2a be
       -0.3059047 -0.4706157 -0.44909295 -0.166059
0001a0 47 1b 93 bd f2 ff 9c be a2 1c 7d 3e 0f 0e 8c 3e
       -0.07182937 -0.3066402 0.24717954 0.27354476
0001b0 72 98 99 be d2 5e 19 bf 7f db e2 bd 1a 42 f0 be
       -0.2999912 -0.5991031 -0.11077022 -0.4692543
0001c0 22 72 85 be ff f1 3d bd f7 e9 05 3e 54 0b a5 bd
       -0.2606364 -0.046373364 0.13077532 -0.08058801
0001d0 40 0b a4 be c9 69 c3 bc 0a 16 47 be 79 40 79 be
       -0.32039833 -0.023854153 -0.19442001 -0.24341
0001e0 95 71 f1 be 98 a0 9b be 6d 5d 2f be e6 07 e6 3d
       -0.4715697 -0.3039596 -0.17125483 0.11231975
0001f0 76 55 4f be dc 13 51 be 99 e1 19 be b3 d3 1c bf
       -0.20247445 -0.20417732 -0.15027465 -0.6126053
000200 b5 28 52 bd 6f 08 d0 3d a2 ef 34 be bc 78 99 bc
       -0.051308353 0.101578586 -0.17669538 -0.018734328
000210 22 9e 9b 3d 86 11 2c 3e 91 76 04 be cb fd 0c be
       0.07598521 0.1680356 -0.12935854 -0.1376869
000220 20 ed 1a be 67 7f 4e 3e 28 c7 0c 3e db 43 94 bd
       -0.15129519 0.20165788 0.13747847 -0.07239505
000230 3a ab 45 3c 08 83 21 be 25 2f 07 3e b7 5f 9c 3d
       0.012064749 -0.1577264 0.13201578 0.07635444
000240 20 e6 66 3e 5d b4 5e be 91 62 1c be 9d 8c 02 be
       0.22548723 -0.2174849 -0.15271975 -0.12748952
000250 7d 78 2e be bc fd 90 3e a6 ae 80 3c 44 13 1f 3e
       -0.1703815 0.28318584 0.015708279 0.15534693
000260 07 f2 d6 3d 89 5c 8b bb 1b e7 d5 3d 01 e6 5f 3e
       0.10495382 -0.0042529744 0.104444705 0.21865083
000270 60 88 cd 3d 89 25 4c bc b7 d8 39 3e eb da 16 3e
       0.10035777 -0.012460121 0.18149076 0.14731948
000280 82 4b 8e bc f2 22 72 3d 91 d8 40 3e e2 3f 3f be
       -0.01736999 0.059115358 0.18832614 -0.18676713
000290 28 5e a6 bc e0 38 78 3c a1 0c 68 3d 19 d4 4e be
       -0.02030857 0.015150279 0.05665267 -0.20198096
0002a0 c2 e4 b9 bd 90 a7 3c 3e fe f9 19 3e 80 c9 6a be
       -0.09076835 0.18423295 0.1503677 -0.22928429
0002b0 2b d9 5b bd 71 8c ad 3e 93 d0 e1 bd 32 ff 2c be
       -0.053673904 0.3389621 -0.110261105 -0.16894224
0002c0 8a eb 91 bd b8 00 89 3d de bc 19 bc 65 8c 02 3e
       -0.07125004 0.0668959 -0.009383408 0.12748869
0002d0 b9 6e c2 3c c9 e8 cc bd 2d 3f 30 3b 49 98 32 be
       0.023734437 -0.10005338 0.0026893124 -0.17440905
0002e0 7e 2f 8e 3d 5d 3f 8c 3e 06 1d 96 3c 7c 34 48 3e
       0.06942652 0.27392092 0.018324386 0.19551271
0002f0 72 d8 9f 3d 26 6e d2 bd c1 55 27 bc 02 d3 97 be
       0.078049555 -0.102749154 -0.010213316 -0.29653174
000300 66 57 0e be 19 d2 c7 3c 07 26 9f be 22 dc d3 3d
       -0.13900527 0.024392175 -0.310837 0.103447214
000310 c7 31 1c be 6f 65 ef 3b 8f 3b e0 bc ac fb 02 be
       -0.15253364 0.007305793 -0.02737215 -0.12791318
000320 8e 49 85 3d e1 28 4e 3e 94 41 4a 3e c4 95 22 be
       0.0650817 0.20132782 0.19751579 -0.15877444
000330 12 41 e7 3d 34 40 2e bd 8c b9 d3 bd da cf b8 bd
       0.11291708 -0.042541698 -0.10338125 -0.090240195
000340 8c 11 8d 3e 70 dc 77 bc 78 02 dd bd 3b a5 8c 3c
       0.2755245 -0.01512824 -0.107914865 0.017168632
000350 80 cf 9d be 11 77 59 be 28 21 6d bd b2 a0 aa be
       -0.30822372 -0.21236826 -0.05789295 -0.33325726
000360 a4 f4 c7 be fc bf 05 be e1 44 3f 3e b5 d5 06 3f
       -0.39053833 -0.13061517 0.18678619 0.5266984
000370 03 92 98 3e 48 b9 88 be 9b 08 6d 3e 03 bd a0 be
       0.29798898 -0.26703858 0.23147814 -0.31394204
000380 2b 77 77 3d c1 4c d2 be ae da f4 bd 8d 58 75 be
       0.06041638 -0.41074184 -0.11955772 -0.2395956
000390 46 12 ef ba 3e ed 58 be b4 5f 4c 3d 59 ab b0 3d
       -0.0018239699 -0.2118425 0.049895957 0.08626432
0003a0 75 3c 28 3c 5a 3d 4d bb b9 2a 12 3d 59 30 91 bc
       0.01026832 -0.0031317086 0.035685275 -0.01772325
0003b0 83 13 e0 bd a4 4b 9f bd 25 fa 2e bd 60 c4 36 be
       -0.109412216 -0.07778099 -0.042719025 -0.17848349
0003c0 b7 c7 36 be 35 2f 11 3d ec da ab bc 3b b4 04 3f
       -0.17849623 0.03544541 -0.020978414 0.5183751
0003d0 dd 1b e3 be c8 f7 23 3d 46 3e 12 be 20 db f6 3c
       -0.44357195 0.040031224 -0.14281568 0.030133784
0003e0 cc c6 7a be 5c c8 ff bd c9 34 79 be 87 ea 9a 3d
       -0.24489897 -0.124893874 -0.24336542 0.07564264
0003f0 02 9d d1 bd 5c 68 b3 be 82 93 6c 3e 22 89 10 3e
       -0.10235025 -0.35040557 0.23103145 0.14114812

lstm.weight_ih_l1 f4 [256, 64]
000000 84 5f 4d 3e e6 44 0d 3e 4b 61 73 3d 39 f6 34 3e
       0.20055968 0.13795814 0.059418958 0.17672051
000010 9a ef 0f bf 82 9d d9 be 6c 36 b3 3c cf d0 71 3e
       -0.5622498 -0.4250298 0.021876536 0.2361481
000020 30 06 f9 bc 1a 37 4e be 1c 7f db bd fe fa ae 3e
       -0.030398458 -0.20138207 -0.107176036 0.34175867
000030 7a 3a 95 3e 17 1f 22 be 01 d8 d2 3e 90 38 f9 3e
       0.29146177 -0.15832172 0.41180423 0.48675966
000040 7f 9d 09 be a1 1d 9f be ed c0 08 3e e4 d0 a6 3e
       -0.13438986 -0.31077293 0.13354845 0.32581246
000050 ce f0 c5 3e 35 56 09 bf 29 38 22 be 2a 2c 3f be
       0.38660282 -0.53647166 -0.15841736 -0.18669191
000060 60 18 37 3d 2f 8e 91 bd 4f b6 ac be c3 03 d7 bd
       0.04470098 -0.071071975 -0.3373284 -0.10498764
000070 7b cd a6 3e 2c 34 13 3d 09 13 20 3f 98 6f 87 bd
       0.32578644 0.035938427 0.62529045 -0.06613082
000080 4e 64 98 3d 3e a7 83 be 30 79 c6 bc d9 87 21 be
       0.074410066 -0.25713533 -0.024227709 -0.15774478
000090 9f 06 10 bf 88 40 30 3d e8 2d d5 bd 4c a7 62 be
       -0.56260103 0.04303029 -0.104091465 -0.22134131
0000a0 e8 e8 0b be 4a 62 60 3e ce 50 bc be 2c 7e 57 be
       -0.13663065 0.21912494 -0.367804 -0.21044225
0000b0 fb 8d 1d bc ab ee e4 3d 57 5a b8 3e 6b 7d 30 bd
       -0.00961637 0.11178335 0.36006424 -0.043088358
0000c0 0e 9d ea be a5 89 3e 3d b7 5e d5 3d da 0e 84 3e
       -0.45822948 0.046517987 0.10418456 0.2579258
0000d0 31 9a a5 3e 87 24 84 3e 05 ed 40 3e b5 ff 9b be
       0.323442 0.25809118 0.18840416 -0.30468526
0000e0 19 86 0c 3e af 3c a3 3e 20 c7 3c be 9a 30 12 3e
       0.13723029 0.31882235 -0.18435335 0.14276353
0000f0 fd ea 59 3e c1 9e c6 be 38 7f 83 be 04 3b d1 3e
       0.21281047 -0.38792995 -0.25682998 0.40865338
000100 85 34 0d 3f 1b 5c b4 3e da 46 90 bd 29 99 cf 3e
       0.55158263 0.3522652 -0.07044764 0.4054654
000110 57 83 69 bf 54 83 9e bd 81 68 c2 3e 35 f6 a4 3d
       -0.91216034 -0.077398926 0.37970355 0.08054773
000120 a9 4c 9d 3e 93 74 67 3e 1e d9 9f bd b7 96 e5 3e
       0.3072255 0.22603063 -0.07805084 0.4484155
000130 b8 f6 0c 3f 6a 25 b0 3d a5 f5 0e be d4 80 da 3b
       0.5506396 0.08600886 -0.13960893 0.0066681895
000140 ee 9a 78 3e 12 7b 9a be 19 68 a7 bd e7 38 54 bd
       0.24277851 -0.3017202 -0.08174152 -0.05181208
000150 a3 c4 a4 3d ec 01 fa be 28 17 1f 3d 12 f1 08 3e
       0.08045318 -0.4882959 0.038840443 0.13373211
000160 e9 ea 20 bb 5c 3a ea 3e e3 62 74 be 89 00 49 3f
       -0.002455408 0.4574765 -0.23865847 0.7851644
000170 84 10 09 3f 04 1d de 3c 51 4c cd 3e 84 b2 0c 3e
       0.53540826 0.027113445 0.40097287 0.13739973
000180 1e 27 46 3e 74 12 18 bf 9b c5 8d 3e dd 8b f0 3c
       0.1935086 -0.5940316 0.27689824 0.029363567
000190 c8 cc 55 bf 2e 65 9b 3d aa 18 27 3f 53 40 0c bf
       -0.83515596 0.07587658 0.6527201 -0.5478565
0001a0 d0 e0 bf be 1f 89 c3 3d 77 f3 4b 3e e3 8b 04 3e
       -0.37476206 0.09547638 0.19917093 0.12943988
0001b0 ab c7 e6 3d 32 43 95 3d cd e1 6f 3e f9 1e 03 3f
       0.112685524 0.07288207 0.2342598 0.51219136
0001c0 da 10 6c bf a3 68 37 3d 2e 71 e7 be 92 09 7f bd
       -0.92213213 0.044777524 -0.45203537 -0.062264986
0001d0 a3 91 89 be 00 d9 75 3d c4 e4 19 bf 4d 4f c0 3e
       -0.26868924 0.0600214 -0.60114694 0.37560502
0001e0 69 84 07 3f 3b e4 74 3d 98 cf 6b 3e 96 73 03 3d
       0.52936417 0.05978797 0.2302841 0.032092653
0001f0 e2 a6 04 3f 9e 70 23 3f 53 8d 00 be 64 ab 81 bd
       0.5181714 0.63843715 -0.12553911 -0.06331518
000200 cf 34 23 3e ec 21 80 3e 00 e2 9f be 2b 43 16 3f
       0.15938114 0.2502588 -0.31227112 0.5869624
000210 19 cd 49 be 92 86 39 bf eb 38 9a bd a9 20 0b be
       -0.19707145 -0.72470963 -0.075303875 -0.13586678
000220 5d 1d 67 be 8f dc ad 3e 67 88 a1 3d a7 e1 ae 3d
       -0.22569795 0.33957335 0.07887345 0.085391335
000230 f2 00 56 3e 1d 20 b3 be 2a fd 07 3f b1 1b 3f 3f
       0.20898798 -0.34985438 0.5312067 0.7465163
000240 e2 98 48 be 45 88 b0 3c d7 f0 c1 3e b2 6a 07 3e
       -0.1958957 0.021549353 0.3787906 0.13224295
000250 61 5c bb be ce ed 59 be 21 26 b9 3e b4 d4 29 3e
       -0.36593917 -0.21282122 0.36161903 0.16585046
000260 96 a3 53 be 16 11 09 3e 12 5b 17 3f cf 25 3f bc
       -0.20667872 0.13385424 0.5912334 -0.011666729
000270 6c cc f3 3e d2 07 c6 be 8c 20 2a be 05 f3 61 3e
       0.476169 -0.3867784 -0.16613978 0.22065361
000280 1b 09 b4 3e f3 e1 6f be bb 50 98 be 5c 8b 09 3f
       0.35163197 -0.23426037 -0.29749092 0.5372827
000290 8f 65 82 be 7a 1d 29 bf 06 8a 3c bd 55 51 b8 bd
       -0.25468108 -0.660606 -0.046030067 -0.08999888
0002a0 39 15 42 bc 65 02 5e be 61 7a c4 3b 4b f4 e6 be
       -0.01184588 -0.21680601 0.005996034 -0.45108256
0002b0 be 28 63 be 43 a2 92 3e ce c2 97 3e f5 29 e7 3d
       -0.2218351 0.2863942 0.29640812 0.112872995
0002c0 f4 a5 2b 3d ff d6 7f 3d d3 04 4a 3e bf c4 68 be
       0.041906312 0.062460896 0.19728403 -0.22731303
0002d0 6d fc 2e 3f 38 23 cc 3e 40 6b d3 3e 1e e5 bc 3d
       0.6835392 0.3987062 0.41292763 0.09223388
0002e0 1d 43 eb bd 24 40 22 3f 10 d6 94 be be 54 cd 3e
       -0.1148741 0.6337912 -0.29069567 0.40103716
0002f0 74 d3 d6 3e 37 75 ed bc 81 67 f4 be ea b1 dd 3e
       0.419582 -0.028986556 -0.47735217 0.432998
000300 92 e4 25 be e4 9b 6d be 6c 10 3a 3e bf 2c af 3e
       -0.16200474 -0.23203999 0.18170327 0.34213826
000310 df 91 76 be 11 64 ad be 68 b6 06 3f e9 ab 80 bc
       -0.24079083 -0.33865407 0.5262208 -0.015706973
000320 4a 95 30 be 74 63 93 3e 96 8d 93 be 82 bc 33 3e
       -0.1724445 0.28786814 -0.2881896 0.17552379
000330 5f 80 03 3f 32 58 51 be aa cb 0a 3e e3 75 fc bd
       0.51367754 -0.204438 0.13554254 -0.123271726
000340 ef 5a 46 ba 0f b5 a0 be 8c 2c 74 be 0d 15 89 3e
       -0.0007566651 -0.31388137 -0.23845118 0.26773873
000350 03 79 a1 bd 48 ef d6 bd 71 9a 95 3e db 99 9c be
       -0.07884409 -0.10494858 0.29219392 -0.30586132
000360 a6 51 b6 bd 34 75 40 3e 7c 3c 4b bc 3a e1 35 3f
       -0.08902292 0.1879471 -0.012404557 0.71046793
000370 a4 8d de 3e 1f 4a 34 bf ff 33 8b 3e e4 35 bd 3c
       0.43467438 -0.704256 0.27188107 0.023096986
000380 dc 4e c7 be 1c 6e 80 3e ba 46 76 be e1 a5 0b bf
       -0.38927352 0.25084007 -0.24050418 -0.54549986
000390 55 fe b7 bc d1 22 90 be 39 f3 98 3e 42 39 9b be
       -0.022460142 -0.28151563 0.29873064 -0.30317122
0003a0 98 80 41 bf 2c de 35 3e 26 32 a6 3d 19 d1 e1 be
       -0.75586843 0.17760533 0.08115034 -0.4410484
0003b0 ac 42 00 bf 8c fc 9d 3e 0a f2 5c be 48 b8 99 bd
       -0.50101733 0.3085674 -0.21576706 -0.07505852
0003c0 e4 32 ff be b8 aa ad 3c 7b ed 05 be df 51 5c 3e
       -0.49843514 0.02119957 -0.13078873 0.21515606
0003d0 eb a3 ae 3e fd 3b 0f 3f 50 83 af be 73 98 83 3c
       0.34109434 0.5595091 -0.3427987 0.016063904
0003e0 c3 64 e3 bd 30 c9 8b 3e 14 42 9a be 2e 92 2b 3c
       -0.11103203 0.2730193 -0.3012854 0.010471864
0003f0 0f f1 b1 3e 08 3a cb 3a e0 02 72 3e 70 fb 9a be
       0.34754226 0.0015504966 0.23633909 -0.30269957

lstm.weight_hh_l1 f4 [256, 64]
000000 12 ff c6 bd ac bd 0d 3f 88 12 29 be fb 19 8d 3e
       -0.097166196 0.5536754 -0.16510975 0.27558884
000010 1f c6 f4 bd 94 db 8e 3e d1 ae 14 bf 6e c8 85 bd
       -0.11951851 0.279019 -0.5807925 -0.065323696
000020 4b ce 75 be da d6 f0 bc 0c 0d 80 3e 26 d2 72 bf
       -0.24004476 -0.029399324 0.25009954 -0.9485191
000030 0d f3 fd 3e b4 91 c2 3d bf cb c4 3d b3 b1 4c 3c
       0.49599496 0.09500447 0.09609174 0.012493539
000040 7f d4 6f bf e9 ca c0 be 45 a3 27 bf b6 5b 9c bf
       -0.9368362 -0.37654808 -0.65483505 -1.2215488
000050 ff 43 83 be ee 15 82 be 46 06 38 bf d3 8a 9f be
       -0.25637814 -0.25407356 -0.7188457 -0.31160602
000060 9a 19 55 3f 72 00 f2 be 2a 55 d5 3e ec ea 4a 3e
       0.8324219 -0.47265965 0.41666538 0.19816178
000070 ac b8 36 be e7 2c ce 3e 88 be 3b 3f 46 2b 4c bf
       -0.17843884 0.40268633 0.733376 -0.7975353
000080 e2 4b b3 be 9e 74 0a bf 53 8b 5a bd 0c 19 6c bc
       -0.35018831 -0.54084194 -0.053355526 -0.0144102685
000090 99 27 0f be 9a c3 a9 be 37 d9 5e bd 93 e1 d8 be
       -0.13979949 -0.33157045 -0.05440637 -0.423596
0000a0 42 8e d9 bb 01 94 05 bf b8 43 98 3e c3 6c 11 3f
       -0.006639273 -0.5217896 0.29739165 0.5680658
0000b0 f5 92 ef be 9c 95 16 3f 60 77 ae 3e be de 9f be
       -0.46791807 0.58822036 0.3407545 -0.31224626
0000c0 0b 8b 35 be cb ca 31 bf af d2 c3 3e cb 6a 0a 3f
       -0.17728822 -0.6945006 0.38246676 0.54069203
0000d0 a6 8c 9b bc 36 9f 67 be 60 e6 0e 3f 82 c1 12 bd
       -0.018987965 -0.22619328 0.55820274 -0.035829075
0000e0 37 2c aa 3e f2 19 da bd 24 4f db be 38 10 5e 3e
       0.33236858 -0.1064948 -0.42833817 0.21685874
0000f0 53 cf 94 3e 8c 64 88 be d2 2a 38 be 3c 67 9b be
       0.29064426 -0.2663921 -0.17985085 -0.303522
000100 52 92 2a 3e ce c1 99 3e cc ac 1b be 42 da d2 3e
       0.1665738 0.30030674 -0.15202636 0.41182142
000110 46 af 57 3d fb 4d 4b 3d 28 f9 1a 3e aa be fe bd
       0.05265739 0.049634915 0.15134108 -0.1243871
000120 5c 2b 7c 3d 37 98 eb 3e 92 31 58 be 5f 0b 00 3f
       0.06156479 0.46014568 -0.2111266 0.5001735
000130 fc 08 96 be 4a 62 ac bb f8 36 a3 3d 82 25 07 3e
       -0.2930373 -0.0052607404 0.07969469 0.13197902
000140 11 f6 8b be a2 17 58 3e 73 5b fa 3d e7 4f 84 be
       -0.2733617 0.21102765 0.12224474 -0.2584221
000150 26 e0 63 be a1 eb 19 be c1 99 ea 3c d4 0a 27 bf
       -0.22253475 -0.15031292 0.028637769 -0.652509
000160 4a b1 d2 3e fa ac 99 be a8 07 cb bd 9d da 64 3e
       0.41150886 -0.30014783 -0.0991357 0.2234902
000170 7e 7f 35 3e e8 da d2 be 2d 43 14 3e 5f e1 bc be
       0.17724416 -0.41182637 0.1447875 -0.36890694
000180 2b a3 0d 3e 1f b6 d7 be 93 3c 7e be 88 b8 f0 3e
       0.13831775 -0.42131135 -0.24827795 0.47015786
000190 e6 80 10 3f d2 e5 e1 be a4 a0 f6 3e e5 89 db bd
       0.56446683 -0.4412065 0.48169434 -0.10719661
0001a0 10 3e 95 be a7 37 64 3e 90 9b b6 bd a9 3c 8f be
       -0.29148912 0.22286855 -0.0891639 -0.27975968
0001b0 70 1b 36 3e 72 ab f1 3e b0 ca f7 be ef 7c 0c 3f
       0.17783904 0.47201115 -0.48396826 0.54878134
0001c0 bc 85 ff bd c8 75 f5 bd 59 50 5f be e5 a6 75 bd
       -0.1247668 -0.119853556 -0.21807994 -0.059973616
0001d0 fd cf 8f be c6 5d 05 3e 26 93 99 3e 03 73 3b bd
       -0.2808837 0.13024053 0.29995078 -0.04576398
0001e0 22 66 6b bc 4e ff f9 bd 0f 12 51 be 7c cd 81 3e
       -0.014367612 -0.12206899 -0.20417045 0.25352085
0001f0 d0 06 12 bd 84 b6 22 bd d9 7c 06 bd 07 20 e7 be
       -0.03565103 -0.03972484 -0.032833908 -0.45141622
000200 43 10 ab 3e b0 59 6d 3d 2e c5 33 be fc e1 4d 3e
       0.33410844 0.05794686 -0.17555687 0.20105737
000210 ff e4 ad 3c bb 17 06 3f cf 81 c0 bd af 8f f3 bd
       0.021227358 0.5237996 -0.09399759 -0.1189264
000220 f2 5a 09 bf 9a 80 c0 3e 1d ec b1 be 9e 16 9b 3e
       -0.53654397 0.37598115 -0.34750453 0.30290693
000230 d9 db 0c bd dd 48 a0 3e b9 c7 87 3e 1e a8 ff 3e
       -0.03438935 0.3130559 0.26519564 0.4993295
000240 b9 a7 03 be 2d 8a 0a bf 6f b4 14 be 44 32 83 3b
       -0.1285695 -0.5411709 -0.14521955 0.004003795
000250 19 9c 5c 3f 06 06 27 3e d8 aa 93 be 3e 1c 0a bf
       0.86175686 0.16310892 -0.2884128 -0.53949344
000260 55 d7 11 3f 99 c1 75 bd 99 4a c9 3e e9 70 35 3e
       0.56969196 -0.059999082 0.39314726 0.17718853
000270 a7 ea 13 3f ca 3c 01 3f 53 eb c2 bc d6 c6 82 3d
       0.57779926 0.5048338 -0.023793852 0.06385581
000280 3f 98 bd 3e cf 11 32 3f 29 b0 5f be 6a 2c 1b 3f
       0.37030217 0.69558424 -0.21844544 0.60614645
000290 41 7c 06 3f 39 24 f0 be 13 f3 60 3e f5 ee 65 bf
       0.52533346 -0.46902636 0.21967725 -0.89817744
0002a0 17 54 aa be f1 94 46 3f ec 64 b4 be 83 2b 1b be
       -0.3326728 0.77571017 -0.35233247 -0.15153317
0002b0 6d b5 de be 53 da 10 3f f2 c4 8b bf 96 d9 35 be
       -0.43497792 0.56583136 -1.0919478 -0.17758784
0002c0 9e 33 c7 bc d6 83 10 3f b8 f6 c0 3e 5e 68 11 bf
       -0.024316605 0.56451166 0.3768823 -0.56799877
0002d0 32 53 20 bf 00 72 cb 3e 1e 64 74 3e 10 9e b6 3e
       -0.62626946 0.39735413 0.23866317 0.35667467
0002e0 c1 23 42 bf 34 26 07 3e 18 cd ff 3e f2 83 27 be
       -0.75835806 0.13198167 0.49961162 -0.16358927
0002f0 47 df 11 bd ec c2 4d bf fa 83 24 be 56 2f ff be
       -0.035613324 -0.8037555 -0.1606597 -0.49840802
000300 06 fb 0f 3f a9 6e bc be 0f b9 2d be e7 f9 07 3e
       0.56242406 -0.36803177 -0.16965126 0.13278924
000310 d9 9f 1e bf 29 63 81 3f 3e aa 4a be 34 a0 18 bf
       -0.6196266 1.0108386 -0.19791505 -0.5961945
000320 55 ba 9c be cc ba 18 3f 65 f6 71 be 93 ad e9 3c
       -0.3061091 0.5966003 -0.23629148 0.02852515
000330 10 d7 d8 bd 00 92 4b 3e 1b 02 45 3d fa 1a 18 3f
       -0.10587895 0.19879913 0.04809771 0.5941616
000340 0d 84 a2 be a1 8e e3 3e 40 aa a7 be 70 0a 2f bd
       -0.31741372 0.44444755 -0.32747078 -0.042734563
000350 8e 44 d9 3c 9a da a7 3e cc 66 45 be 44 16 e2 3d
       0.026521947 0.32783967 -0.19277495 0.11039403
000360 33 3d 74 bd 90 05 2a 3e 68 3a 2b be 3b 18 bd 3e
       -0.059628677 0.16603684 -0.16721499 0.3693255
000370 7f d3 07 3e f5 46 bb 3e b7 90 1d be 08 51 1d be
       0.13264273 0.36577573 -0.15387236 -0.15362942
000380 16 1e b4 3e 48 af f4 bd 3e 8f 14 be ff 3e e8 3e
       0.35179204 -0.11947495 -0.14507768 0.45360562
000390 cf 5e e4 3e e4 48 e1 be 6b b8 e5 3e 39 ae 89 be
       0.44603583 -0.44000924 0.44867262 -0.26890734
0003a0 36 38 2a bf 2b 4a 3e bd d1 a1 de be c7 16 8b 3e
       -0.6649202 -0.04645745 -0.4348283 0.27165815
0003b0 c2 f4 4e be e1 cb 13 3e 1f 33 0c bd f9 0e 47 3e
       -0.20210555 0.14433242 -0.03422844 0.19439305
0003c0 c9 d8 7f 3e ee ce 81 bd 19 92 5e 3e fd f1 05 be
       0.2498504 -0.06338297 0.2173542 -0.13080592
0003d0 8f f4 80 be ca d4 83 3e 1b 69 29 be 86 c4 66 3e
       -0.25186583 0.25748283 -0.16544001 0.22535905
0003e0 03 8f b3 be e2 b1 9a 3e 8e 9e d6 bd e6 48 02 bd
       -0.35070047 0.3021384 -0.10479461 -0.031807803
0003f0 07 df 58 3e 9f f9 a3 bd 54 c6 17 3e d3 77 83 3e
       0.21178828 -0.08006596 0.1482175 0.25677356

lstm.bias_ih_l1 f4 [256]
000000 32 e1 1a be 34 77 80 be e1 63 ed 3e d6 da 09 bd
       -0.15124968 -0.25090945 0.46365264 -0.033655964
000010 84 bb 97 be 24 9a c2 3d de 6a c7 3d 5f d3 62 bd
       -0.2963525 0.09502056 0.0973718 -0.05537736
000020 5e 2b 4a 3e 4e 34 33 be e6 20 b9 bd dc d3 96 be
       0.19743106 -0.17500421 -0.09039478 -0.2945851
000030 73 de 37 be 48 18 f7 bd 8f 48 04 be a5 13 b9 3d
       -0.17955951 -0.12065178 -0.12918304 0.0903695
000040 bd 41 8e 3e c3 45 aa be b1 91 b2 3d f1 ec 0e bc
       0.2778453 -0.3325635 0.08719195 -0.008723483
000050 63 26 c9 be ae 7f 79 3e 7c 97 df bd 00 e9 f0 bd
       -0.392871 0.24365112 -0.10917565 -0.11763191
000060 da f8 52 be a1 4f 25 be b8 ed 35 3d c4 e0 f3 bd
       -0.20602742 -0.16143657 0.04441616 -0.11908105
000070 ea b0 1f be 4d e3 e8 bd 34 84 95 bd aa 30 89 be
       -0.15594831 -0.11371479 -0.07300606 -0.2679494
000080 e9 dd d4 be 99 ac 8e 3d b5 cb 2d bd cb eb 22 be
       -0.41575554 0.06966514 -0.0424306 -0.1591026
000090 2b 5d 71 3d d3 dc b0 3d ff 1c d5 bd 0a ed 80 be
       0.058926743 0.08635869 -0.10405921 -0.25180846
0000a0 1f a5 28 3e da c4 42 be a0 78 6e 3c f7 e7 b3 bd
       0.16469239 -0.19020405 0.014555126 -0.08784478
0000b0 6a cc 62 be fa a2 79 be fe ac 52 3e 44 bc 3d be
       -0.2214829 -0.24378577 0.20573804 -0.18528849
0000c0 5a 5e 94 be 62 8b b6 be 11 56 ec be 2b 0a a2 bc
       -0.28978235 -0.35653216 -0.46159413 -0.01978024
0000d0 5d 1a 42 bd c2 a4 3b be b2 c8 a5 bd a6 2b b4 3d
       -0.047388423 -0.18324569 -0.0809492 0.08797388
0000e0 d1 39 81 bc 6c 82 2a be 83 0c 11 3d d5 f1 2f be
       -0.01577464 -0.16651314 0.035412323 -0.17182095
0000f0 be ff 60 3e 8f 17 8e be ef 97 62 bc b1 27 45 3e
       0.21972558 -0.2775235 -0.013830169 0.19253422
000100 db 8f 0a be 54 b1 e8 3d 93 f5 3e be 7e 2a 81 be
       -0.13531439 0.11361948 -0.18648367 -0.2522773
000110 9f 8d 21 be 58 ab ac 3e 39 f6 39 be 31 a9 71 3d
       -0.1577668 0.33724475 -0.18160333 0.058999244
000120 45 fa 65 3e 37 ea 04 bd c7 d4 0b be c4 de 4d be
       0.22458751 -0.032449927 -0.13655387 -0.2010451
000130 78 6c ac be d0 1d 33 bb 3c ef 71 3e 49 da 81 3e
       -0.33676505 -0.0027331002 0.23626417 0.2536185
000140 e0 c2 7d 3d de 30 1b be f0 ac 0b bd d1 ac 10 3e
       0.061953425 -0.1515536 -0.034100473 0.14128424
000150 77 cf b9 bd 9e 41 27 be 3a f1 e9 be 3d 2e 0f 3f
       -0.09072774 -0.16333625 -0.45691854 0.5592993
000160 19 08 63 3d 1a 42 76 be 5d 02 81 3c db 93 1e 3e
       0.055427644 -0.24048653 0.015748197 0.1548609
000170 9e a0 ab be 32 40 50 3e 42 d9 46 3e 36 48 78 3e
       -0.3352098 0.20336989 0.19418815 0.24246296
000180 f3 47 bf 3d 82 4e 40 be b0 38 e6 bd 0b 7d 7b be
       0.09339895 -0.18779948 -0.11241281 -0.24559419
000190 f0 19 b0 3d 45 bd e6 3d b5 f7 93 be 32 17 a5 be
       0.08598697 0.11266569 -0.28899923 -0.3224426
0001a0 9b 94 d3 bd 51 1b 07 be 42 05 06 3e 88 fa 59 be
       -0.103310786 -0.13194014 0.13087943 -0.21286976
0001b0 56 a0 56 be 01 86 3f be 9c 56 1a be cd 6b 87 3e
       -0.20959601 -0.18703462 -0.15072101 0.26449433
0001c0 0b bf a1 bd d2 5d df 3d 7d d3 32 bd b1 62 7a 3d
       -0.07897767 0.10906567 -0.043658722 0.061129276
0001d0 7b c4 08 be 9e 64 cb 3e b7 66 31 3d bc 76 63 be
       -0.13356201 0.39725202 0.043310847 -0.22213262
0001e0 c5 02 0e 3d fb 47 05 3e 30 17 a4 bd a1 a1 b4 3d
       0.03467061 0.1301574 -0.08012235 0.08819891
0001f0 cc 5e 51 bf 45 a1 aa be 2f 0a ea bd f4 e5 82 bd
       -0.81785274 -0.33326164 -0.114277236 -0.06391516
000200 69 6a 05 3e 24 a9 81 3d 68 4d 44 be a6 91 a9 bc
       0.13028874 0.06331089 -0.19170153 -0.020699333
000210 79 df 02 be af 8e 17 be bc 2f dc 3d 84 ff 9e 3e
       -0.1278056 -0.14800523 0.10751292 0.31054318
000220 c8 1b e8 bb a9 f1 98 bd e1 cf 19 3e 8b 5f 52 be
       -0.00708339 -0.07467968 0.15020706 -0.20544259
000230 41 fc d3 3c a0 de 83 bc c5 2e 95 3e d8 8a ff bc
       0.02587712 -0.016097367 0.29137245 -0.031194136
000240 fa b3 76 3e a3 47 2b 3e 18 f5 7f be cc 79 e9 3d
       0.24092093 0.16726546 -0.2499584 0.11400184
000250 71 e3 00 be d4 b3 64 bb f1 08 8a be cb 1e 96 3b
       -0.12586762 -0.0034897225 -0.26959947 0.0045813075
000260 ac 44 ce 3d 8c c6 13 3d 55 c1 96 be b1 17 e8 bd
       0.10071692 0.03607802 -0.29444376 -0.11332644
000270 9c 6c 1d 3e 73 dc cf 3d 1b a7 94 3e a8 60 14 be
       0.15373462 0.10149469 0.2903374 -0.14489996
000280 7f 51 8d bd d4 fb 99 bc 9f 1c 31 3e a3 b0 3a be
       -0.0690031 -0.018796839 0.17296074 -0.18231444
000290 49 80 46 3e 7e 9e 3b be c2 af c6 3d 81 6e d9 bc
       0.19384874 -0.18322179 0.09701492 -0.02654195
0002a0 8e f4 58 3e c1 82 f3 bd 3b b3 f1 3d 66 89 ed bc
       0.2118704 -0.11890174 0.118017636 -0.02899618
0002b0 17 16 6c bd b2 7e e2 3d f3 6a fb 3b 0b 2c aa be
       -0.057638254 0.110593215 0.0076726614 -0.33236727
0002c0 50 6a 96 bd d2 18 01 bd 6f 3a 1a 3e 21 14 8a 3e
       -0.07344496 -0.03151781 0.15061353 0.26968482
0002d0 c6 4c 0d 3d 86 90 0e 3e 5d be 9a 3e 44 65 d6 3d
       0.034497045 0.13922319 0.3022336 0.10468534
0002e0 44 50 1a 3c 26 ed 94 bd e6 36 95 bd 5a 54 e7 bd
       0.009418551 -0.07271795 -0.07285862 -0.11295386
0002f0 9d 21 81 3e c2 af 5b be 97 66 62 bc 24 8a 30 bd
       0.25220957 -0.21453765 -0.013818405 -0.04310049
000300 c7 80 cd be 33 e0 46 3e ff e6 f7 3d 48 28 47 3e
       -0.40137312 0.19421463 0.12104606 0.1944896
000310 c9 2d ca be 10 85 99 3e bf 58 19 3d 12 33 3c 3e
       -0.39488056 0.2998433 0.03743815 0.18378857
000320 3f ab a6 be 4e e0 bf 3c e8 e2 fd bd e3 f3 b1 be
       -0.32552525 0.023422386 -0.123967946 -0.34756383
000330 38 b2 6d 3d a0 82 09 3d 8d e2 74 be ea 7c 4f 3d
       0.05803129 0.03357184 -0.23914547 0.050656237
000340 d9 bd 46 3e ab 9e 18 bf a0 29 c0 bc d8 ce 94 3d
       0.19408359 -0.5961711 -0.023457348 0.07266015
000350 2d e6 84 3c c4 47 b2 3e 90 17 0a bd d6 1e 47 be
       0.016223038 0.34820378 -0.033713877 -0.19445357
000360 74 23 12 bd 6c b6 56 bd 6a f7 88 bd ae ba ba 3d
       -0.035678342 -0.052420065 -0.066878155 0.091176376
000370 da 01 11 bb d6 40 79 be 97 37 20 bd 16 10 a8 be
       -0.0022126348 -0.24341139 -0.039115515 -0.32824773
000380 61 fa a4 be 82 be 03 3d 76 6d cd bd 27 e9 1a be
       -0.32222274 0.032164104 -0.10030644 -0.15128003
000390 b8 05 b1 3d 1c 0a 80 3e c6 4d a3 3d d8 02 80 be
       0.08643669 0.25007713 0.079738185 -0.2500217
0003a0 79 0c 55 3e 2c a4 b1 be 19 7c a5 be 01 be 3d 3e
       0.20805539 -0.34695566 -0.32321241 0.18529512
0003b0 e9 3e af bd 64 4b cf be 89 8e 3e 3e 66 0f 49 be
       -0.08556921 -0.40487206 0.1860906 -0.1963478
0003c0 cb 30 39 be 93 9c 67 be 4d c5 85 be e7 67 fa be
       -0.1808502 -0.22618322 -0.2612709 -0.48907396
0003d0 a8 4a 40 3c 9f 29 8d be 7b 1e 3c be 56 cc 66 be
       0.011736549 -0.27570817 -0.18371002 -0.22538885
0003e0 8e 77 c3 bd 86 eb dd be de 74 f7 3c 0b b8 f8 bd
       -0.095442876 -0.43343753 0.030207094 -0.121444784
0003f0 a7 28 06 be c9 fc b6 be 53 a2 49 be f2 23 d5 3e
       -0.13101445 -0.35739735 -0.19690828 0.41628987
