backend/ai_engine/models/lstm_lan.pth (torch, 206037 bytes, 9 tensors)

lstm.weight_ih_l0 f4 [256, 1]
0	0xbd18b634	-0.037283137
1	0xbe9749af	-0.29548404
2	0xbd6b2b16	-0.057414137
3	0xbe862ccb	-0.2620605
4	0xbe8ba83e	-0.27276796
5	0xbe9f50d8	-0.31116366
6	0xbf1aac1e	-0.6041888
7	0xbd8df421	-0.069313295
8	0xbe0036f8	-0.12520969
9	0xbc808955	-0.015690485
10	0x3d9003f1	0.07032002
11	0xbe3a78c2	-0.18210128
12	0xbf3f8c2f	-0.7482328
13	0xbf21b2d8	-0.6316352
14	0xbc6b4b32	-0.01436119
15	0xbe832336	-0.256128
16	0xbee5cc26	-0.44882315
17	0xbebd243f	-0.36941716
18	0xbecb030c	-0.39650762
19	0xbed16006	-0.40893573
20	0xbe4025ec	-0.18764466
21	0x3e7cf36d	0.24702235
22	0xbe875109	-0.26429012
23	0xbdaae90a	-0.0834523
24	0xbdd11f44	-0.102110416
25	0xbee73782	-0.45159537
26	0x3df0b714	0.117536694
27	0xbddcba2b	-0.10777696
28	0xbc6f3fba	-0.014602596
29	0x3d81bf42	0.06335308
30	0xbecdbe7d	-0.40184394
31	0xbf37f819	-0.7186294
32	0x3d23e44b	0.04001264
33	0xbe3680b4	-0.17822534
34	0xbdc94b9a	-0.09828873
35	0xbe8aef3a	-0.2713564
36	0xbd93d050	-0.07217467
37	0x3e14b943	0.14523797
38	0xbe2fc7e7	-0.171661
39	0x3eae00b6	0.33984917
40	0x3e0f549d	0.13997121
41	0xbe9815a3	-0.29704008
42	0xbe24b42a	-0.16084352
43	0x3e6358a5	0.22201784
44	0xbf0d028a	-0.55082
45	0x3e6b8280	0.22999
46	0xbe9fe61c	-0.31230247
47	0xbf087d08	-0.5331578
48	0xbef0d3ad	-0.47036496
49	0x3e83864b	0.25688395
50	0xbeba4c04	-0.3638612
51	0xbeb5e84b	-0.35528788
52	0xbe59ad9d	-0.21257634
53	0xbb0ca17f	-0.0021458564
54	0xbcd6e198	-0.026230618
55	0x3e92da73	0.2868229
56	0xbde8b63d	-0.11362884
57	0x3e175d63	0.14781718
58	0x3e4c66ce	0.19961092
59	0xbedf2c32	-0.43588406
60	0xbe1980d7	-0.14990555
61	0xbf7d11ad	-0.98855096
62	0xbe3c3f83	-0.18383603
63	0xbdd6cb75	-0.10488025
64	0xbe91b8f1	-0.28461412
65	0x3b07bb53	0.002071102
66	0xbea159df	-0.3151388
67	0x3e1264ba	0.14296237
68	0x3e9c75a3	0.305585
69	0xbe4a54a2	-0.19758847
70	0xbf06577c	-0.5247724
71	0x3d21ba6b	0.039484423
72	0x3db67f26	0.089109704
73	0x3d8aef44	0.067839175
74	0x3e96f40f	0.29483077
75	0x3e7188c3	0.23587327
76	0xbf2441ca	-0.64162886
77	0xbf8defdf	-1.1088828
78	0x3e4f05e3	0.2021709
79	0xbcb45667	-0.022013856
80	0xbe983bc1	-0.2973309
81	0xbd04dd70	-0.03243774
82	0xbea57231	-0.32313684
83	0xbe3bb874	-0.18332082
84	0xbc91723a	-0.017754663
85	0xbd1660f7	-0.036713567
86	0xbbc6fe63	-0.0060728057
87	0xbe126e5c	-0.14299911
88	0x3dbcc4d4	0.092172295
89	0xbe6ae1d2	-0.22937706
90	0x3de73cd1	0.11290897
91	0x3c83442d	0.01602372
92	0xbdb981ff	-0.09057998
93	0x3e342401	0.1759186
94	0xbe6f2588	-0.23354161
95	0x3e9c2cc3	0.305029
96	0xbd980b21	-0.07423998
97	0x3d92189e	0.071336016
98	0xbed073aa	-0.40713245
99	0xbd029f78	-0.031890363
100	0x3edad32e	0.42739242
101	0x3dd2d82f	0.1029514
102	0xbd4da867	-0.05020943
103	0xbdf3dc6b	-0.11907276
104	0xbc2c3510	-0.010510698
105	0xbd7c7900	-0.061638832
106	0x3da659f8	0.08122629
107	0x3e545905	0.20737083
108	0xbec4149b	-0.3829697
109	0x3e158b32	0.1460388
110	0xbd3ea5d9	-0.046544883
111	0xbe2b3f6a	-0.1672341
112	0xbf044f4e	-0.5168351
113	0xbd8e34b7	-0.06943648
114	0xbd0edf82	-0.034881122
115	0x3e0c6653	0.13710909
116	0xbe205e52	-0.1566098
117	0x3e2597c8	0.16171181
118	0xbcd4a9b0	-0.02595982
119	0xbd809571	-0.06278504
120	0x3dc04867	0.0938881
121	0xbda73af5	-0.08165542
122	0xbe1527bb	-0.14565937
123	0xbec850c9	-0.39124134
124	0x3b9440a7	0.0045243087
125	0x3ea46d21	0.3211451
126	0xbcb4aa3e	-0.022053834
127	0xbe4f0ed2	-0.20220497
128	0x3edfb64c	0.4369377
129	0x3ed60a38	0.4180467
130	0xbd676d43	-0.056500684
131	0x3e468ea7	0.19390355
132	0x3eaa1f4f	0.33227012
133	0x3da9b974	0.082873255
134	0xbef8112f	-0.4845061
135	0x3df97bda	0.12181826
136	0x3e71fcee	0.23631641
137	0x3d4c50c8	0.049881727
138	0xbe90531c	-0.28188407
139	0x3e81e0ac	0.25366724
140	0x3ec8f472	0.39248997
141	0x3eb83c15	0.3598334
142	0xbe8c12ae	-0.27358
143	0x3e4ad268	0.19806826
144	0x3d850c24	0.06496456
145	0xbdd54fac	-0.10415587
146	0xbe1ed373	-0.15510349
147	0x3dc1fac2	0.094716564
148	0x3d1e99e3	0.038720977
149	0x3dd0a03f	0.101868145
150	0x3e30b53c	0.17256635
151	0xbdf70987	-0.12062364
152	0xbe617425	-0.22016962
153	0xbdd898a9	-0.105759926
154	0xbe1f8113	-0.15576582
155	0xbeb04ea4	-0.34434998
156	0x3eb4ebdd	0.353362
157	0x3defa411	0.11701215
158	0x3e00fbaa	0.12596002
159	0x3f032977	0.51235145
160	0x3c18dda5	0.009330188
161	0x3e2375f7	0.15962969
162	0xbde3a632	-0.111156836
163	0x3e22cf71	0.15899445
164	0xbc58abe4	-0.013224576
165	0x3ef18b7c	0.4717673
166	0xbed0141a	-0.40640336
167	0x3eb293f1	0.34878495
168	0x3e89c73c	0.26909816
169	0x3e5c5389	0.21516241
170	0x3ca81fe8	0.020523027
171	0xbf159642	-0.584324
172	0x3e1bfc85	0.15233047
173	0x3ebd4903	0.36969766
174	0x3b5bf3a4	0.003356197
175	0x3eb49bc0	0.35275078
176	0xbf10b330	-0.5652342
177	0xbd6ad6e6	-0.05733385
178	0x3da7c60d	0.08192072
179	0xbea4fc78	-0.32223868
180	0x3cfa4493	0.030550277
181	0xbeca829d	-0.39552775
182	0xbc1c8d2a	-0.0095551405
183	0x3d5bd51f	0.053670045
184	0x3e298199	0.16553344
185	0x3e1e32a7	0.1544901
186	0xbeab8b68	-0.33504796
187	0xbecbbe2e	-0.39793533
188	0x3ee7d1fe	0.452774
189	0xbf0b5b35	-0.54436046
190	0xbe1d6ac8	-0.15372765
191	0xbe64362f	-0.22286294
192	0x3e2fc292	0.17164066
193	0x3e85bc04	0.26120007
194	0xbe485dae	-0.19566986
195	0xbd2afcdd	-0.041745055
196	0x3dfac865	0.122452535
197	0xbed574b7	-0.4169061
198	0xbf12028c	-0.57035136
199	0x3e428d3f	0.18999194
200	0x3d57d551	0.05269367
201	0xbd20f027	-0.039291527
202	0x3d6e7d07	0.058224704
203	0x3d6b65ed	0.05747025
204	0xbf2985b2	-0.6621963
205	0xbf868b9c	-1.0511355
206	0x3eaf8482	0.34280783
207	0xbd0afdf3	-0.03393359
208	0xbee1fa5e	-0.44136328
209	0x3c6fcfb6	0.0146369245
210	0xbee76362	-0.4519301
211	0xbe83f31f	-0.25771424
212	0xbe36f87e	-0.1786823
213	0x3e6e3b32	0.23264769
214	0xbde2de1e	-0.11077522
215	0xbe1ec022	-0.1550298
216	0x3e51e522	0.20497563
217	0xbed469f5	-0.4148709
218	0x3e8ddb17	0.27706215
219	0xbc6d677f	-0.014490007
220	0x3e2cf0ba	0.16888705
221	0x3e0250ec	0.12726182
222	0xbe9b8cfe	-0.30381006
223	0xbd7c2ff9	-0.061569188
224	0xbd407f88	-0.046996623
225	0xbd86dcbd	-0.06585071
226	0xbf2858c6	-0.6576046
227	0xbe027b03	-0.12742238
228	0x3b8437f5	0.004034991
229	0x3e8c4765	0.2739822
230	0xbd0db68f	-0.03459793
231	0x3f02f41b	0.51153725
232	0x3e83b1c4	0.25721562
233	0xbddc93d1	-0.10770381
234	0xbdd9dacc	-0.10637435
235	0x3eab3fd9	0.3344715
236	0xbf17c9e2	-0.59292424
237	0x3eb4eea4	0.35338318
238	0xbea817a8	-0.32830548
239	0xbe711f75	-0.23547156
240	0xbf5063d2	-0.81402314
241	0x3e2dc6f6	0.16970429
242	0xbeb2c1d3	-0.349135
243	0xbdab396c	-0.08360562
244	0xbec9b763	-0.39397725
245	0x3e944cdb	0.28964886
246	0x3b6a894d	0.0035787404
247	0x3ef860ec	0.48511446
248	0x3d86829f	0.06567883
249	0xbd89af68	-0.06722909
250	0x3b6337e7	0.0034670772
251	0xbf0baf88	-0.54564714
252	0xbcc99aad	-0.024609888
253	0xbe5cd072	-0.2156389
254	0xbd0912fa	-0.033465363
255	0xbdbe6254	-0.09296098

lstm.weight_hh_l0 f4 [256, 64]
0	0xbf875307	-1.0572213
1	0xbecb522d	-0.39711133
2	0xbea0b308	-0.3138659
3	0x3f09c9c7	0.5382351
4	0xbdcb4cd4	-0.09926763
5	0xbd74bfea	-0.059753336
6	0x3f0d0a3f	0.5509376
7	0xbee60d84	-0.44932187
8	0x3eb099af	0.3449225
9	0x3e39d92a	0.18149248
10	0xbe975af5	-0.29561582
11	0x3e800277	0.2500188
12	0xbed85640	-0.42253304
13	0xbe868b5a	-0.26278192
14	0x3ea4abb4	0.3216225
15	0xbf4a224f	-0.789586
16	0x3e7989d9	0.24368991
17	0xbf008ce7	-0.50215
18	0x3f50cfa4	0.81566834
19	0xbee65cb6	-0.44992608
20	0xbede450f	-0.43412063
21	0x3ed4c87a	0.415592
22	0x3e43f20e	0.19135305
23	0xbec4f2b2	-0.38466412
24	0x3f5646bc	0.8370168
25	0xbe880807	-0.26568624
26	0xbebc76d9	-0.36809424
27	0xbf09a8dd	-0.5377329
28	0x3cf2937e	0.029611345
29	0xbe9707bf	-0.29498097
30	0x3ec73f90	0.38915682
31	0x3daa8b16	0.0832731
32	0xbe70cc48	-0.23515427
33	0x3efca84f	0.4934716
34	0x3f0ddcd4	0.5541508
35	0xbf785ba8	-0.97014856
36	0xbdc1dac3	-0.094655536
37	0xbf252890	-0.6451502
38	0xbe77cd52	-0.24199417
39	0x3f1a2fa7	0.6022896
40	0x3edd92cb	0.43276057
41	0x3ef5a140	0.47974586
42	0x3eeb2bf4	0.4593197
43	0x3faff0e7	1.3745393
44	0xbda24048	-0.07922417
45	0x3e9ae539	0.30253008
46	0x3e15cfcf	0.14630054
47	0xbf165812	-0.58728135
48	0x3f172647	0.5904278
49	0xbf36990c	-0.7132728
50	0xbf13650b	-0.57576054
51	0x3ded62e4	0.115911275
52	0x3eebfd13	0.46091518
53	0xbedff01d	-0.4373788
54	0xbece734f	-0.40322348
55	0xbd2154dd	-0.039387573
56	0x3e5e681a	0.21719399
57	0x3d34eea2	0.04417289
58	0xbebcb714	-0.36858428
59	0x3ee55b28	0.4479611
60	0xbf68dbc8	-0.9096036
61	0xbe0a4a5d	-0.1350493
62	0xbec8e989	-0.39240673
63	0xbf02d3af	-0.51104254
64	0xbf081fd7	-0.53173584
65	0x3e373bdf	0.17893933
66	0xbe6822e9	-0.22669567
67	0x3df6e3be	0.12055157
68	0x3e12c32e	0.14332268
69	0xbd1ac3b7	-0.037784304
70	0x3e127192	0.14301136
71	0x3ed8a7ad	0.42315426
72	0x3e81ca1b	0.25349507
73	0xbe3f2a11	-0.18668391
74	0xbe87c62f	-0.2651839
75	0x3eb92ca7	0.3616688
76	0xbe2110fd	-0.15729137
77	0xbecddba3	-0.40206632
78	0xbf0d6604	-0.5523379
79	0xbdfaa172	-0.122378245
80	0x3df11e4d	0.117733575
81	0xbe897f77	-0.2685506
82	0x3ea7c8d7	0.32770416
83	0xbdd62779	-0.104567476
84	0x3e46f042	0.19427589
85	0xbf05737c	-0.5212934
86	0x3ea2effd	0.31823722
87	0xbe56ce3b	-0.20977108
88	0xbee9e5e6	-0.4568321
89	0xbdfa0d32	-0.12209548
90	0x3e669c33	0.22520523
91	0x3d1a296e	0.037637167
92	0x3e23f001	0.16009523
93	0x3ea99cb9	0.33127382
94	0x3ea8cb9d	0.32967845
95	0xbefea4e8	-0.49735188
96	0xbe64271c	-0.22280544
97	0x3e7192a6	0.23591098
98	0x3ea8175c	0.32830322
99	0x3e86a0b3	0.2629448
100	0xbeaf46ff	-0.34233853
101	0x3e84913a	0.2589205
102	0x3d260f6c	0.04054205
103	0x3ef94cb5	0.48691335
104	0x3e981cd1	0.29709485
105	0x3e054a42	0.13016608
106	0xbe254a9f	-0.16141747
107	0xbe6fc9ea	-0.23416868
108	0xbe9a9925	-0.30194965
109	0x3ce9798f	0.028500346
110	0x3eb4b235	0.3529221
111	0x3e120f5a	0.14263669
112	0x3ea18287	0.31544897
113	0x3f5054eb	0.81379575
114	0xbecca5de	-0.39970297
115	0xbe4a41c9	-0.19751658
116	0x3e550a2b	0.2080466
117	0xbe83dc90	-0.25754213
118	0x3e8cc924	0.27497208
119	0xbdbf2fdc	-0.093353
120	0x3e1391f8	0.14411151
121	0xbec976a2	-0.39348322
122	0xbe4f0098	-0.2021507
123	0x3e84aa63	0.25911245
124	0xbb6b48b3	-0.0035901486
125	0x3e18581d	0.14877363
126	0x3d2d3f2d	0.042296577
127	0xbd2b2e55	-0.041792233
128	0xbe05c169	-0.13062061
129	0xbe039b58	-0.12852228
130	0xbb0fb7b6	-0.0021929569
131	0xbe41812d	-0.18896933
132	0xbf01f2f2	-0.5076133
133	0x3e96ea9c	0.29475868
134	0xbde05b24	-0.10954884
135	0x3d8dfbcc	0.06932792
136	0xbe191505	-0.14949425
137	0xbe08b51b	-0.13350336
138	0xbd2fe0ab	-0.04293887
139	0xbee961a0	-0.45582294
140	0x3ce63db1	0.028105589
141	0xbd011f61	-0.031524066
142	0xbc049f4c	-0.00809462
143	0x3e21ad63	0.15788798
144	0xbdff41ad	-0.124636985
145	0x3dbd0162	0.092287794
146	0xbc8b4d96	-0.01700477
147	0x3e9a8879	0.30182245
148	0xbeecd58a	-0.46256667
149	0xbdb3dbcd	-0.08782158
150	0xbe19a7bc	-0.15005392
151	0xbdb797d9	-0.089645095
152	0x3e9c308c	0.30505788
153	0x3e4102eb	0.1884877
154	0xbcbcb815	-0.023036996
155	0x3d83c0f9	0.06433291
156	0xbe90238d	-0.28152123
157	0xbedefbfd	-0.43551627
158	0xbd34611d	-0.044037927
159	0xbe4f8a0e	-0.20267507
160	0x3e409c40	0.18809605
161	0xbe76319f	-0.24042366
162	0xbdbb2f8b	-0.091399275
163	0xbefa6479	-0.4890478
164	0x3e6eae36	0.23308644
165	0xbe5d6865	-0.21621855
166	0xbd208594	-0.03918989
167	0xbdd069f2	-0.101764575
168	0xbe1310b2	-0.14361838
169	0x3ea94d4e	0.3306679
170	0x3e969ec0	0.29417992
171	0x3e809b06	0.25118273
172	0x3e9d819a	0.3076294
173	0xbec4793e	-0.3837375
174	0xbe28e3f2	-0.16493204
175	0xbc94d41b	-0.018167546
176	0xbcaad0f7	-0.020851595
177	0x3b343b15	0.0027501036
178	0x3db65db8	0.08904594
179	0xbe3020f7	-0.17200075
180	0xbd3c37d7	-0.04595169
181	0x3d65d3ac	0.05611007
182	0x3da675b2	0.08127917
183	0xbe87e6da	-0.26543313
184	0xbd87b027	-0.06625395
185	0x3e7cec6d	0.24699564
186	0x3e6840b2	0.2268093
187	0xbca8e4e8	-0.020616964
188	0x3c30623e	0.01076561
189	0x3d93311d	0.07187102
190	0xbe3fdaa0	-0.18735743
191	0xbdbcd70d	-0.09220705
192	0xbe5abb3c	-0.21360487
193	0xbe90cfce	-0.28283542
194	0xbd535dbc	-0.051603064
195	0x3e379c80	0.17930794
196	0x3e281252	0.16413239
197	0xbe3c4f3b	-0.18389599
198	0xbea67e0f	-0.3251805
199	0xbd74b378	-0.059741467
200	0x3d8460c7	0.06463771
201	0x3e4ba713	0.19887953
202	0x3e9113ea	0.28335506
203	0x3ddb93be	0.10721539
204	0x3cc59c00	0.024122238
205	0x3e48b0e1	0.19598724
206	0xbe395d45	-0.18101986
207	0xbdc55741	-0.09635783
208	0xbe5f47eb	-0.21804778
209	0xbdf973be	-0.12180279
210	0x3e0727d7	0.13198791
211	0xbdbcf61b	-0.092266284
212	0x3dbe47ec	0.09291062
213	0x3d87feac	0.06640372
214	0x3e893945	0.26801506
215	0x3d7f3672	0.062307782
216	0xbefde596	-0.49589223
217	0x3afc72d5	0.0019260297
218	0xbbb27292	-0.0054457868
219	0xbe25f916	-0.162083
220	0x3e00c64a	0.12575641
221	0x3ec6b209	0.38807705
222	0x3c9494b0	0.018137306
223	0x3ea8501e	0.32873625
224	0x3d1edd6c	0.038785383
225	0x3e6e0e4e	0.23247644
226	0xbe9d7df0	-0.30760145
227	0x3f2ff171	0.68727785
228	0xbdd8605a	-0.105652526
229	0x3e8458d9	0.25849035
230	0xbea45d3b	-0.3210238
231	0xbe5970b6	-0.21234402
232	0xbb2723a2	-0.0025503417
233	0x3dfbbed3	0.12292256
234	0x3d63db49	0.05562905
235	0x3e7e7fed	0.24853487
236	0x3eb12759	0.34600332
237	0x3dcf417d	0.10119913
238	0xbe315bc2	-0.17320159
239	0x3d8926d3	0.06696858
240	0xbdd23a22	-0.10264994
241	0xbeca1fe0	-0.39477444
242	0xbe121f81	-0.1426983
243	0xbe10fa9c	-0.141581
244	0xbba45a43	-0.005015643
245	0xbdaa8285	-0.08325676
246	0xbd24fcf2	-0.04028029
247	0xbeafb0be	-0.3431453
248	0x3da74a38	0.08168453
249	0xbd973a30	-0.07384145
250	0x3ca2cac7	0.019872082
251	0xbdadfee8	-0.08495885
252	0x3e32fb27	0.1747862
253	0xbe7077d6	-0.23483214
254	0xbe30a633	-0.172509
255	0xbe1640f3	-0.14673214

lstm.bias_ih_l0 f4 [256]
0	0xbc8a6fae	-0.016898956
1	0x3e8f81c2	0.28028685
2	0xbd31fa28	-0.04345146
3	0xbe506f4b	-0.20354955
4	0xbd123c37	-0.035701957
5	0xbe6ded69	-0.23235096
6	0x3e3c299a	0.18375245
7	0xbd6b6c86	-0.057476543
8	0xbe0cb464	-0.13740689
9	0xbd3082fd	-0.04309367
10	0xbcb32768	-0.021869376
11	0xbe9250b2	-0.2857719
12	0x3cd4fc9c	0.02599936
13	0x3c56ffe9	0.013122537
14	0x3dd8b4a2	0.10581328
15	0xbe9459f4	-0.2897488
16	0xbe18b5fe	-0.14913175
17	0xbe8f2801	-0.27960208
18	0xbe6b80d0	-0.22998357
19	0xbdd25059	-0.10269231
20	0xbe80b4cf	-0.25137946
21	0xbe8c0d4d	-0.27353898
22	0xbd0897a7	-0.033347752
23	0xbe86f043	-0.2635518
24	0xbd891e3b	-0.06695219
25	0xbe9e0208	-0.30860925
26	0x3d66ba96	0.056330286
27	0x3e6fd5d6	0.23421416
28	0x3e6e5388	0.23274052
29	0xbbc6a78b	-0.006062453
30	0xbe72a778	-0.23696697
31	0x3e95cce7	0.2925789
32	0xbdc8147f	-0.09769534
33	0xbe41821c	-0.18897289
34	0x3d44df72	0.048064657
35	0xbd95e40a	-0.073188856
36	0x3d16ca74	0.036814168
37	0x3ea867a7	0.3289158
38	0x3e6082b6	0.21924862
39	0x3e0d05c2	0.13771728
40	0xbdca8312	-0.09888281
41	0x3cfbfde7	0.030760719
42	0xbd6d0580	-0.057866573
43	0x3f47239c	0.7778871
44	0xbe15b47e	-0.14619634
45	0x3e848178	0.25880027
46	0xbeb421be	-0.35181993
47	0x3d9860b9	0.074403234
48	0x3ebcbbdb	0.36862072
49	0xbe3dea42	-0.18546394
50	0xbe891b16	-0.26778477
51	0xbdb0129e	-0.08597301
52	0xbddfdfbc	-0.10931346
53	0x3e362864	0.17788845
54	0xbdfe5d14	-0.12420097
55	0x3d4b7e55	0.049681026
56	0xbcdb4050	-0.026764065
57	0xbe129c6f	-0.14317487
58	0xbbec1b50	-0.0072054043
59	0xbd9ec90c	-0.077531904
60	0x3e66524a	0.22492328
61	0x3e44de7a	0.19225493
62	0xbdde7db6	-0.10863821
63	0xbd8c44a5	-0.068490304
64	0xbc3101b9	-0.010803633
65	0x3e0ea436	0.13929829
66	0xbeb19bd6	-0.34689206
67	0x3d350ef7	0.044203725
68	0x3e013db7	0.12621199
69	0xbe2144e5	-0.15748937
70	0x3b40b21f	0.0029403043
71	0x3dc20423	0.09473445
72	0xbbb903fc	-0.005646227
73	0x3e400261	0.18750907
74	0x3e8d99e4	0.27656472
75	0xbd05a651	-0.032629315
76	0xbe977d13	-0.29587612
77	0xbe3671fd	-0.1781692
78	0x3d642cd6	0.05570682
79	0xbb35f9b9	-0.0027767255
80	0xbe3d7429	-0.18501343
81	0x3d871e03	0.06597521
82	0xbd547704	-0.051871315
83	0xbdb0d89e	-0.086350664
84	0xbc81b866	-0.015834998
85	0xbca56d10	-0.020193607
86	0x3e004b02	0.12528613
87	0xbeac332c	-0.3363279
88	0xbe1354d2	-0.14387825
89	0xbdaee0fa	-0.085390046
90	0x3c9e8de1	0.019354763
91	0x3d14cb2f	0.036326583
92	0xbe9e0821	-0.30865577
93	0x3e4d3fe0	0.20043898
94	0xbe6aefa7	-0.22942983
95	0xbd81a1a2	-0.06329657
96	0xbe71fce9	-0.23631634
97	0xbdd2a9a1	-0.102862604
98	0xbc945349	-0.01810612
99	0xbe09f2c1	-0.1347151
100	0x3e99f7f9	0.30072
101	0xbdb62247	-0.08893257
102	0xbd1ca9a7	-0.03824773
103	0xbe1a5ab6	-0.15073666
104	0xbeb515ad	-0.353681
105	0xbe016877	-0.12637506
106	0xbc63e62d	-0.013909859
107	0x3e181220	0.14850664
108	0x3d8f9a6f	0.07011878
109	0xbe8f6b6a	-0.28011638
110	0xbbe5e054	-0.0070152674
111	0xbd954603	-0.07288744
112	0xbc462e07	-0.012095935
113	0xbcd0bacf	-0.025479702
114	0xbd38f6d0	-0.045157254
115	0xbd95b1a9	-0.073092766
116	0xbe81a98b	-0.25324664
117	0xbd95ffe7	-0.073242
118	0xbe6f2eee	-0.23357746
119	0xbc58f189	-0.01324118
120	0xbe12b985	-0.14328583
121	0xbde351bc	-0.11099574
122	0xbe3b773e	-0.18307206
123	0x3d483160	0.048875213
124	0xbdfc74c2	-0.12326957
125	0x3e291bdf	0.16514538
126	0xbe49073f	-0.1963167
127	0xbe8273e3	-0.2547904
128	0xbe34f2b5	-0.1767071
129	0xbe244813	-0.16043119
130	0x3afdf4a0	0.0019375272
131	0x3cc75252	0.024331246
132	0xbe20b51d	-0.15694089
133	0xbd88deee	-0.066831455
134	0x3e60dfed	0.21960421
135	0xbde4c2eb	-0.1116999
136	0xbd3ea18b	-0.046540778
137	0xbc1fd320	-0.009754926
138	0x3c12444f	0.008927419
139	0xbd82da16	-0.06389253
140	0xbe847578	-0.25870872
141	0xbe1005e1	-0.14064743
142	0x3e3ac0c6	0.182376
143	0xbd7c0f72	-0.061538167
144	0x3d00e67c	0.031469807
145	0xbc3b8f26	-0.0114477035
146	0x3d4f0af6	0.050547563
147	0xbdb63094	-0.08895984
148	0xbe136e88	-0.14397633
149	0xbddff7c9	-0.10935933
150	0xbd2ab96b	-0.041680735
151	0x3d240fe7	0.04005423
152	0x3dd1d32e	0.102453575
153	0x3c7dc246	0.015488213
154	0x3e3fa1bf	0.18714045
155	0x3d35813f	0.04431271
156	0xbe828926	-0.2549526
157	0xbd34c674	-0.044134572
158	0x3c151b89	0.009100803
159	0xbd771af1	-0.060328428
160	0xbd285796	-0.041099153
161	0xbe2ec5ef	-0.17067693
162	0x3e6495ba	0.22322741
163	0xbdd04343	-0.10169079
164	0xbd31c2e1	-0.04339874
165	0xbe1797c5	-0.14803989
166	0x3e438d6b	0.19096915
167	0xbd9451e9	-0.072421856
168	0xbe0dfe91	-0.1386664
169	0xbdb571d3	-0.08859601
170	0x3e10f584	0.14156157
171	0x3e95b611	0.29240468
172	0xbd8a9bd5	-0.06768004
173	0xbe3796e4	-0.17928654
174	0x3d99b72c	0.075056404
175	0xbe386925	-0.1800886
176	0x3eae733b	0.3407229
177	0xbd83f7e5	-0.064437665
178	0x3d7bc20f	0.061464366
179	0x3d9b4294	0.07581058
180	0x3d9f956d	0.077921726
181	0x3d836ee6	0.064176366
182	0xbd7b1d47	-0.061307218
183	0x3d85f947	0.065416865
184	0xbc496a50	-0.012293413
185	0xbddbdb31	-0.10735167
186	0x3e0e9a17	0.13925968
187	0x3e725508	0.2366525
188	0xbe906064	-0.2819854
189	0x3e92e25a	0.28688318
190	0x3cea63f8	0.028612122
191	0x3e053c43	0.1301127
192	0x3e9d0f9b	0.3067597
193	0x3e6ddfd9	0.23229922
194	0xbd3c7550	-0.046010315
195	0x3d8c7711	0.068586476
196	0x3e35ae69	0.17742313
197	0xbe881d2d	-0.2658476
198	0x3e95510b	0.29163393
199	0x3d8c0504	0.06836894
200	0xbcce3aca	-0.025174517
201	0xbe03d0c9	-0.12872614
202	0xbde30082	-0.11084081
203	0xbe608b55	-0.21928151
204	0x3d7e42e7	0.06207552
205	0x3d0e00fb	0.034668904
206	0x3c682049	0.014167854
207	0xbdf215a6	-0.11820535
208	0xbe7d6ba8	-0.24748099
209	0x3d219efd	0.039458264
210	0xbe10e077	-0.14148127
211	0xbe20e251	-0.15711333
212	0xbd2f7f63	-0.042846095
213	0xbd678a95	-0.056528646
214	0xbe491ce8	-0.19639933
215	0xbe893abe	-0.2680263
216	0x3d96ac60	0.07357097
217	0xbe1eab0b	-0.15494935
218	0xbd2a896d	-0.041634966
219	0x3e1b52af	0.1516826
220	0x3e9bdfe9	0.30444267
221	0x3d089f4e	0.03335505
222	0xbe52d397	-0.20588528
223	0x3f480257	0.7812857
224	0xbe4f7c59	-0.20262279
225	0xbe872b8a	-0.26400405
226	0xbe2723cb	-0.16322248
227	0xbbad4917	-0.005288254
228	0x3c462cd1	0.012095646
229	0x3ec7bba4	0.39010346
230	0x3eba94aa	0.36441547
231	0x3e255ad5	0.16147931
232	0x3d6c84d6	0.05774387
233	0x3d97c16e	0.07409941
234	0xbe029cca	-0.12755123
235	0x3f39faec	0.726485
236	0xbd151b43	-0.036402952
237	0x3eb01b3c	0.34395778
238	0xbe76a9b5	-0.24088176
239	0x3d1076c9	0.035269532
240	0x3eb5d3f0	0.35513258
241	0xbc0b9084	-0.008518342
242	0xbe32638a	-0.17420784
243	0xbd8ed75c	-0.0697467
244	0xbead0571	-0.33793214
245	0x3e78185c	0.24228042
246	0xbd900025	-0.070312776
247	0x3d77a935	0.060464103
248	0x3d592961	0.053017978
249	0xbe3dd64b	-0.18538778
250	0x3dadfa09	0.08494956
251	0xbca74750	-0.020419747
252	0x3e783a7c	0.2424106
253	0x3f1a1e23	0.60202235
254	0xbe57017d	-0.20996661
255	0xbe0e859f	-0.1391816

lstm.bias_hh_l0 f4 [256]
0	0xbc541ee2	-0.012946816
1	0x3e752440	0.2393961
2	0xbdc4725f	-0.09592127
3	0xbe9ee502	-0.31034094
4	0x3e09e0e3	0.13464694
5	0xbea554b7	-0.32291195
6	0x3d9c8d2e	0.076441154
7	0xbe1452ec	-0.14484757
8	0x3c7bb646	0.015363282
9	0x3c31eb7f	0.010859369
10	0x3dd5ae7e	0.10433672
11	0xbe12d064	-0.14337307
12	0x3cb50e46	0.022101533
13	0x3e4afb41	0.19822408
14	0x3da3668a	0.07978542
15	0xbde82565	-0.113352574
16	0xbe9bb84c	-0.30414045
17	0xbe8b9c2c	-0.27267587
18	0xbe75c0a1	-0.23999263
19	0xbe550010	-0.20800805
20	0xbd8477c2	-0.064681545
21	0xbec2ba78	-0.3803289
22	0xbe58f8bc	-0.21188635
23	0xbe3c781a	-0.1840519
24	0x3dbba247	0.09161811
25	0xbe8b1d1f	-0.27170655
26	0x3c52b020	0.012859374
27	0x3e820957	0.2539775
28	0x3e1548c4	0.14578539
29	0xbddbe07c	-0.10736176
30	0xbe3403a2	-0.17579511
31	0x3e9f3fb5	0.31103292
32	0xbe02c66e	-0.12771007
33	0xbdbd67ee	-0.09248339
34	0x3e03a145	0.12854488
35	0xbe20099c	-0.15628666
36	0x3d30bafa	0.043147065
37	0x3eefca91	0.46834233
38	0x3e78ceca	0.24297634
39	0x3de04e6c	0.10952458
40	0x3dc201e2	0.09473015
41	0xbc68353f	-0.014172851
42	0xbda8054e	-0.08204137
43	0x3f46140e	0.7737435
44	0xbdf52207	-0.11969381
45	0x3e261baa	0.1622149
46	0xbea22862	-0.31671435
47	0x3dcfa24d	0.10138378
48	0x3e64c1f3	0.22339611
49	0xbdec67a9	-0.11543209
50	0xbe9b6dfa	-0.30357343
51	0xbcd8f6f5	-0.026484946
52	0xbe4f73b5	-0.20258982
53	0x3eaf6cfd	0.3426284
54	0x3d0bd9b2	0.034143157
55	0xbcf90122	-0.030396048
56	0xbcf0b169	-0.02938147
57	0xbe2f48c3	-0.171176
58	0x3e22f41b	0.15913431
59	0xbd7bd414	-0.06148155
60	0x3e98dd2c	0.2985624
61	0x3e36f870	0.17868209
62	0xbc90788b	-0.017635604
63	0x3ced89e8	0.028996423
64	0x3d74d584	0.059773937
65	0x3d3a8893	0.045540404
66	0xbea9beda	-0.3315342
67	0x3e35b82e	0.1774604
68	0x3e0b8bf4	0.13627607
69	0xbe80bfe9	-0.25146416
70	0xbe2fd371	-0.17170502
71	0xbc228c44	-0.009921137
72	0xbd87b247	-0.066258006
73	0x3e4ce821	0.20010425
74	0x3dabb042	0.08383228
75	0x3dcb7c2e	0.09935795
76	0xbdb65838	-0.08903545
77	0xbe673d49	-0.22581972
78	0x3d86a8da	0.06575175
79	0x3da77e39	0.08178372
80	0xbe63c80b	-0.22244279
81	0x3daebb82	0.08531858
82	0x3d500ce2	0.050793536
83	0xbe1414de	-0.14461085
84	0x3d5bf6a6	0.05370202
85	0xbb9e2737	-0.004826452
86	0xbd898ef7	-0.067167215
87	0xbe351b90	-0.17686296
88	0x3d8abafc	0.06773946
89	0xbea77080	-0.32703018
90	0xbd8f210d	-0.06988726
91	0xbe1b2c54	-0.15153629
92	0xbea584f5	-0.32328
93	0x3d940be4	0.072288305
94	0xbe5de453	-0.2166913
95	0x3dde7327	0.10861807
96	0xbdc70fdf	-0.09719824
97	0x39c02306	0.00036647188
98	0xbcc6a33f	-0.024247764
99	0x3d3c7ba4	0.04601635
100	0x3e7adafe	0.24497601
101	0xbd8de197	-0.069277935
102	0xbdc13d92	-0.09435572
103	0xbe6850ea	-0.22687116
104	0xbeaf77f7	-0.34271213
105	0xbd85f63d	-0.06541107
106	0xbd9233a0	-0.07138753
107	0xbdaed617	-0.08536928
108	0xbdf3fdc2	-0.11913635
109	0xbe975d07	-0.29563162
110	0xbe098452	-0.13429382
111	0x3d8df79a	0.06931992
112	0xbe245045	-0.16046245
113	0xbc7fe20e	-0.0156178605
114	0xbd8ae0b2	-0.067811385
115	0x3deb3c5f	0.11486124
116	0xbe9721ab	-0.29517874
117	0xbe2f7343	-0.17133813
118	0xbdfe7a47	-0.12425666
119	0x3e4e6418	0.2015537
120	0xbe07f3fd	-0.13276668
121	0xbe2b8569	-0.1675011
122	0xbd42184c	-0.047386453
123	0x3d51814e	0.051148705
124	0xbe1131b4	-0.14179116
125	0x3de399ed	0.111133434
126	0xbd62b24c	-0.05534582
127	0xbe4a8317	-0.1977657
128	0xbdc97c19	-0.09838123
129	0xbe74532f	-0.23859857
130	0x3d074e13	0.03303344
131	0xbe41fc69	-0.18943943
132	0xbcda5d6c	-0.026655875
133	0xbd820c8a	-0.06350048
134	0x3e7ddd25	0.24791391
135	0xbd92c4ec	-0.07166466
136	0xbdfe6eea	-0.12423499
137	0x3d1cf2f5	0.03831764
138	0x3e133347	0.1437503
139	0xbdfc9377	-0.12332814
140	0xbe04a26d	-0.12952586
141	0xbea3876e	-0.31939262
142	0x3de1d2cc	0.110265344
143	0xbda91d7d	-0.082575776
144	0x3ccb511e	0.024818953
145	0x3dbe0ebf	0.09280156
146	0x3e0271f5	0.12738784
147	0xbd81c49a	-0.06336327
148	0x3a68f8b2	0.0008887156
149	0x3d3471b9	0.044053767
150	0xbe5ce020	-0.21569872
151	0xbd390edd	-0.04518019
152	0x3dca2660	0.09870601
153	0x3d7dc826	0.061958455
154	0xbd3e9ad0	-0.04653436
155	0x3e4ac9fe	0.19803616
156	0xbd8bd7c3	-0.06828263
157	0x3d7d5f18	0.061858267
158	0xbd3e4cee	-0.046460085
159	0xbe94dc7a	-0.2907446
160	0xbce7646c	-0.028246127
161	0x3d01d7ae	0.03169983
162	0x3e788756	0.24270377
163	0xbe85017a	-0.2597769
164	0x3d9ff046	0.078095004
165	0xbe78841b	-0.24269144
166	0x3e4d96d1	0.20077063
167	0xbe495258	-0.19660318
168	0xbd20b248	-0.039232522
169	0xbd95229a	-0.0728199
170	0xbc815682	-0.01578832
171	0x3eb62f45	0.3558294
172	0xbe11579e	-0.1419358
173	0xbdedbf93	-0.116088055
174	0xbc944492	-0.018099103
175	0xbe3859e1	-0.18003036
176	0x3e6bda67	0.23032533
177	0x3c47168a	0.01215137
178	0xbdcf5fc3	-0.10125687
179	0x3e536e91	0.20647646
180	0x3cb7b6a5	0.022425959
181	0x3e80d682	0.25163656
182	0x3d87bea3	0.06628158
183	0xbe191ef5	-0.14953215
184	0xbdd1dd1d	-0.10247252
185	0x3d7dd1a4	0.061967507
186	0x3e0a13cd	0.13484116
187	0x3e63ae18	0.2223438
188	0xbe103134	-0.1408127
189	0x3d912e10	0.07088864
190	0x3dc42b77	0.09578603
191	0x3dc63cb1	0.09679545
192	0x3ed12a31	0.40852502
193	0x3e70a805	0.23501594
194	0xbe3eca16	-0.18631777
195	0x3d9069cb	0.070514284
196	0x3e052b55	0.13004811
197	0xbec9d121	-0.39417365
198	0x3e96db51	0.294642
199	0xbd40fa24	-0.047113553
200	0x3ba60b13	0.005067238
201	0xbd1bb69b	-0.038015943
202	0x3ccdd630	0.025126547
203	0xbd98a892	-0.07454027
204	0x3d7003eb	0.058597486
205	0x3dabcaf1	0.083883174
206	0x3e191c31	0.1495216
207	0xbd606222	-0.054781087
208	0xbe6e2b64	-0.2325874
209	0x3dbc8ca0	0.092065096
210	0xbd8f9af3	-0.07011976
211	0xbe9a0afa	-0.300865
212	0xbe50fa0c	-0.20407885
213	0xbe0b50ab	-0.13604991
214	0xbd8161ff	-0.063175194
215	0xbdf756fd	-0.120771386
216	0xbdddc66e	-0.10828863
217	0xbe0e263a	-0.1388177
218	0xbd0e6784	-0.03476669
219	0x3e5a07cb	0.21292035
220	0x3e9a66b9	0.30156496
221	0x3d91424b	0.070927225
222	0xbe06c149	-0.1315967
223	0x3f163fc5	0.58691055
224	0xbe830261	-0.25587752
225	0xbe1882f7	-0.14893709
226	0xbe03fcd7	-0.1288942
227	0xbe07f371	-0.1327646
228	0x3d4ab564	0.049489394
229	0x3e86c9a4	0.26325715
230	0x3e897ad6	0.2685153
231	0x3e5dbcf9	0.21654119
232	0xbdb7282e	-0.089432105
233	0xbde80960	-0.11329913
234	0xbd3044ef	-0.04303449
235	0x3f1cb438	0.6121249
236	0xbe0caee1	-0.13738586
237	0x3e891afa	0.26778394
238	0xbe5005a8	-0.20314658
239	0x3e376c00	0.17912292
240	0x3ebf1b82	0.37325674
241	0x3baf12f0	0.0053428337
242	0xbea4b725	-0.32170978
243	0xbcf96a9e	-0.030446347
244	0xbe8390f5	-0.2569653
245	0x3e87e1ee	0.26539558
246	0x3b39bb14	0.0028340267
247	0xbcbabfe8	-0.022796586
248	0xbde092ee	-0.109655246
249	0xbe8b87d3	-0.27252063
250	0x3e0b70fe	0.13617322
251	0x3d2728e2	0.040810473
252	0x3eb771d3	0.35829028
253	0x3f15f2fb	0.58573884
254	0xbe0ea05b	-0.13928358
255	0xbd96b55a	-0.07358809

lstm.weight_ih_l1 f4 [256, 64]
0	0xbd3fa36b	-0.046786707
1	0x3d94c87e	0.07264803
2	0x3ca99f38	0.020705804
3	0xbe2503ac	-0.16114682
4	0x3e4f976d	0.20272608
5	0x3c94444a	0.018098969
6	0xbe1f7855	-0.15573247
7	0xbe65e865	-0.22451933
8	0xbdf22fc2	-0.11825515
9	0x3ead76e3	0.33879766
10	0xbc97f9f0	-0.018551797
11	0x3e221b78	0.15830791
12	0x3ed1d138	0.40979934
13	0x3d3e98b2	0.04653234
14	0x3cce7b42	0.025205258
15	0x3d5ec400	0.05438614
16	0xbe675f44	-0.22594935
17	0x3cdd29b9	0.026997434
18	0x3de0db34	0.1097931
19	0xbe76d208	-0.24103558
20	0x3c02521e	0.007954149
21	0xbf02b116	-0.5105146
22	0x3e00315c	0.12518829
23	0xbe1c0158	-0.15234888
24	0xbd60e921	-0.05490983
25	0xbc3cc52d	-0.01152162
26	0xbd08704c	-0.03331022
27	0xbe11365c	-0.14180893
28	0x3ea89738	0.3292787
29	0x3e06fb1d	0.1318173
30	0x3decc4be	0.11560963
31	0x3eb5223e	0.35377687
32	0xbe3f4a90	-0.18680787
33	0xbd54b641	-0.051931623
34	0x3df4d4a1	0.11954618
35	0x3e6e70db	0.23285238
36	0x3cb70197	0.022339625
37	0x3e1f3e0c	0.15551013
38	0xbeafc42d	-0.34329358
39	0x3e006f1f	0.1254239
40	0x3dfe6d9b	0.12423249
41	0x3d91e044	0.071228534
42	0xbe204fac	-0.15655392
43	0x3e00f137	0.12592016
44	0x3d0e9bac	0.03481643
45	0x3ebb72ab	0.36610922
46	0x3e05d462	0.13069299
47	0xbe0c4b58	-0.13700616
48	0xbea93dcc	-0.3305496
49	0xbd044575	-0.032292802
50	0x3d82cc6e	0.06386648
51	0xbe2b0b74	-0.16703588
52	0x3d2ba351	0.041903798
53	0xbe2d25ef	-0.16909002
54	0xbd961302	-0.07327844
55	0xbe211641	-0.15731145
56	0xbd51abae	-0.051189117
57	0xbd9e655f	-0.07734179
58	0xbe895f19	-0.26830366
59	0xbddf8be1	-0.10915352
60	0x3e794758	0.24343622
61	0xbe131aae	-0.14365646
62	0xbdf975f5	-0.12180702
63	0x3eb92cf9	0.36167124
64	0x3a0c2baf	0.00053470855
65	0xbcd51665	-0.026011655
66	0x3d5233b5	0.051318843
67	0x3dd1c2cd	0.102422334
68	0x3c8b0341	0.016969325
69	0x3d60ed75	0.054913957
70	0x3eaafdfd	0.33396903
71	0xbe50c6d7	-0.20388351
72	0x3d6968aa	0.05698458
73	0xbdf1e5bd	-0.11811397
74	0xbdd398b7	-0.103318624
75	0xbc42f4c9	-0.011899182
76	0xbea84130	-0.32862234
77	0xbe0944b2	-0.13405111
78	0x3ec8f8d8	0.39252353
79	0xbea92b0e	-0.3304066
80	0x3c96018d	0.018311286
81	0xbe4705ee	-0.19435856
82	0x3ea6fd35	0.32615057
83	0xbd726e5a	-0.05918727
84	0xbd6f901e	-0.05848705
85	0x3ee02d42	0.4378453
86	0x3dddb005	0.10824589
87	0xbb305bb2	-0.0026910123
88	0x3de5e56f	0.112254016
89	0xbdf1e1f1	-0.11810673
90	0x3dc9a5b4	0.098460585
91	0x3ec28bdc	0.3799733
92	0xbd94294b	-0.072344385
93	0xbdc69f36	-0.09698336
94	0xbe531bc9	-0.20616068
95	0xbea15aa6	-0.31514472
96	0x3db2bd38	0.08727497
97	0x3d3a1062	0.04542578
98	0xbd2d2719	-0.042273615
99	0x3e440403	0.19142155
100	0xbe2d22fb	-0.16907875
101	0xbe891be9	-0.26779106
102	0x3e96553a	0.29361898
103	0xbdc05c0c	-0.093925565
104	0xbdf6c4af	-0.12049233
105	0xbdd688ea	-0.10475333
106	0xbe2c6780	-0.16836357
107	0x3d9dc0fd	0.07702825
108	0xbea074ba	-0.31339055
109	0x3c933185	0.017967949
110	0x3de0b464	0.10971907
111	0xbec064a1	-0.37576774
112	0x3ec7e64d	0.39042893
113	0xbf08a49d	-0.5337618
114	0xbdba43e8	-0.09094983
115	0x3dfc7ba6	0.123282716
116	0xbdfc3dbd	-0.12316463
117	0x3e0c2401	0.1368561
118	0xbe35181a	-0.17684975
119	0x3f1ded41	0.61690146
120	0xbd987673	-0.074444674
121	0xbdf87d14	-0.12133232
122	0x3e310567	0.17287217
123	0x3f0629eb	0.5240771
124	0xbeef5593	-0.46744975
125	0x3ee1f526	0.44132346
126	0x3d13612c	0.035981342
127	0x3d4dc5fe	0.05023765
128	0xbe0dd1e6	-0.13849601
129	0x3f37407a	0.7158276
130	0xbd6f748b	-0.058460753
131	0x3d849827	0.06474333
132	0xbe0bc199	-0.1364807
133	0x3e40d313	0.18830518
134	0xbf0e655b	-0.55623406
135	0x3e9b135b	0.30288205
136	0x3e88f901	0.26752475
137	0xbe52aba7	-0.20573293
138	0xbf1d7c3f	-0.6151771
139	0x3d9509d1	0.07277263
140	0x3e8c98d8	0.2746036
141	0x3e7cb85c	0.24679703
142	0xbf10525e	-0.5637568
143	0xbc0792a3	-0.008274707
144	0x3eb2888c	0.34869802
145	0xbe8493b6	-0.25893945
146	0x3e1198df	0.14218472
147	0xbd221392	-0.039569445
148	0x3a8414f4	0.0010077045
149	0xbd74dd6b	-0.059781473
150	0xbcb25055	-0.02176682
151	0xbf003506	-0.5008091
152	0x3db3ac24	0.087730676
153	0x3e23e800	0.1600647
154	0xbc1fdc07	-0.009757048
155	0x3d876543	0.06611111
156	0x3daf36ad	0.085553505
157	0xbde643ae	-0.112433776
158	0x3e7ee43f	0.24891756
159	0x3f6b8bd6	0.9201025
160	0xbe8f673d	-0.28008452
161	0xbd8b8083	-0.06811621
162	0x3e256eed	0.16155596
163	0xbd8fe822	-0.07026698
164	0xbc4f5b85	-0.012656097
165	0x3d0f56d8	0.03499493
166	0x3c868270	0.01641962
167	0x3f30d5ce	0.6907624
168	0x3e427dea	0.18993345
169	0x3f081fed	0.53173715
170	0x3d8323d0	0.06403315
171	0xbf0bc484	-0.54596734
172	0xbd01fdaa	-0.031736054
173	0x3d927fc0	0.07153273
174	0xbd067332	-0.032824703
175	0x3eb0f958	0.34565234
176	0xbed7a334	-0.42116702
177	0x3e8b5fd1	0.2722154
178	0x3dd3f8e8	0.103502095
179	0xbe02659d	-0.12734075
180	0xbe155f3b	-0.14587109
181	0xbd5991f0	-0.053117692
182	0x3ebd04f7	0.3691785
183	0x3da33236	0.07968561
184	0x3d9bfdbd	0.07616756
185	0x3e3a5312	0.18195751
186	0xbf1ef624	-0.6209433
187	0xbe4d4e0a	-0.20049301
188	0x3ea2dff7	0.31811497
189	0xbf32e249	-0.69876534
190	0x3e2aa2ce	0.16663668
191	0xbde8ea68	-0.113728344
192	0xbe1c81af	-0.15283845
193	0xbe94e939	-0.29084185
194	0x3ea0e4b0	0.31424475
195	0x3e4d79c2	0.20065978
196	0x3cb74fda	0.022376943
197	0xbe9c29e6	-0.30500716
198	0x3eac80e1	0.33692077
199	0xbf02e131	-0.51124865
200	0xbe6662e5	-0.22498663
201	0x3c3dc528	0.01158265
202	0x3e1b6e23	0.15178733
203	0xbdeb2815	-0.114822544
204	0xbe95c17a	-0.29249173
205	0xbde334be	-0.11094044
206	0x3f534758	0.82530737
207	0xbeb5de62	-0.35521227
208	0x3d86e7fe	0.06587218
209	0xbe825b47	-0.25460264
210	0x3eb3f253	0.35145816
211	0xbde11f12	-0.10992254
212	0x3e78cba5	0.24296434
213	0x3f5bb0cc	0.85816646
214	0x3e97d510	0.2965474
215	0x3e8a6b67	0.27035066
216	0x3d11f6c2	0.035635717
217	0xbe824833	-0.2544571
218	0x3ebc1703	0.36736307
219	0x3e33115f	0.17487095
220	0x3e24ae11	0.16082026
221	0x3dc6f8f8	0.09715456
222	0xbe98c935	-0.2984101
223	0xbf43b79b	-0.76452035
224	0x3c5ed0b1	0.013599561
225	0xbcaf7aef	-0.021420924
226	0x3c901135	0.01758633
227	0x3e0d426c	0.13794869
228	0xbed0e206	-0.40797442
229	0xbf10ea43	-0.56607455
230	0x3ea5b24e	0.32362598
231	0xbebc6431	-0.3679519
232	0xbed4d9ac	-0.4157232
233	0xbee3826a	-0.44435436
234	0xbe11691a	-0.1420025
235	0x3ec67395	0.38760057
236	0xbeb213bf	-0.3478069
237	0xbe9d084e	-0.30670398
238	0x3e15f331	0.14643551
239	0xbf238b88	-0.6388478
240	0x3e81ded9	0.25365332
241	0xbf94b6f3	-1.1618332
242	0xbd7a06f8	-0.061041802
243	0x3ea554c6	0.3229124
244	0xbd0ebb38	-0.034846514
245	0x3e9f0b0e	0.31063122
246	0xbf2faf67	-0.6862702
247	0x3f2e2672	0.6802741
248	0xbeb0cf68	-0.34533238
249	0xbe85fb98	-0.26168513
250	0x3e59f478	0.21284664
251	0x3ee84822	0.45367533
252	0xbf7f723e	-0.99783695
253	0x3f323b5b	0.6962182
254	0x3e99c48e	0.30032772
255	0x3ea79b4a	0.32735664

lstm.weight_hh_l1 f4 [256, 64]
0	0xbf1b6b4c	-0.607106
1	0xbd73be9c	-0.05950795
2	0xbe4ab12a	-0.19794145
3	0x3e9abc0e	0.302216
4	0x3f0cafe5	0.54955894
5	0xbdd1a680	-0.102368355
6	0x3de99b9c	0.11406633
7	0xbe125001	-0.14288332
8	0x3deab948	0.11461121
9	0xbdb05e05	-0.08611683
10	0xbe6bb98a	-0.23019996
11	0x3eb43a8a	0.35200912
12	0x3dea1c73	0.114312075
13	0xbd0d7472	-0.03453488
14	0xbe1bda0e	-0.152199
15	0xbed2df99	-0.41186216
16	0x3eab7411	0.3348699
17	0xbddc270a	-0.107496336
18	0x3e391f12	0.18078259
19	0xbe1ce213	-0.15320615
20	0x3e8a2943	0.26984605
21	0xbeab1508	-0.33414483
22	0xbddb7ee4	-0.10717562
23	0x3de1ca82	0.110249534
24	0xbe6af88e	-0.22946379
25	0x3e5d1ef1	0.21593834
26	0x3cd39bb4	0.025831081
27	0xbd81c07a	-0.0633554
28	0xbe7c3bf0	-0.2463224
29	0xbe3c1e99	-0.18371047
30	0x3e179641	0.14803411
31	0x3eb3086c	0.34967363
32	0xbd7c88b8	-0.061653823
33	0x3e14fdf4	0.1455
34	0x3f053083	0.5202715
35	0x3e901c1b	0.28146443
36	0x3d0e5432	0.034748264
37	0x3e812ed1	0.2523103
38	0x3def7b0c	0.11693391
39	0x3b516d99	0.0031956194
40	0x3dc48718	0.095960796
41	0x3e877743	0.26458177
42	0xbe049f9c	-0.12951511
43	0xbe95448c	-0.2915386
44	0x3d3d827d	0.04626702
45	0x3ec4043d	0.38284484
46	0xbd165399	-0.03670082
47	0x3ebea315	0.37233797
48	0x3e448b86	0.19193849
49	0xbdae0e6f	-0.08498847
50	0xbe39a45f	-0.18129109
51	0x3ea8c4ce	0.3296265
52	0xbd335e27	-0.043790963
53	0x3d8fe0c9	0.07025296
54	0x3de47444	0.111549884
55	0xbe54a9d9	-0.20767917
56	0x3c14dcdf	0.009085863
57	0x3e62c50d	0.22145481
58	0x3e2c9c39	0.16856469
59	0xbe490279	-0.1962985
60	0xbea27fc5	-0.31738105
61	0x3ea42435	0.32058874
62	0x3db2f25b	0.08737632
63	0x3f4e2340	0.8052254
64	0x3e47ed72	0.19524172
65	0x3d0e74a8	0.03477922
66	0xbe24f862	-0.16110376
67	0x3e4d4e10	0.2004931
68	0x3dc58ab6	0.09645598
69	0x3cd8b803	0.026454931
70	0x3dca825b	0.098881446
71	0xbe2bfccc	-0.16795653
72	0x3d9f7b58	0.07787198
73	0xbc47fc1d	-0.012206105
74	0xbc6e6036	-0.014549306
75	0x3e25f010	0.16204858
76	0x3e4dd27b	0.20099823
77	0xbde79d4b	-0.11309298
78	0xbd5b0261	-0.053469066
79	0x3e029885	0.12753494
80	0x3e5b43a4	0.21412522
81	0xbe1e83b8	-0.15479934
82	0xbcb26fcb	-0.021781823
83	0xbd585344	-0.052813783
84	0xbe1a4434	-0.1506508
85	0x3e1d68fd	0.15372081
86	0x3cf70c9b	0.030157378
87	0xbd1edc21	-0.03878415
88	0xbd9d4acc	-0.07680282
89	0x3db406e9	0.087903805
90	0x3d295d25	0.041348595
91	0x3d120744	0.03565146
92	0xbe93e8c7	-0.28888533
93	0x3dcab564	0.09897879
94	0x3e890ca0	0.26767445
95	0xbe82c0e1	-0.2553778
96	0xbc3f79b6	-0.011686733
97	0xbe7638d0	-0.2404511
98	0x3d459edb	0.0482472
99	0x3d54a8fc	0.05191897
100	0xbb8a1d35	-0.0042149075
101	0x3e8ea807	0.2786257
102	0xbdb8d7cd	-0.09025536
103	0x3d3ccd47	0.046094205
104	0x3e83e6af	0.25761935
105	0x3dac6deb	0.08419403
106	0x3cf45aea	0.029828507
107	0xbd426306	-0.047457717
108	0x3e4c2d9b	0.19939272
109	0x3e83fd7e	0.25779337
110	0x3e2d8571	0.16945435
111	0xbc2a924d	-0.010410857
112	0x3df78c65	0.12087325
113	0x3e082919	0.13296928
114	0x3d5bd7d8	0.05367264
115	0xbc44fa04	-0.012022499
116	0xbe5d130f	-0.21589302
117	0xbd33fba0	-0.04394114
118	0x3d6b35ac	0.057424232
119	0xbdf0baf6	-0.1175441
120	0x3ca81975	0.020519951
121	0x3d4437ac	0.047904655
122	0xbdd069f5	-0.1017646
123	0xbe1637be	-0.14669701
124	0xbe6e4bbd	-0.2327108
125	0xbdad13a2	-0.0845101
126	0x3d533f50	0.05157405
127	0xbec78a8f	-0.389729
128	0x3e643442	0.2228556
129	0xbe5229a4	-0.20523697
130	0xbe0e0764	-0.13870007
131	0x3df0b488	0.117531836
132	0xbed0d32e	-0.40786117
133	0x3ede41e0	0.43409634
134	0x3ddd2d6b	0.107996784
135	0xbe9709df	-0.2949972
136	0x3e95f566	0.29288787
137	0xbe828506	-0.25492114
138	0xbe5ea92a	-0.21744218
139	0x3def4160	0.11682391
140	0xbe8beeba	-0.2733057
141	0xbe5e2b8c	-0.216963
142	0xbe96ebf5	-0.29476896
143	0x3d3d93e6	0.046283625
144	0x3db0d81c	0.086349696
145	0xbd34b443	-0.044117223
146	0x3d9ecf67	0.077544026
147	0x3f11305f	0.56714433
148	0x3d8585ef	0.065196864
149	0x3eb518ab	0.35370383
150	0xbddbb17d	-0.107272126
151	0xbe9a30b5	-0.30115286
152	0xbcb8983f	-0.022533534
153	0x3e804f17	0.2506034
154	0xbdadce57	-0.08486622
155	0xbda8a26d	-0.08234105
156	0xbde15003	-0.11001589
157	0x3e99a640	0.3000965
158	0xbec50188	-0.3847773
159	0x3d4df3b2	0.050281234
160	0x3d045c82	0.032314785
161	0xbe1c9143	-0.15289788
162	0xbd37cd8d	-0.044873763
163	0xbead9293	-0.3390089
164	0x3d23c8b6	0.039986335
165	0xbd305b9e	-0.043056123
166	0xbe4be15b	-0.19910185
167	0x3dfde280	0.12396717
168	0x3d24fecd	0.04028206
169	0x3ef56b0c	0.47933233
170	0xbc45855f	-0.012055724
171	0xbe2688c2	-0.16263106
172	0x3e2ef79a	0.1708664
173	0x3e05341d	0.13008161
174	0x3e882885	0.26593414
175	0xbe1429f5	-0.1446913
176	0x3d916911	0.07100118
177	0xbe0a43d4	-0.13502437
178	0x3f0e9e72	0.5571052
179	0xbd8bb097	-0.06820791
180	0xbe294c12	-0.16532925
181	0x3e2f50d5	0.17120679
182	0xbd3efa61	-0.0466255
183	0x3ee08413	0.43850765
184	0x3d390524	0.045170918
185	0x3edfc914	0.43708098
186	0xbf0a59e0	-0.5404339
187	0x3e5b875f	0.21438359
188	0xbd560611	-0.05225188
189	0x3df9090a	0.12159927
190	0xbe275f49	-0.16344942
191	0xbea6c560	-0.3257246
192	0x3e83976e	0.2570147
193	0xbc339526	-0.010960853
194	0xbe40fef7	-0.18847261
195	0xbc9cc91d	-0.019138867
196	0x3ea5f2c7	0.32411787
197	0x3da5b536	0.08091204
198	0xbd43ac62	-0.04777182
199	0xbea79f11	-0.32738546
200	0xbd3d45bf	-0.046209093
201	0xbd19a869	-0.037514124
202	0xbc70ad1e	-0.014689712
203	0x3d88c4c5	0.06678156
204	0x3d840188	0.064456046
205	0xbe8be2e9	-0.27321556
206	0xbddc48fb	-0.107561074
207	0x3efce9b1	0.49397042
208	0x3db1772d	0.08665309
209	0xbd919516	-0.07108514
210	0xbdda77ce	-0.10667382
211	0xbecb675d	-0.39727297
212	0xbe522ace	-0.20524141
213	0xbe9f2019	-0.31079176
214	0xbe33b1f1	-0.17548348
215	0xbdd6f789	-0.10496432
216	0x3d817cf0	0.06322658
217	0x3e8fe9c0	0.28108025
218	0x3dacaf8f	0.08431923
219	0xbd79c2df	-0.06097686
220	0xbea03804	-0.31292737
221	0x3e603f94	0.21899253
222	0x3ed5742a	0.4169019
223	0xbe8f81cf	-0.28028724
224	0x3dd5ac72	0.10433282
225	0xbe98fac6	-0.29878825
226	0x3eebf4a8	0.46085095
227	0x3e6cc312	0.23121288
228	0xbdc89880	-0.09794712
229	0x3dc9459c	0.0982773
230	0x3e2cdf69	0.16882099
231	0x3e24f4c5	0.16108997
232	0x3e1559a9	0.14584984
233	0x3ed9dd2a	0.42551547
234	0xbcb0fb26	-0.021604132
235	0x3dcca385	0.099921264
236	0x3dd73245	0.10507635
237	0x3d71b714	0.059012488
238	0x3e487b0a	0.19578186
239	0x3da4c15b	0.08044692
240	0x3de47348	0.11154801
241	0xbe460ecf	-0.19341587
242	0x3e0f5e53	0.14000826
243	0xbe0775d7	-0.13228546
244	0xbdf1c4fe	-0.118051514
245	0x3d18d240	0.037309885
246	0xbcaafc38	-0.02087222
247	0xbe884bfc	-0.2662047
248	0x3f359f1a	0.70945895
249	0x3e80176c	0.2501787
250	0x3d0bb54a	0.034108438
251	0xbe49f39f	-0.1972184
252	0xbe1e13f8	-0.15437305
253	0x3e775a3f	0.2415552
254	0xbe3656ff	-0.17806624
255	0xbee38a42	-0.4444142

lstm.bias_ih_l1 f4 [256]
0	0xbd920724	-0.07130268
1	0xbb19da17	-0.002347594
2	0x3e6cefcb	0.23138349
3	0xbd62cd37	-0.05537149
4	0xbe605a4e	-0.21909449
5	0xbd0dc2ba	-0.034609534
6	0xbd9c5fcd	-0.0763546
7	0xbe1a03d5	-0.15040524
8	0xbd500596	-0.050786577
9	0x3b4a6dfa	0.0030888305
10	0xbdf386eb	-0.11890968
11	0xbe3c7e13	-0.18407468
12	0x3c25fa72	0.010130512
13	0xbddbacb4	-0.107263
14	0xbd8a8bae	-0.06764923
15	0x3c7e04de	0.01550409
16	0xbe826d2b	-0.25473914
17	0xbe8bf70a	-0.27336913
18	0x3c86b149	0.016441958
19	0x3b88229b	0.004154516
20	0x3dc2d192	0.095126286
21	0x3d3f2e05	0.046674747
22	0x3c869c89	0.016432064
23	0xbe0626fb	-0.13100807
24	0xbda4d1c4	-0.08047822
25	0x3dd45d01	0.103693016
26	0x3e70c13a	0.2351121
27	0xbd979e61	-0.07403255
28	0x3d90ce18	0.07070559
29	0x3dcc65e5	0.09980372
30	0x3e1b71c7	0.15180121
31	0x3b820dd2	0.0039689327
32	0xbddda978	-0.10823339
33	0x3d3fd5c4	0.046834722
34	0x3cd07da7	0.02545054
35	0xbe4c8ebe	-0.19976327
36	0xbe5204fe	-0.20509717
37	0xbd94ff4f	-0.07275259
38	0x3a1e1af7	0.000603124
39	0xbdc2f471	-0.0951928
40	0xbe0ecb30	-0.13944697
41	0xbc8bca22	-0.017064158
42	0x3de32d33	0.110926054
43	0x3cd866ae	0.026416149
44	0x3ccdd38f	0.025125293
45	0xbd77b0f3	-0.060471486
46	0xbe1920d3	-0.14953928
47	0xbea0cc8f	-0.31406066
48	0xbe32de45	-0.17467602
49	0xbd7c4987	-0.06159356
50	0x3d4c21b5	0.049836833
51	0xbbc6ea4d	-0.0060704113
52	0xbdb29b37	-0.08721011
53	0x3ded11e6	0.115756795
54	0xbe61e8d7	-0.22061478
55	0x3c9f4c50	0.019445568
56	0xbb2f3289	-0.0026733002
57	0xbd9f74b8	-0.07785934
58	0xbe18d954	-0.14926654
59	0xbd87631e	-0.06610702
60	0x3c502ae3	0.0127055375
61	0xbdb4f393	-0.088355206
62	0xbe9c44a1	-0.3052111
63	0x3df43f1b	0.11926099
64	0x3dcac5ee	0.09901033
65	0x3e6e563e	0.23275086
66	0x3e83f67a	0.25773984
67	0x3e1d2062	0.15344384
68	0x3cda005d	0.026611501
69	0xbdf486a0	-0.1193974
70	0xbe3d6671	-0.1849611
71	0xbe3c5741	-0.1839266
72	0x3c1b5bed	0.009482366
73	0xbd98c63f	-0.074596874
74	0x3e049c82	0.12950328
75	0x3d2f45a3	0.04279102
76	0xbe309193	-0.17243032
77	0xbe853a4f	-0.26021048
78	0xbdcd5b29	-0.10027153
79	0xbcd76327	-0.026292397
80	0xbe42095c	-0.18948883
81	0xbdb941af	-0.09045731
82	0x3e4a9aee	0.19785663
83	0xbdb74277	-0.08948224
84	0x3d0541ce	0.03253346
85	0xbd1dfc92	-0.038570948
86	0xbe330ec3	-0.174861
87	0x3dd17780	0.10227871
88	0xbbdee1c8	-0.0068018176
89	0xbeaff325	-0.34365192
90	0x3dae3af0	0.08507335
91	0xbd98eef1	-0.074674495
92	0xbcf1925a	-0.029488731
93	0xbe1425cc	-0.14467543
94	0xbe0643ec	-0.13111848
95	0xbc505981	-0.012716652
96	0xbe48bbd4	-0.196029
97	0x3e7c7352	0.24653366
98	0xbdfde768	-0.12397653
99	0xbe16cbbc	-0.14726156
100	0xbd5a7880	-0.053337574
101	0x3e801820	0.25018406
102	0xbdc583ee	-0.09644304
103	0xbdbbe6d1	-0.09174884
104	0xbd580c68	-0.052746207
105	0xbea65ec2	-0.3249417
106	0x3ec13374	0.37734568
107	0x3db5de94	0.08880344
108	0x3d8e46d4	0.06947103
109	0x3ea8f85b	0.3300198
110	0xbea10158	-0.31446338
111	0x3cbb1eed	0.022841895
112	0xbe84f826	-0.25970572
113	0xbe203add	-0.15647455
114	0x3ea1ce04	0.3160249
115	0xbb90a34d	-0.004413998
116	0xbe4273d9	-0.18989505
117	0xbd2e2265	-0.04251327
118	0xbe8c04d1	-0.27347425
119	0xbdd637ba	-0.10459848
120	0xbe081eac	-0.1329295
121	0xbdc4cb2f	-0.09609067
122	0xbd60c2f9	-0.05487344
123	0xbe6a4807	-0.22879039
124	0xbd7116d2	-0.058859654
125	0xbc9175b2	-0.017756317
126	0xbe241e58	-0.160272
127	0x3c8be503	0.017076975
128	0xbe200ca6	-0.15629825
129	0xbe2d33d2	-0.16914299
130	0xbde6bb9c	-0.112662524
131	0xbdaff2b1	-0.085912116
132	0xbdaa49a1	-0.08314825
133	0x3cd64c28	0.026159361
134	0xbd58992d	-0.052880455
135	0xbcd89b3b	-0.026441207
136	0xbd0366a5	-0.03208031
137	0xbd3e4f38	-0.046462268
138	0xbd48414a	-0.04889039
139	0x3dfccd49	0.123438425
140	0x3d97efe9	0.07418806
141	0x3d55ec3f	0.052227255
142	0xbdacf954	-0.08445993
143	0x3c585dc9	0.013205954
144	0xbc9e63a2	-0.019334618
145	0xbdad32f6	-0.08456986
146	0x3dacdc50	0.08440459
147	0xbc90a479	-0.017656552
148	0xbe0e24f4	-0.13881284
149	0x3cf26f05	0.029593954
150	0xbcd78644	-0.02630914
151	0xbe166adf	-0.14689206
152	0x3cfb4cea	0.030676324
153	0x3d042d14	0.032269552
154	0x3dc64039	0.09680218
155	0xbe0e9c95	-0.13926919
156	0xbc7efd1c	-0.015563276
157	0x3d1031b0	0.035203636
158	0x3e279368	0.16364825
159	0x3e0c87c4	0.13723665
160	0xbadbde0b	-0.0016774548
161	0x3d36f189	0.04466394
162	0x3ca3bd65	0.019987771
163	0xbd68e08e	-0.056854777
164	0xbe01d891	-0.1268027
165	0x3dafdbf0	0.085868716
166	0xbd497d6c	-0.049191877
167	0xbdc2dae5	-0.09514407
168	0x3d224ec1	0.039625887
169	0x3d129d08	0.035794288
170	0xbde673f7	-0.11252587
171	0xbde90834	-0.11378518
172	0x3dedca63	0.11610868
173	0x3dda788d	0.106675245
174	0x3e1151d1	0.14191367
175	0xbd6fcfcf	-0.05854779
176	0xbc6b955a	-0.01437887
177	0xbe048885	-0.12942703
178	0x3c765a38	0.015036158
179	0x3e2543e9	0.16139187
180	0xbe035cd5	-0.12828381
181	0x3d43bcd1	0.04778749
182	0x3d4f74ca	0.050648488
183	0xbe059916	-0.13046679
184	0x3c567e40	0.013091624
185	0x3cbc5c2a	0.022993166
186	0x3ccfe8f7	0.025379641
187	0xbcda865d	-0.026675398
188	0x3c5ce421	0.013482125
189	0xbd8dfb72	-0.06932725
190	0x3dc506d7	0.09620445
191	0x3d138a6d	0.036020685
192	0xbe0ce886	-0.13760576
193	0x3dfb6420	0.12274957
194	0xbd8ad566	-0.06778984
195	0x3d28102d	0.04103105
196	0xbe0a334e	-0.13496134
197	0x3d47067e	0.048590176
198	0xbdef0a3b	-0.11671873
199	0x3c521086	0.012821322
200	0xbe22a2b4	-0.15882379
201	0xbe095d4e	-0.13414499
202	0xbd18dfa0	-0.03732264
203	0x3df88d93	0.12136378
204	0xbc703266	-0.014660453
205	0xbe0763ed	-0.13221712
206	0xbe24aa58	-0.16080606
207	0xbe2423b3	-0.16029243
208	0xbe6b5dff	-0.22985075
209	0xbe3ddf93	-0.18542318
210	0xbe2b83d5	-0.16749509
211	0x3e048713	0.12942152
212	0x3e0da6a0	0.13833094
213	0x3c08ef05	0.008357768
214	0xbe3587b8	-0.17727554
215	0xbdf032e0	-0.11728454
216	0xbd1877ca	-0.037223615
217	0xbcb3f20c	-0.021966003
218	0xbcb7fd37	-0.02245961
219	0xbde403d9	-0.111335464
220	0x3e75f23f	0.24018191
221	0xbd24cdf8	-0.04023549
222	0x3d8db184	0.06918624
223	0x3c7931b7	0.015209607
224	0x3d799840	0.060936213
225	0x3c994b3a	0.018712629
226	0x3e3e8254	0.18604404
227	0xbde3856b	-0.11109432
228	0xbe09a331	-0.13441159
229	0x3de90139	0.11377186
230	0x3e52bb59	0.2057928
231	0xbd63a1bc	-0.055574164
232	0xbe3a24d6	-0.18178114
233	0xbd70bfa3	-0.05877651
234	0xbda2190c	-0.079149336
235	0xbdb7b258	-0.08969563
236	0xbda89e5b	-0.08233329
237	0x3e24f951	0.16110732
238	0x3d332ee4	0.04374589
239	0xbeb589b7	-0.3545663
240	0xbe4daba7	-0.20085011
241	0xbda1589a	-0.078782275
242	0x3d346202	0.04403878
243	0xbda96f14	-0.082731396
244	0xbdc1c0e8	-0.09460622
245	0x3d3c9ae3	0.04604615
246	0xbe6edd50	-0.23326612
247	0xbc812e2f	-0.015769092
248	0x3e045584	0.12923247
249	0xbe5b441b	-0.21412699
250	0xbd45a9b7	-0.048257556
251	0x3dbb056d	0.09131894
252	0xbcf9337d	-0.03042006
253	0xbe6b1625	-0.22957666
254	0xbea6bb26	-0.32564658
255	0xbc9c8d39	-0.019110309
