backend/ai_engine/models/lstm_forecast_model.pth (torch, 206277 bytes, 9 tensors)

lstm.weight_ih_l0 f4 [256, 1]
000000 b3 af 4e 3d 92 39 ae be a3 bc 15 bf e9 27 98 3c
       0.05046053 -0.34028298 -0.5849096 0.018573718
000010 e9 b4 95 3e 9a 9a 9d be e0 e4 a5 bc 45 80 be bd
       0.29239586 -0.30782014 -0.020250738 -0.09301809
000020 56 b2 41 be 58 7c 60 bd d6 92 f4 be 12 64 a7 bf
       -0.18915686 -0.054806083 -0.47768277 -1.3077414
000030 4e 1a ac be 87 4d e8 3b f5 a9 3b be c7 cc d9 bd
       -0.3361382 0.00708932 -0.18326552 -0.10634761
000040 f4 af a1 be f8 cd cd bd 76 94 9f 3d 2b df fb bf
       -0.31579554 -0.10049051 0.077919886 -1.967748
000050 d9 2e 4e bf 79 f7 a8 be a3 e3 84 bf 55 69 66 be
       -0.80540234 -0.33001307 -1.0381969 -0.22501118
000060 39 ad 53 be 24 b7 63 bd 57 a6 18 3e e0 0f aa be
       -0.20671548 -0.05559458 0.14907204 -0.33215237
000070 fe 71 cd bd 65 d1 0d bf 17 04 d7 be db 0e 54 bf
       -0.10031508 -0.55397636 -0.41995308 -0.8283517
000080 bb e8 b2 be 19 9f e9 be b8 85 81 be 1e 71 d5 be
       -0.34943184 -0.45629194 -0.25297332 -0.41687864
000090 ae 25 21 bf e4 b1 3b bf e5 98 ee be 49 2e 0f be
       -0.6294812 -0.73318315 -0.46601024 -0.139825
0000a0 11 11 2c bf 81 f7 4a be 8c 0c 06 bf 4e e0 fd 3d
       -0.6721354 -0.19820978 -0.52362895 0.12396298
0000b0 34 29 08 bf 9b 6f bd bf a5 cc 46 bf a6 f4 14 be
       -0.5318787 -1.4799684 -0.7765601 -0.14546451
0000c0 9f cd 92 bc 59 fe 13 bf c0 02 7a be 45 5a 1a bd
       -0.017920313 -0.5780998 -0.24415112 -0.037683744
0000d0 e9 62 27 be 46 60 2d bf 2a 76 47 be e9 75 72 be
       -0.16346325 -0.67725027 -0.1947867 -0.23677792
0000e0 66 a0 01 bf 54 83 a4 bf ba b5 b9 3e 3f b5 42 3e
       -0.50635374 -1.2852578 0.3627146 0.19014452
0000f0 1f 93 69 bb 79 2f 6e 3b f4 8b ae bf b1 11 56 bf
       -0.003564067 0.0036344214 -1.363646 -0.83620745
000100 ed dd e6 3d c6 23 63 be fa 0c 01 bf 9a e2 68 3e
       0.11272798 -0.22181615 -0.50410426 0.22742692
000110 ae 89 05 3f 93 8c ea be 47 38 d1 3b db 4a 96 be
       0.5216321 -0.45810375 0.0063848826 -0.29353985
000120 62 22 6e be b4 dc cd bd 5e 81 2c be e1 58 ba 3e
       -0.23255304 -0.100518614 -0.16846225 0.36395934
000130 76 0f 8f be a8 5b b9 be 7d 6b 89 be 7f 4a 71 be
       -0.27941483 -0.3620274 -0.2683982 -0.23563574
000140 cb 3a 14 be 53 30 0f 3d 4a 89 21 bd 82 96 b2 3e
       -0.14475553 0.034958195 -0.03943757 0.34880453
000150 7c 3f 09 bf 8e 28 72 3e 58 d2 25 3e 20 e0 15 be
       -0.53612494 0.23648283 0.16193521 -0.14636278
000160 4d b6 31 3e 13 76 4f be 34 a4 b5 be ad 6a 5b be
       0.17354698 -0.20259885 -0.3547684 -0.21427412
000170 2a de 97 be 89 b3 d3 be 0f ea 83 bd b6 d7 b0 be
       -0.29661685 -0.41347912 -0.064411275 -0.34539574
000180 51 a1 09 3c 14 aa 86 3e 9f 99 7b be 05 cd 96 bd
       0.008400277 0.26301634 -0.2457032 -0.07363323
000190 17 ea b0 be 78 30 6a be 38 85 34 3e 28 37 0e be
       -0.34553596 -0.22870052 0.17628944 -0.13888228
0001a0 1f 9d a6 be b3 39 a3 bd da 18 9f be 3d ef 60 3e
       -0.3254175 -0.0796999 -0.31073648 0.21966262
0001b0 5e 46 f8 bd 06 8a 92 3c 7f dc 9c 3e b3 c6 ca 3d
       -0.121227965 0.01788808 0.30636975 0.0990118
0001c0 ad 82 26 3c c3 c4 25 3f 1a 8f 11 be 22 4d a8 be
       0.0101629915 0.6475336 -0.14214745 -0.32871348
0001d0 f4 07 cb be 99 f1 0b 3f 43 f0 c4 be 6c 5e 01 3f
       -0.39654505 0.54665524 -0.38464555 0.505347
0001e0 58 ee 42 be 53 0a 38 3e 74 25 7f 3d cf ec b6 3e
       -0.19036233 0.17972688 0.062291577 0.35727546
0001f0 b4 47 aa 3d 43 be 74 be ef 40 86 bd 06 8d ff 3e
       0.083144575 -0.23900704 -0.06555354 0.4991228
000200 9d 66 55 3d 4f 62 ec 3d 8f b6 06 3f 79 ef aa bd
       0.052099813 0.115421884 0.5262231 -0.08346457
000210 08 bb f7 bc 72 ac bc bd e1 dd 4e be 75 94 3c be
       -0.03024055 -0.09212579 -0.20201828 -0.18416007
000220 7a 0f 6e 3e fe b0 6f 3e 34 af ab 3d 1a a4 df 3e
       0.23248091 0.23407361 0.08383027 0.43679887
000230 24 33 46 3e f4 27 c7 3e 74 df b3 bd 38 a8 20 be
       0.19355446 0.3889767 -0.08782855 -0.1568917
000240 f2 f1 a0 3d 60 91 8b be f5 e1 0e 3e 4d a5 21 bf
       0.078586474 -0.2725935 0.13953383 -0.63142854
000250 81 49 06 3f 54 ac 1b 3f 13 74 08 bf a3 29 0b 3e
       0.5245591 0.60809827 -0.53302115 0.13590102
000260 25 1c 54 3e 9c ad 7b 3e 7d b9 14 3f c6 6c 48 3e
       0.20713861 0.24577945 0.5809553 0.19572744
000270 b3 a5 7a 3e f8 c0 70 3e 90 2e 7c bd 1f e2 48 3e
       0.24477272 0.23511112 -0.061567843 0.19617508
000280 4d 7d 94 bd 34 29 0c 3f bd 70 37 be ee e6 23 bd
       -0.07250462 0.5475037 -0.179141 -0.040015154
000290 0d 83 36 3e 11 2b b2 be 63 0b d3 be 53 12 54 bd
       0.1782343 -0.34798482 -0.41219625 -0.051775288
0002a0 d7 6a 36 be ea 27 9c bd 78 45 8b 3e 7a 12 78 3d
       -0.17814194 -0.076248005 0.27201438 0.060564496
0002b0 f7 9d 0e bf 7c f1 12 bf 72 34 0a 3f 5f 89 61 bd
       -0.55709785 -0.57399726 0.53986275 -0.055062648
0002c0 51 09 71 3d 81 69 00 bf 24 cf 39 3e b5 9d ac 3e
       0.058846775 -0.50160986 0.18145424 0.3371407
0002d0 b6 e8 49 be 82 e5 95 be 3e b9 2c 3e 0c f3 37 3e
       -0.19717678 -0.29276663 0.1686754 0.17963809
0002e0 2d cd 40 3e b6 41 10 3f 0a 21 d2 3d 1a 7d ab bc
       0.18828268 0.56350267 0.10260208 -0.020933677
0002f0 28 d4 53 be 72 e4 4d 3e 15 04 25 bf 1a 34 b8 be
       -0.206864 0.20106676 -0.64459354 -0.3597725
000300 72 9e 9a 3d 95 b9 c7 be c4 24 e1 be 7f ee ae 3d
       0.07549752 -0.39008775 -0.43973362 0.08541583
000310 32 bc 2e 3f bd 07 e0 be 1e 47 27 3d eb 00 31 bf
       0.68255913 -0.43755904 0.040839307 -0.69142026
000320 b4 22 bd be 02 b1 16 bd e1 b8 0d bf 4e 18 67 be
       -0.3694054 -0.0367899 -0.5536023 -0.22567865
000330 99 50 07 bf d4 4e b9 be d7 12 b9 be a8 72 ea bd
       -0.5285736 -0.36192954 -0.36147186 -0.1144765
000340 0b f4 7d be 12 f7 de bc d1 3e 42 bc 08 db f0 be
       -0.24800126 -0.027217422 -0.011855797 -0.47042108
000350 ac c8 e5 be 62 f8 0f bd dc a8 e9 be ef 68 4e be
       -0.44879663 -0.035148986 -0.45636642 -0.20157216
000360 37 05 13 3d a8 14 93 be 66 fd 13 3e b1 f4 b1 be
       0.035893645 -0.28726697 0.14452133 -0.34756997
000370 5b 93 5b be 94 0d 14 bf 17 07 96 be a6 f2 44 bf
       -0.2144293 -0.5783322 -0.29302284 -0.7693275
000380 f2 67 15 be 61 23 9d 3d 7d 08 8e be 57 00 83 be
       -0.14590433 0.076727636 -0.2774085 -0.25586197
000390 76 9a 1f bf 2e 1b 1e bf 2c e0 01 be 17 92 eb bd
       -0.62345064 -0.6176022 -0.12683171 -0.11502474
0003a0 43 8e 0a bf 22 72 23 be 13 41 a4 be 88 62 95 3e
       -0.54123324 -0.15961507 -0.32080898 0.29176736
0003b0 37 89 b1 be 08 1f 39 bf 0b 81 20 be e6 fe a5 3b
       -0.34675 -0.72312975 -0.15674226 0.0050657867
0003c0 70 bc 9a bd 29 0f 6f 3e b6 72 b9 be 30 9a aa be
       -0.07555473 0.23345627 -0.3622033 -0.3332076
0003d0 9a 5d d2 be f6 d5 16 bc 8c c7 cb be a8 58 69 3e
       -0.41087037 -0.009206286 -0.3980068 0.22787726
0003e0 20 92 73 be 8e d1 04 bf d1 9c 92 3e 9d c3 af 3e
       -0.23786211 -0.51882255 0.28635266 0.3432893
0003f0 43 68 31 be db 77 fe bd 8e 79 d5 be ab 41 f2 3d
       -0.17324929 -0.12425204 -0.416943 0.118289314

lstm.weight_hh_l0 f4 [256, 64]
000000 85 e7 e6 bd c0 45 87 3e f3 ce 06 bf f6 f8 35 be
       -0.112746276 0.26420403 -0.5265953 -0.17770752
000010 17 c7 b6 3e 91 97 7e be 27 c3 35 be 98 9e 83 be
       0.35698768 -0.24862505 -0.17750226 -0.25706935
000020 e8 bb 37 3e 51 b5 db 3d e0 79 fe bc 6a b8 a2 be
       0.17942774 0.10727943 -0.031063974 -0.31781322
000030 7c e5 94 3e 45 01 02 3e 2a be ea 3e 1c db b5 be
       0.29081333 0.12695797 0.4584821 -0.3551873
000040 fb 25 a2 3c ec ca 17 be b9 b5 4f bd 1f 3e 29 3f
       0.019793501 -0.14823502 -0.050710414 0.66110414
000050 97 f1 c1 be 9e 04 17 be 2a 5a 34 3f 15 a8 be 3e
       -0.3787963 -0.14747855 0.7045008 0.3723761
000060 0d 6b 83 3e a0 01 16 3e 70 6d 73 3e 5d 01 16 3d
       0.2566761 0.14649057 0.23772216 0.036622394
000070 f2 e2 bf bd cd f8 cf be 01 de 6b 3e 0f 40 0b be
       -0.09369458 -0.40619507 0.23033907 -0.13598655
000080 17 8a be bc 56 30 ce bd 14 53 99 bd 87 76 06 be
       -0.023259206 -0.10067813 -0.07486549 -0.13131152
000090 ed 83 5a be d3 86 5c 3e 73 c0 22 3e 4c dd 0d 3e
       -0.21339388 0.21535806 0.15893726 0.1385395
0000a0 ff f8 07 3e cc ef 92 be 11 a8 eb bd 19 eb 8f be
       0.13278578 -0.28698575 -0.115066655 -0.28109053
0000b0 e4 60 13 3e b8 30 65 3f bc 07 1c be 3d 99 75 3e
       0.1439243 0.89527464 -0.15237325 0.23984237
0000c0 44 cb 78 3e fc 01 b4 3e 83 20 7e 3e 3b 8d 06 3d
       0.2429629 0.35157764 0.2481709 0.03284953
0000d0 58 0f 0c 3e 61 74 13 3f 13 e8 85 3e 3d 94 e4 be
       0.13677728 0.57599455 0.2615362 -0.44644347
0000e0 31 bb 9d 3c 34 ac 4a bf 84 76 fe 3d b5 54 e4 bd
       0.019254299 -0.7916901 0.12424949 -0.11148969
0000f0 c5 d0 0c 3e d4 66 96 bd 64 69 b7 3e 60 f0 af 3d
       0.13751514 -0.07343832 0.35822594 0.0859077
000100 d8 24 23 be 11 8e 66 bd 6b 67 de 3c f6 99 92 3d
       -0.15932024 -0.05628783 0.027148923 0.07158272
000110 d8 c8 c5 bd b5 4a 17 be 2a 23 4f bc 47 53 f1 bd
       -0.096574485 -0.14774592 -0.012642661 -0.11783462
000120 a0 43 fd bd 92 2b b9 be 11 12 83 be 49 f0 98 be
       -0.12366414 -0.36166054 -0.2559972 -0.29870823
000130 68 9b 3e be 8c 93 6e be fc 67 20 be 1d 71 db 3d
       -0.1861397 -0.23298472 -0.15664667 0.10714934
000140 a0 61 92 be fe b2 df 3e 94 cd 65 bd a5 56 6b 3d
       -0.28590107 0.43691248 -0.056104258 0.057455678
000150 f4 09 28 3d 0b dc 07 3d 0d eb 40 be d3 b0 0a bf
       0.041025117 0.033168834 -0.18839665 -0.5417606
000160 59 ff bd bd 72 73 63 be a9 b5 69 be 24 9b 21 be
       -0.09277219 -0.22212008 -0.22823204 -0.15781838
000170 d1 31 a6 bc 8c 08 f7 3d c1 60 e2 3c d1 31 d8 bd
       -0.020287426 0.12062177 0.027634026 -0.10556377
000180 82 da bb be 7e b4 51 bd 5b 23 2b 3e d8 6f 35 be
       -0.36690146 -0.05119752 0.16712706 -0.17718446
000190 34 a1 45 ba c2 79 bb bd 1c f4 c7 3d 5a 4f 24 bd
       -0.0007538975 -0.09154083 0.09763357 -0.040114738
0001a0 41 e8 52 bc 78 4e 48 3d b7 4e 6c 3d 9c b4 0f 3e
       -0.012872756 0.04890296 0.057692256 0.14033741
0001b0 10 b7 16 3d 93 38 0e be 70 30 31 be fb ec e9 3d
       0.036795676 -0.13888769 -0.17303634 0.114221536
0001c0 7c c5 61 be fe 7d 19 3e 12 28 bb bd 1e 8e b8 bd
       -0.2204799 0.14989468 -0.09138502 -0.09011482
0001d0 e3 1b 3e be f7 e5 7a 3e 2f 7c 83 be a3 84 c6 be
       -0.18565325 0.24501787 -0.25680682 -0.3877307
0001e0 bb 64 35 be 5b 05 37 be 7b e7 3a 3b c1 2f 00 be
       -0.17714207 -0.17873137 0.002851932 -0.12518217
0001f0 b6 22 00 be c7 34 19 bd bb e5 23 39 b8 b6 6b 3e
       -0.12513241 -0.037403848 0.00015630473 0.2301892
000200 c5 83 9d 3e 3a 88 d5 bb 8b 0d 5f 3e f4 93 85 bd
       0.30764595 -0.0065164836 0.2178251 -0.065223604
000210 ce c4 3f 3e 73 61 89 3e 2a 79 99 3e 13 68 10 3f
       0.18727419 0.2683216 0.29975253 0.56408805
000220 b2 b6 03 bd 14 46 12 3e ba 3c fd bc 64 45 1e 3f
       -0.032156654 0.14284545 -0.030912746 0.6182463
000230 21 10 20 3e 80 bb d0 bc 55 25 e6 3e 39 5d 2f be
       0.15631153 -0.025480032 0.44950357 -0.17125405
000240 bf c0 2b be c8 4d 2c be 51 a9 4b 3e c3 f6 99 be
       -0.16772746 -0.16826546 0.19888808 -0.30071077
000250 e9 7e b5 be 83 2b 80 3d f6 42 e3 3e 61 2f f8 3e
       -0.35448387 0.06258299 0.44387025 0.48473647
000260 99 7c d8 be 6c c7 1f 3e 83 c5 6e 3e de bd 23 3e
       -0.4228256 0.15603417 0.23317532 0.15990397
000270 72 c2 7d be d4 b6 e7 bc be fd 44 3e e2 b1 70 bc
       -0.24781206 -0.028285421 0.1923742 -0.014690848
000280 fc 7b 31 3f ae 68 50 3f d2 ec 80 3d ee 90 b5 3d
       0.6932981 0.8140973 0.0629517 0.08865534
000290 dd 91 16 3e cf e2 07 3f 94 7c 0f bf 97 e8 86 be
       0.1470408 0.5308046 -0.56049466 -0.26349327
0002a0 72 93 13 3e b3 46 aa be f4 a7 b2 be 81 19 0a bf
       0.14411715 -0.33257064 -0.34893763 -0.53945166
0002b0 3e 7a 98 be d5 82 1b 3e a3 9c d4 3e e5 98 19 bf
       -0.29780763 0.15186627 0.41525754 -0.59998924
0002c0 de 98 34 3e 5e f8 31 bf 7e 8f c3 3d 90 82 17 be
       0.17636439 -0.69519603 0.09548853 -0.147959
0002d0 06 14 b4 3e b7 3c 83 3d 94 c9 a3 3d 36 05 23 3f
       0.35171527 0.06408065 0.07997432 0.63679826
0002e0 7b e2 45 39 ff 8a c7 39 f9 31 02 bf 1b e1 50 3e
       0.00018871755 0.00038059798 -0.508575 0.20398371
0002f0 41 4a 05 3f b7 71 88 3e d2 61 3e 3c ad 32 92 3e
       0.5206643 0.26649258 0.011620002 0.28554288
000300 15 17 ab be 15 29 9d 3e 82 2a a1 3c c6 32 8a bd
       -0.33416048 0.30695406 0.01967359 -0.067479655
000310 df df fd 3e 73 78 c7 bd 15 86 83 be 54 90 b6 be
       0.49584863 -0.09739771 -0.25688234 -0.3565699
000320 c3 38 df 3e 9b f6 d1 3d 68 30 3e be 2b 5a 74 be
       0.43597993 0.102521144 -0.18573153 -0.23862521
000330 da b8 a0 ba c7 bd 0e 3e d7 5a b1 be df 9b b8 be
       -0.0012262121 0.13939582 -0.34639618 -0.3605642
000340 f6 6f 14 be 43 fb 5c 3e 6f 0a 23 bc 31 fd c4 bd
       -0.14495835 0.21580224 -0.009951218 -0.09618605
000350 b0 78 06 bf e6 13 dc be 0b 37 a3 3e bd f0 8c be
       -0.52527905 -0.4298393 0.31877932 -0.2752742
000360 cc e3 2e 3e 91 48 65 3e a2 ad 4c bd 29 21 12 be
       0.17079085 0.22390963 -0.049970277 -0.14270462
000370 c8 7f 93 3e a0 85 2c 3d 0b 04 c6 3e 5f d7 4d be
       0.28808427 0.042119622 0.3867496 -0.20101689
000380 cf 4a 4e be 1e d1 0e be b7 bb 45 be 3b be d1 bc
       -0.20145725 -0.1394696 -0.19309889 -0.025603404
000390 bb 40 21 3e 6b 48 cb 3d 88 bb e0 3e 14 13 f6 3d
       0.15747349 0.09925922 0.43893075 0.120153576
0003a0 ff 27 4d bd b3 e2 c1 3c 7f 5b 12 be 82 38 1c be
       -0.05008697 0.023667669 -0.14292715 -0.15255931
0003b0 11 a0 29 3e 2e 75 06 3e 68 14 e6 3d fa fc 3e 3e
       0.16564967 0.13130638 0.11234361 0.1865119
0003c0 33 8e f3 3e fb 4d 78 3e 9c bd 05 3e 61 42 a6 3e
       0.47569427 0.24248497 0.13060611 0.32472518
0003d0 36 43 b6 be e5 fd 2b 3d b4 f4 3b be 9a 71 8e be
       -0.35598153 0.04199018 -0.18355066 -0.27821046
0003e0 21 86 94 bd 9a 62 26 be 45 35 0b 3f 6a b8 5e bb
       -0.072521456 -0.16248551 0.5437816 -0.003398443
0003f0 80 3f 3a be 0e 94 9d bd f5 cf b8 3e 07 2c 5a bf
       -0.18188286 -0.07694255 0.3609616 -0.8522343

lstm.bias_ih_l0 f4 [256]
000000 36 46 29 3e 4f b7 8e be 37 5a c6 3d de 5a 22 bd
       0.1653069 -0.27874228 0.09685176 -0.03963744
000010 07 ae 93 3b 88 17 04 be d8 80 09 3e 70 0b 5b ba
       0.0045068297 -0.12899601 0.13428056 -0.00083558913
000020 06 cf a8 be 38 05 ae bd a8 b5 de be 96 ed 45 3d
       -0.32970446 -0.08497089 -0.43497968 0.048322283
000030 d6 c4 96 be d3 91 44 be 57 28 55 be 34 07 e1 bd
       -0.2944705 -0.19196253 -0.2081617 -0.10987702
000040 87 e1 9e be 1d be cd 3d 55 30 80 be 32 d5 82 3e
       -0.3103144 0.10046027 -0.25036874 0.2555328
000050 30 4e 6f bd 3c 96 63 3e c2 94 c1 3d e9 d7 c4 3c
       -0.058424175 0.22225279 0.094522014 0.024028735
000060 ed c9 a8 bd 4c bf 0e be f1 3e 72 3e fb c8 29 be
       -0.08241639 -0.13940161 0.23656823 -0.16580574
000070 82 a9 2b 3c de 0e 3a be 0e 57 a1 bc ee 2d d0 bd
       0.0104774255 -0.18169734 -0.019694831 -0.101650104
000080 44 56 1d be d8 43 62 3e 78 34 a3 be 03 3c 74 be
       -0.15364939 0.22096193 -0.31875968 -0.23851018
000090 35 6e ce be 77 cb 32 bd 82 48 c0 3d 6d 5e ca be
       -0.40318456 -0.04365107 0.0938883 -0.39525166
0000a0 60 d1 0c be 82 8a 7b be 5a 68 55 be 36 eb cc bb
       -0.13751745 -0.24564555 -0.20840588 -0.0062536253
0000b0 01 26 4c 3e 78 fd 55 3e c1 90 3e 3e 07 36 e6 3d
       0.19936372 0.20897472 0.18609907 0.11240774
0000c0 bd 27 20 3e 24 cc 3d 3e bb 88 93 be 24 dc 51 be
       0.15640159 0.18534905 -0.28815255 -0.20494133
0000d0 0a de 41 bd 70 ed 8a 3c 18 5c 09 be d1 f5 63 3e
       -0.047330894 0.016958922 -0.13414037 0.2226174
0000e0 f4 9e 5b be c4 9e 82 3e bd 83 c9 bd b6 92 69 3e
       -0.21447355 0.25511754 -0.0983958 0.22809872
0000f0 40 3c cc bc fc b0 87 be ad 2b 5d 3e c6 84 a3 3d
       -0.024931073 -0.26502216 0.21598692 0.07984309
000100 b9 14 a9 bd 81 fa 94 3d 7e ea 9a be b8 6d 89 3d
       -0.08255906 0.07274342 -0.30257028 0.0671038
000110 5c 75 01 3e 08 3e d5 be 64 96 47 3e 42 37 1e 3e
       0.12642425 -0.4164889 0.19490963 0.15450767
000120 8e 7b 34 bd 00 3a ce 3b 23 ee 4b be fe c5 0c 3e
       -0.044063143 0.006293535 -0.1991506 0.13747403
000130 72 3f 1a be fa 4a 4f be 06 ba ab be a4 8a ea 3d
       -0.15063265 -0.20243445 -0.33540362 0.11452225
000140 88 dc d7 bd 93 31 3a be 15 9d 13 be 15 3b 0d 3e
       -0.1054011 -0.18182974 -0.14415391 0.1379207
000150 d8 68 b3 bd e1 58 6f be 40 21 36 bb b4 c2 f1 bc
       -0.08760232 -0.23373748 -0.0027790815 -0.029511787
000160 3d 39 71 3e 6f 25 0f be 2d 51 61 3d a8 57 8a 3d
       0.23556991 -0.13979124 0.055009056 0.06755
000170 8a 66 c9 bc 99 b1 56 be 8e f9 92 bd ee a8 b6 be
       -0.024585027 -0.20966186 -0.07176505 -0.35675758
000180 ae 5b 16 3d 4f a3 0f be b6 97 f1 3b c2 12 90 be
       0.036708526 -0.14027141 0.0073728217 -0.2813931
000190 e6 70 e6 be 4d f7 1e 3d 7f 26 5d be dc 8e 56 be
       -0.4500801 0.038810063 -0.21596716 -0.20952934
0001a0 42 00 20 3c 34 75 8d bd b9 3a 47 be 95 08 e3 bc
       0.0097656865 -0.0690712 -0.19455995 -0.027714053
0001b0 ca 4a 31 be 7b 33 9b bd 98 03 01 bd 86 dc 0d 3e
       -0.17313686 -0.075781785 -0.031497568 0.13853654
0001c0 01 0d da 3c e8 48 aa bd 9e 92 9c bd c9 36 51 3c
       0.026617529 -0.08314687 -0.076451525 0.012769409
0001d0 10 f2 f6 bd 41 af 76 3e be 13 46 be ec b4 e5 3d
       -0.120578885 0.24090292 -0.19343469 0.11216149
0001e0 8e 29 80 be 0d 68 9a 3d 51 04 4f 3d 24 2d db 3e
       -0.25031704 0.07539377 0.050541226 0.42807877
0001f0 60 ac 38 3e c5 bf 77 be 56 76 48 be a3 17 52 3e
       0.18034506 -0.24194248 -0.19576392 0.20516829
000200 1d f8 c0 bc 22 73 73 3d 74 f9 3a be 38 53 c5 3d
       -0.02355581 0.05943597 -0.18259221 0.09635013
000210 99 2f f4 3c 0b 34 8a 3d 47 f5 6f 3c 6d 9d 65 3d
       0.029807853 0.06748208 0.014645881 0.056058336
000220 36 eb c3 bc 6d f7 8c 3d fb 94 ab bd a9 b1 0e be
       -0.023915868 0.0688313 -0.08378025 -0.1393496
000230 f9 ab ad bc 22 0e 45 bd 19 69 bc 3d 88 ca 5f bc
       -0.021200167 -0.04810918 0.09199733 -0.013659127
000240 fa c0 b3 bc b9 e8 2f 3e 7d 52 a9 3d dc 5c b0 3c
       -0.021942604 0.1717862 0.082676865 0.021528654
000250 41 41 09 bd b1 16 23 be 48 00 0c 3d 68 9f 50 3d
       -0.033509497 -0.15926625 0.034179956 0.05093327
000260 15 8a 65 3d 51 e9 0f 3e 93 51 4c be a9 78 b4 3c
       0.05603989 0.14053847 -0.19952993 0.022030191
000270 8d 10 0c 3e e0 cf 8f bd b6 50 0b 3d a1 b8 f4 3b
       0.13678189 -0.07022071 0.03401252 0.0074682985
000280 31 67 60 bd 45 fb 6c be 89 a9 8c 3b 31 71 9e 3d
       -0.05478591 -0.23142727 0.004292671 0.07736433
000290 4f ed 90 bd 39 74 01 3e 72 b6 0f 3e b5 30 80 3d
       -0.07076513 0.12641992 0.14034441 0.0625929
0002a0 3b f8 de 3d 1e 7b 20 bb 4a d7 43 be 31 11 93 bd
       0.1088719 -0.0024487446 -0.19125095 -0.071810134
0002b0 22 09 7e 3e dd 10 b9 3d e3 f0 b9 bd 6b 2d 8b 3d
       0.24808171 0.090364195 -0.090791486 0.06795772
0002c0 6d b3 81 3d da ec 8d 3d de f7 d0 bc 23 07 5d 3d
       0.06333051 0.069299415 -0.025508817 0.053961884
0002d0 d9 bd 4a 3c 45 cb 4d 3d a5 81 04 3d 6a a5 0b be
       0.012374365 0.05024268 0.0323502 -0.13637319
0002e0 24 5b f3 bd 6c 71 cc bd df 91 c5 3c d8 cb 89 be
       -0.11882618 -0.09982571 0.024117408 -0.26913333
0002f0 0f 15 ff 3c e3 c0 a5 bd a1 26 5a 3e fc 8b 69 bb
       0.031137971 -0.08093431 0.21303798 -0.0035636416
000300 ad ea 25 bb 8a 36 d1 bd 9e 91 7d 3e 60 de 33 3d
       -0.002531688 -0.102154806 0.2476258 0.043913245
000310 29 c5 d0 3e 74 e8 ac be 28 10 1e 3e da cd 29 bd
       0.4077542 -0.33771098 0.1543585 -0.04145608
000320 f7 65 a8 be 66 54 bf bd 8e d6 08 bf 3a 5e 22 3f
       -0.32890293 -0.093422696 -0.53452384 0.6342503
000330 28 5e 24 be 76 8b 0e be d6 17 f2 bd 12 4f c0 bc
       -0.16051543 -0.13920388 -0.118209526 -0.023475204
000340 8b 9c 6c be 47 6b 59 3d 8e 3c 87 be 53 54 3e 3f
       -0.23106591 0.053080823 -0.26413387 0.7434742
000350 76 66 3a bc a1 c0 cb 3e 85 db 90 3e d9 00 2c 3e
       -0.011376968 0.39795402 0.2829248 0.16797198
000360 d5 81 bb 3c 27 cf 9e be 6d 77 6d 3e 33 73 cc bd
       0.022889057 -0.3101742 0.23190089 -0.0998291
000370 6b c6 46 be e0 a2 0c be 65 a2 f2 bd 7b 29 f8 bc
       -0.19411628 -0.13734007 -0.118473805 -0.030293217
000380 7d e5 40 be 17 92 88 3e d0 21 c9 be 40 2c e3 be
       -0.18837543 0.26673958 -0.3928361 -0.44369698
000390 a5 b5 8b be 39 2d c8 bd 7e e7 79 3e 56 b9 b3 be
       -0.2728702 -0.097742505 0.24404714 -0.35102338
0003a0 28 b6 f2 bd 07 33 8e be cb a3 1c be 66 c9 48 3e
       -0.1185115 -0.27773306 -0.15296857 0.19608077
0003b0 ed e0 73 3e ec 99 95 3e a3 c1 ad 3e a4 eb 67 3c
       0.23816271 0.29218996 0.33936796 0.014155302
0003c0 3a df 3d 3d 89 e8 eb 3e aa e4 89 be 42 d7 13 bd
       0.046355464 0.46075848 -0.2693227 -0.036093958
0003d0 1b 2f 73 be 2c 43 f0 3d 9a 07 2a be ed 14 26 3e
       -0.23748438 0.11731562 -0.16604462 0.1621892
0003e0 44 ce 34 be 95 16 f5 3e 21 a3 83 3e 14 52 71 3e
       -0.17656809 0.4786879 0.25710395 0.23566467
0003f0 ae 49 fb bd 7e 39 93 be 9b 74 89 3e 9f 53 90 3e
       -0.12269913 -0.287548 0.26846775 0.28188798

lstm.bias_hh_l0 f4 [256]
000000 14 d6 0e 3e ef 64 98 be 6f 59 65 3e 0e fc 27 be
       0.13948852 -0.29764506 0.22397397 -0.16404745
000010 3e 43 fa 3d a2 df a6 be 2c 82 fb 3d 87 9f 2a b9
       0.12219857 -0.32592493 0.12280688 -0.00016271892
000020 3d a4 8b be 5d f5 5f be 7c e8 a1 be 78 8c 1a 3e
       -0.2727374 -0.21870942 -0.31622684 0.15092647
000030 65 ee 20 be a2 e8 3e bd bd 28 48 be 92 6f 00 be
       -0.1571594 -0.046608575 -0.1954679 -0.1254256
000040 a0 44 72 be 09 e4 e8 bd 70 6a b4 bd 30 0d 7e 3e
       -0.23658991 -0.11371619 -0.08809364 0.24809718
000050 2f 04 c5 3d 82 3e 47 3e 94 41 94 3d bb cd 4e bd
       0.096199386 0.19457439 0.072390705 -0.05048917
000060 b7 25 93 bd 2e 0d 4d be a7 7d 57 3e d9 14 8b be
       -0.07184928 -0.20024559 0.21044026 -0.27164343
000070 66 4a 08 be 52 83 25 be 7f ea 77 bd 56 3b 61 bd
       -0.13309631 -0.16163376 -0.060526367 -0.054988228
000080 9a 80 26 be f3 6a b2 3e f0 6a c0 be 34 5a b6 be
       -0.16259995 0.3484722 -0.37581587 -0.35615695
000090 0b ad e3 be df 81 fe bd a8 62 82 3e b5 bc b5 be
       -0.4446796 -0.12427115 0.25465894 -0.35495535
0000a0 cc 7f 56 be 7c 5c 93 be 5c de 40 be 22 d5 10 3d
       -0.20947188 -0.28781497 -0.18834823 0.03535951
0000b0 a1 a6 96 3d bc 0b 5f 3e c5 a6 04 3e 99 f7 de 3d
       0.07356001 0.2178182 0.12954243 0.10887069
0000c0 06 df 33 3d 4e 2c 2c 3e a0 09 5f be ba 7a f5 3a
       0.043913864 0.16813776 -0.21781015 0.0018728592
0000d0 bd 56 83 be 9b 58 cb bc 7d ab 23 be d9 9d 82 3e
       -0.25652114 -0.024822524 -0.15983386 0.25511053
0000e0 7a f9 82 be 0e 38 74 3e d1 e7 d3 bd 70 38 8c 3d
       -0.2558096 0.23849508 -0.1034695 0.06846702
0000f0 74 bb 52 be b2 45 7c be 27 30 3f 3e dc f3 53 3d
       -0.2057932 -0.24635962 0.18670712 0.051746234
000100 0f b2 d6 3d 51 63 6f bd 5c 98 ef be df d2 bf 3d
       0.10483181 -0.058444325 -0.46795928 0.09366392
000110 da 5e 0d 3e 76 0c d7 be aa c0 22 3e 0c 87 5a 3e
       0.13805714 -0.42001694 0.15893808 0.21340579
000120 31 dd 06 be 94 a3 d7 bc 07 70 1d be 74 b7 9f 3d
       -0.13170315 -0.026323117 -0.15374766 0.07798663
000130 20 91 ff bd 68 96 2c be d9 a2 a3 be 2e 3f ca 3d
       -0.12478852 -0.1685425 -0.3196018 0.09875332
000140 df e0 95 be a7 bc a1 be 9f b9 0a 3d 39 f5 13 3e
       -0.29273126 -0.31589243 0.03386843 0.14449014
000150 fc e1 8e be 86 b5 94 bb df fe a2 3d ee bb 6c bd
       -0.27906787 -0.004538241 0.07958769 -0.05779641
000160 f2 e3 ca 3d e1 db 80 bd 61 ed 24 be 02 94 8c bd
       0.09906758 -0.062919386 -0.16106178 -0.06864168
000170 60 e3 b6 3d 51 75 8f be 7a 44 d2 bd f1 1f 6b be
       0.08930087 -0.28019193 -0.10266967 -0.22961403
000180 52 37 ed bd 3e 13 88 3d 1f d1 f3 3c b2 98 57 be
       -0.11582817 0.06644295 0.029762803 -0.21054342
000190 06 54 a8 be cf 32 33 3e 96 7d 87 be 24 0c 6b be
       -0.32876605 0.1749985 -0.26463002 -0.2295385
0001a0 11 d2 88 3b b8 2e 3c be a7 6f 4c be a5 39 96 3d
       0.0041754325 -0.18377197 -0.19964467 0.073352136
0001b0 13 82 68 bd a7 84 98 3c cb 8f 8f 3d b8 ce 07 3d
       -0.056764673 0.018617941 0.07009848 0.033156127
0001c0 38 37 8b 3d b7 f1 1f be 94 b1 a0 3d 4a ee d9 bc
       0.067976415 -0.1561955 0.0784637 -0.026602883
0001d0 c5 61 b0 3c c9 9a 6c 3e 52 11 38 be d4 87 88 3d
       0.021530995 0.23105921 -0.17975357 0.06666532
0001e0 74 d5 05 be 51 59 d7 3c 78 44 f3 3d 78 3e dd 3e
       -0.13069707 0.026287707 0.11878294 0.43211722
0001f0 24 25 1c 3e 79 83 6f be 90 12 ad be e5 56 47 3e
       0.15248543 -0.23389997 -0.33803225 0.19466741
000200 97 a0 33 be f7 39 0b 3e bc 47 0a be 77 05 90 bd
       -0.17541729 0.1359633 -0.13503927 -0.07032292
000210 1e 3b 43 be eb a6 41 bd 14 4b 2e be 09 a1 86 bc
       -0.1906552 -0.047278326 -0.17020828 -0.01643421
000220 ea 9d fb 3d ac d9 04 bd 7d 7a ea b8 4a cd 83 be
       0.12285979 -0.03243415 -0.00011180805 -0.2574256
000230 c9 e7 a0 bd 13 bb b1 bd 43 8c c5 3d e5 a1 23 bd
       -0.078567095 -0.0867826 0.096458934 -0.039949317
000240 b0 fb d5 bb af c2 11 3d 75 17 26 3d f3 b0 5d 3e
       -0.0065302476 0.035586055 0.040549714 0.21649532
000250 1f a3 47 be 65 72 65 bc 47 19 a2 3d 90 03 c9 bd
       -0.1949582 -0.014004325 0.079149775 -0.098151326
000260 8e 8a ef bc 23 00 26 bd e3 b1 a4 bb 64 b4 ed 3d
       -0.029240873 -0.040527474 -0.0050260886 0.116066724
000270 2c 33 c9 bd 94 4c d7 bd 45 f1 b9 3d ec f4 53 be
       -0.098242134 -0.10512653 0.09079222 -0.20698899
000280 bd d7 46 3d d0 ac 96 be 43 a7 c0 bd 66 76 02 bc
       0.048545588 -0.2942872 -0.09406903 -0.007962799
000290 50 fb be bd a7 e8 e3 3d 46 4c 6e 3e 57 94 d6 3d
       -0.09325278 0.11128359 0.23271284 0.10477512
0002a0 8b 20 dc 3d a4 6a ac 3a 99 1c 9c bd 57 a8 fd 3d
       0.107483946 0.001315434 -0.07622642 0.12385624
0002b0 ac 8b 08 3e e7 22 4b 3d 16 7e 3c be bd bf 67 3e
       0.1333453 0.049593832 -0.18407473 0.22631736
0002c0 26 47 b7 bc 70 84 3c 3e f5 90 08 3e 6c 57 8e bd
       -0.022372793 0.18409896 0.13336547 -0.06950268
0002d0 a7 fc 18 bd b3 41 eb 3d e4 99 64 bd c0 65 22 be
       -0.037350323 0.114871405 -0.055810824 -0.15859127
0002e0 a0 e8 48 3d aa ad eb bd 75 60 19 3e 5b 1d f3 bd
       0.049049973 -0.11507733 0.14978202 -0.118708335
0002f0 f0 2d 9f bd e8 40 6e 3c 3f 2a 2c 3e b2 5c a7 3d
       -0.07772434 0.014541842 0.1681299 0.08171977
000300 f7 72 5d 3d ac dc 8e be a4 a6 d5 3d 1f f2 d7 bc
       0.054064717 -0.27902734 0.10432175 -0.02636057
000310 35 c5 df 3e 1a b2 8b be 69 71 35 bd 71 87 2d be
       0.43705145 -0.27284318 -0.04429761 -0.16946198
000320 f2 7c 34 be b3 e8 6f bd 1d 94 05 bf 24 ed 1d 3f
       -0.17625788 -0.05857153 -0.5217913 0.6168997
000330 47 6c 89 be 4f 69 00 be 8e 52 6a be c4 2d 2f 3d
       -0.26840422 -0.12540172 -0.22883055 0.042768255
000340 f9 94 97 be 4d 8f 8a bd ff 03 35 be 47 7a 5c 3f
       -0.29605845 -0.06765614 -0.17677306 0.8612408
000350 9f 82 8a bc c0 27 4e 3e fb 5d b4 3e 26 60 c1 3d
       -0.016907988 0.20132351 0.3522795 0.09442167
000360 d3 b4 4a 3d d3 77 53 be 07 6f 60 3e fd 34 96 bd
       0.049488854 -0.20651178 0.21917354 -0.073343255
000370 8c 7e 34 3c 06 2e 47 be 89 a3 e1 39 69 eb 1a be
       0.011016499 -0.1945115 0.00043037187 -0.15128864
000380 7f 9c de bd d8 9a 85 3e 29 ec 85 be e0 86 dc be
       -0.10869693 0.260947 -0.26156738 -0.4307165
000390 61 3e 8c be f5 8f df 3d c1 71 a3 3e fb 88 80 be
       -0.2739134 0.109161295 0.31922725 -0.25104508
0003a0 de a2 d3 bd 6c a8 c6 bd 48 d4 26 bd b8 79 3a 3e
       -0.10333799 -0.09700093 -0.04072979 0.18210495
0003b0 4d 81 75 3e 32 75 ef 3e f9 e7 47 3e 2f 24 63 bc
       0.23975106 0.467691 0.19522084 -0.013863607
0003c0 c5 19 b3 3d 9b 1e a4 3e 29 77 e9 bd a9 66 48 3c
       0.087451495 0.320546 -0.11399681 0.012231507
0003d0 25 b0 2d be 3f 00 4e 3e d6 ab 92 bd 35 95 77 3e
       -0.16961725 0.20117281 -0.07161681 0.24178012
0003e0 54 d7 2a be 53 08 f1 3e 87 d6 1d 3e db 6c ff 3d
       -0.16683704 0.47076663 0.15413867 0.124719344
0003f0 75 7c b8 bd 25 b0 e2 bd 6d df 8e 3e a3 d8 da 3e
       -0.09008113 -0.11068753 0.27904835 0.42743406

lstm.weight_ih_l1 f4 [256, 64]
000000 15 e8 c5 be cb 74 a8 3d 4c 2d 84 bf 98 0d 12 bf
       -0.38653627 0.082254015 -1.0326324 -0.5705199
000010 d0 01 7e 3f f8 05 32 ba 1a 93 9e be 69 1b 13 3f
       0.99221516 -0.00067910505 -0.30971605 0.574637
000020 8a 7f 9a bd b0 ab 91 3e c2 13 a7 3e a7 60 23 bf
       -0.075438574 0.284513 0.32632262 -0.63819355
000030 49 65 5d bd f3 29 5b be 6a 5c d6 3e 1d 59 ff bd
       -0.05405167 -0.21402721 0.4186738 -0.12468169
000040 6c 98 42 3e f3 51 36 bd d6 27 e6 3d c1 f6 2d 3f
       0.19003457 -0.044511747 0.11238067 0.6795464
000050 dd 20 32 bf 21 1f 4f bf 8b c6 71 3f b3 91 89 3d
       -0.69581395 -0.80906874 0.9444358 0.06717243
000060 77 c0 35 be c6 49 00 bb 75 07 52 be c5 b5 4a bd
       -0.17749201 -0.0019575222 -0.20510657 -0.049489755
000070 ad bc 0c bf d1 26 3f 3d 58 77 01 3f 53 7c 7b bf
       -0.54975396 0.046667878 0.5057273 -0.9823658
000080 bb b9 ba 3e 62 26 de be d2 ee 17 be 5c 52 49 3e
       0.36469826 -0.4338866 -0.14837196 0.19660324
000090 e4 79 5a be 39 a5 3e 3f fb ba 23 3f 19 ec ce bd
       -0.2133556 0.7447086 0.63957185 -0.10103626
0000a0 37 30 8f 3e ef 59 0d bf ac cd fd be d4 76 33 bf
       0.27966473 -0.5521535 -0.49570978 -0.7010319
0000b0 4d 09 85 3f f5 98 4c 3f 13 fb f6 be 8a 02 10 3f
       1.0393463 0.79920894 -0.4823843 0.56253874
0000c0 52 52 d9 3d c4 42 bd be 06 54 3d 3e 0c 2d a8 3b
       0.106114045 -0.36965 0.18489084 0.005132323
0000d0 66 61 62 3f e7 92 3b be 96 8c 53 3e d7 d8 27 bf
       0.8842987 -0.18317758 0.20659098 -0.65565246
0000e0 2f 0c c4 3d eb a3 4c bf da e5 b9 be c5 c6 20 bf
       0.09572636 -0.7993762 -0.36308175 -0.628033
0000f0 1c 9f c7 3e 3b b5 65 3e 83 c1 9e 3f 56 cf 70 bf
       0.38988578 0.22432415 1.2402805 -0.9406637
000100 98 c2 23 3e d5 f5 3c 3e 21 1e 56 3e 9b 8c 6e 3e
       0.159922 0.18453152 0.20909931 0.23295824
000110 53 bf 04 be 93 e5 2e be 1c ee dc bd b5 73 0d be
       -0.1296361 -0.17079763 -0.10787603 -0.1381367
000120 88 46 25 3e 81 ef 1b be e2 28 91 3d 17 fa 7f 3e
       0.16140187 -0.15228082 0.07087876 0.24997745
000130 21 b8 4d be 23 05 0e be 2c 13 4c be d5 c2 a4 be
       -0.20089771 -0.13869147 -0.19929188 -0.32179895
000140 64 4d 4c be 16 ff 89 3e 9b 1d 5a 3d b1 20 32 be
       -0.19951397 0.26952428 0.05325089 -0.17395283
000150 77 ea d8 bd da 84 b9 3b 91 11 31 be 68 a4 a2 be
       -0.105915956 0.005661589 -0.17291857 -0.31766057
000160 12 ee d5 bd 79 96 d7 3d aa 4c 39 be d1 ee 98 bd
       -0.10445799 0.10526747 -0.18095651 -0.074674256
000170 d4 5e 21 3e d6 8f 81 3e 35 16 e4 3c 40 f3 79 3e
       0.1575883 0.2530505 0.02784262 0.24409199
000180 36 97 7e 3d b1 e1 16 be 17 e9 3c 3c 98 a1 4e be
       0.062155925 -0.14734532 0.011530182 -0.2017883
000190 94 d2 c4 bc 8b 94 f4 bd 0e 39 88 3e e2 0d e8 bd
       -0.024026193 -0.11942395 0.2660603 -0.11330773
0001a0 9c 96 38 3e d8 09 08 be 04 7b 1f bd 9e ad 0b be
       0.18026203 -0.13285005 -0.038935676 -0.13640448
0001b0 f0 35 38 3e 48 f2 43 bd 12 65 03 be 01 9a 96 3b
       0.17989326 -0.04783848 -0.12831524 0.0045959954
0001c0 b6 7f 77 3e 72 f8 f0 3c 35 4f fb 3d 7d 4b 81 3d
       0.24169812 0.029415343 0.12270967 0.06313226
0001d0 9e 08 e7 bd 38 35 a2 3e 98 ff 47 be 4a 95 6a bd
       -0.112809405 0.31681228 -0.19531095 -0.05727128
0001e0 d2 14 a5 bd ad 57 c7 3d 8f 22 4e bd 2b 7d 4d 3e
       -0.08060612 0.0973352 -0.050325926 0.20067279
0001f0 03 f6 c8 bd 61 bd 24 be 34 0d 58 bd 9a 65 02 3f
       -0.09812548 -0.16087867 -0.052746966 0.5093628
000200 95 c0 03 3d 64 74 14 3d 33 07 34 3e 76 08 22 bd
       0.032166082 0.03624381 0.17580871 -0.03955885
000210 0c 38 85 be 27 3d 06 be bf d8 c8 bd 16 f1 74 be
       -0.26019323 -0.13109265 -0.09806966 -0.23920092
000220 54 48 32 3e 92 f0 7d be fb 13 e7 bc 56 b5 d1 3d
       0.17410403 -0.24798802 -0.02820777 0.10239665
000230 1d 50 c8 bc ee 5d 03 be a8 da fb 3d 2a ad a9 bd
       -0.024452263 -0.128288 0.12297565 -0.082849815
000240 64 dc 33 be 9a 82 7e 3e ef 71 0e 3e 22 f9 a1 3e
       -0.17564541 0.24854508 0.1391065 0.31635386
000250 7e fa ee 3d f0 8a 2a 3e 52 0b 38 be 0b a9 5a be
       0.11668871 0.16654563 -0.17973068 -0.21353547
000260 12 77 a3 be 63 36 96 3d 47 c8 29 3c b0 3a 13 3d
       -0.3192678 0.07334592 0.010362691 0.03594464
000270 bb 68 38 3e 98 3b 07 3d 0d e8 dd 3d 09 af dd 3d
       0.18008702 0.033015817 0.10835276 0.10824401
000280 af 3f 2d bd b9 16 de 3d bd 71 1c bd f5 06 41 be
       -0.04229706 0.10844178 -0.038194407 -0.1885031
000290 fb 65 8f 3e bb fc e9 bd 75 11 89 bb a3 cd 79 be
       0.28007492 -0.11425158 -0.0041829892 -0.2439485
0002a0 7a 7d 07 be 8b 3e e1 bd e5 48 10 3e 14 65 44 bd
       -0.1323146 -0.10998257 0.14090307 -0.047947958
0002b0 5f ae 3e be bc 26 d7 bc d2 99 35 3d 82 bc 30 3e
       -0.18621205 -0.026263587 0.044336148 0.1725941
0002c0 ac 1b 49 3d 6a 5d ee 3d d5 7c 21 3e 09 99 bc bd
       0.049098656 0.11638911 0.15770276 -0.09208877
0002d0 f3 f1 6d bd da 20 76 3e 2d db 86 be 1b 4b ee 3b
       -0.05809207 0.2403597 -0.26339093 0.007272137
0002e0 e0 da 17 be e5 11 87 bd e8 ab 09 be 12 3e 54 be
       -0.14829588 -0.0659521 -0.13444483 -0.20726803
0002f0 1d 7d c0 3d e4 cc 14 be 0a a3 c3 be 60 23 7b 3e
       0.093988635 -0.14531285 -0.38210326 0.24525213
000300 4a 14 3e 3e 5c ef 78 39 ac ff 04 3e 82 56 5f 3e
       0.18562427 0.00023740291 0.12988156 0.21810344
000310 17 fd e2 be e2 bb 6d bd ab 9d 7e bd 2b 2c 45 be
       -0.44333717 -0.058040507 -0.062162083 -0.1925513
000320 4d 47 34 3e a5 c8 8f be 4b 9a ca bd 8b 40 f1 bd
       0.17605324 -0.28082767 -0.0989271 -0.11779889
000330 e7 b4 65 be 91 aa 29 be ad c3 09 be ce 62 54 be
       -0.2243229 -0.16568972 -0.1345355 -0.20740816
000340 06 fe 6f be c5 8d d7 3e 46 ad 22 3e e3 06 20 3e
       -0.23436746 0.4210035 0.15886411 0.15627627
000350 b7 9b 41 3e 47 e4 a4 3d b3 51 ba be b2 93 2b be
       0.18907057 0.08051353 -0.36390457 -0.1675556
000360 a3 b3 84 bd ce cd 99 bd 0f cc eb be 3f 92 c4 3d
       -0.064795755 -0.07509957 -0.46054122 0.09598207
000370 8b ce a7 3d 7b 49 f9 3c 42 ff 02 3e 72 92 10 3e
       0.08193692 0.030430546 0.12792686 0.14118364
000380 93 4f e4 3c d4 06 6b be 2f e2 ad bd 42 c1 08 be
       0.027869975 -0.22951823 -0.08490407 -0.13354972
000390 f7 32 f6 3d 1f 96 2f 3c b5 b6 21 be ce 83 ba be
       0.120214395 0.010716944 -0.15792353 -0.36428684
0003a0 6f b0 56 3d f3 8f 2d bd dd 50 ad 3c f4 22 59 be
       0.052414354 -0.04237361 0.021156723 -0.2120474
0003b0 89 ee 5e 3e 4d 4a 9d bc 14 9e 5d bd 51 27 79 bc
       0.21770681 -0.019200468 -0.054105833 -0.015207128
0003c0 e6 d3 65 3e 0c 69 28 3e db a2 03 3e 4c 94 6e 3a
       0.22444114 0.16446322 0.12855093 0.00091010774
0003d0 0c 62 bc 3d b8 77 00 be 69 2f 8b be 0c e9 96 bb
       0.091983885 -0.12545669 -0.2718461 -0.004605418
0003e0 e3 8f c2 be bf e8 44 3d 24 cb 4c be ad 7e 97 3e
       -0.38000402 0.048073526 -0.19999367 0.29588833
0003f0 99 93 54 be 90 70 de bd aa 32 74 be 93 0a 8c 3e
       -0.20759429 -0.10861313 -0.23847452 0.27351817

lstm.weight_hh_l1 f4 [256, 64]
000000 4a c5 d8 be 1e 14 16 3d 78 86 09 be 55 65 57 3d
       -0.4233802 0.03664028 -0.13430202 0.052586872
000010 f4 76 82 bd b3 4d 88 bd 90 2d d1 bd 98 ca b5 3e
       -0.06370345 -0.06655445 -0.102137685 0.3550613
000020 74 ad 9b bc 2b 0d 73 3d 2f a1 50 3d c8 45 08 3e
       -0.019003607 0.05933873 0.050934967 0.1330787
000030 5c eb 4b 3e 2d dc 7e 3e ed 80 44 3c 8e 05 44 3e
       0.19914001 0.24888678 0.011993629 0.19142744
000040 e8 d0 7a 3f a7 0b e6 be 33 75 23 3d e7 83 a8 be
       0.97975016 -0.44930765 0.03990669 -0.32913134
000050 70 aa f1 3e de 9d 17 be cb 18 21 3c a1 8d ec bd
       0.47200346 -0.14806315 0.009832571 -0.11550451
000060 50 91 33 be 0a 81 ac 3e 19 e7 2c bd ac 86 1e 3f
       -0.17535901 0.336922 -0.04221258 0.6192424
000070 b8 bf 10 3f b3 73 06 3e 8e 2c 14 3e 0f 03 1b 3d
       0.5654254 0.13130073 0.14470121 0.037844714
000080 ab cf dd bc 10 1b f1 be 4e bc eb be 04 43 d9 3d
       -0.027076563 -0.4709096 -0.46042103 0.10608485
000090 bd 54 0c 3e 2b c3 6b be f3 76 ef 3d 79 d1 a2 3d
       0.137042 -0.2302367 0.1169261 0.0795011
0000a0 37 fb 46 bd 79 f5 ce be 65 d4 58 3d 66 22 b6 3e
       -0.04857942 -0.40421656 0.05293693 0.3557312
0000b0 14 e1 b9 be cd c2 15 be 80 9f e1 3e fd cc 8c bd
       -0.36304533 -0.14625092 0.44067 -0.06875036
0000c0 ff 06 cc bd 91 13 2b be df e2 d2 3e 27 93 00 be
       -0.09962272 -0.16706683 0.41188714 -0.12556134
0000d0 1d 6c c8 3b 38 36 dd 3d a8 ac 87 3e 2a a1 9e 3d
       0.0061164037 0.10801357 0.26498914 0.07745583
0000e0 37 f4 1e 3e 2d ed 99 3e a9 1b 57 bf 2c be c7 3d
       0.15522848 0.30063763 -0.8402658 0.09753069
0000f0 f6 55 84 ba e5 6f 63 bd 73 c6 c3 3e 18 3b 44 be
       -0.0010096419 -0.055526633 0.38237342 -0.19163167
000100 1f a2 6a bb fe ac 3e be 62 df 1f be 06 0e 6a 3e
       -0.0035802198 -0.18620679 -0.15612558 0.22856912
000110 9f 2c 66 3e e2 96 84 be 4e 23 d2 bd 64 48 c8 3e
       0.22477959 -0.25896364 -0.1026064 0.3911773
000120 75 1d 14 3e 6f 60 22 3e 1e 90 d0 bd f4 53 c3 bd
       0.14464362 0.15857099 -0.10183738 -0.09537497
000130 1f b6 99 be 3d c2 96 3e 01 7d 72 3e 1f c5 2e 3e
       -0.3002176 0.29445067 0.23680498 0.17067383
000140 a9 0f 6f bc 82 b9 b0 3e 13 83 88 3d 59 a9 11 be
       -0.014591136 0.3451653 0.066656254 -0.14224757
000150 2f de a6 3d d3 b0 42 3e 79 0d 0e be 44 ec 34 3e
       0.08147847 0.19012766 -0.13872327 0.17668253
000160 c6 c1 c1 3e 5a 72 90 be 33 62 20 be f7 c7 07 be
       0.3784315 -0.28212243 -0.1566246 -0.13259874
000170 ab 4b 85 3e 5a 20 14 3d c7 2f 09 be a5 9a 41 be
       0.26034293 0.036163665 -0.13397132 -0.18906648
000180 45 a3 e8 3d b5 97 51 be d7 bd b1 3c af b5 9a be
       0.11359266 -0.20468028 0.021696968 -0.3021674
000190 fd 9b 44 3e 16 82 1f be 12 c9 96 3e f7 0c 50 3e
       0.1920013 -0.15576968 0.2945028 0.20317446
0001a0 c1 b0 0b be 61 0a 87 be 62 d0 a1 3e 88 20 02 3d
       -0.13641645 -0.26375106 0.31604296 0.031769305
0001b0 f9 71 a8 bd 17 cc b2 bd ea 6c 92 3e 15 69 98 3e
       -0.082248636 -0.08730333 0.2859872 0.2976767
0001c0 c9 da a2 be 68 9f 38 be 2a 41 56 3e 7e bf a8 be
       -0.31807545 -0.18029559 0.20923296 -0.32958597
0001d0 f7 2e b7 3e d5 3b 3c 3e c2 9e 8f 3e 7f cc ee bd
       0.3577802 0.18382199 0.2805081 -0.11660098
0001e0 53 64 0a 3d 2a 31 ab 3e ea ba 48 be 45 8b a2 3e
       0.033787083 0.33435947 -0.19602552 0.3174688
0001f0 e2 6f 9f be 15 dd 71 3e e2 0b 2c be 81 a7 ad be
       -0.31140047 0.23619492 -0.16801408 -0.33916858
000200 ec 61 82 3d b5 fd f7 bd e6 01 84 be fa 14 82 3e
       0.06366333 -0.12108938 -0.25782698 0.2540663
000210 bb 32 37 3e 17 e2 ea be 82 c3 0c be cd c5 25 3e
       0.17890446 -0.45875618 -0.13746455 0.16188736
000220 b9 95 c2 3d ce c8 5a be 30 c5 2b be 58 86 5f be
       0.095012136 -0.21365663 -0.1677444 -0.21828592
000230 14 63 50 be 92 9b 69 3e e9 9d a0 3e 74 02 01 3e
       -0.20350295 0.22813252 0.31370476 0.12598592
000240 0f b6 4b 3d 95 69 1e 3e 42 87 3c 3e 3a df 22 be
       0.04973417 0.15469964 0.18410972 -0.15905467
000250 93 e4 b3 3d 4a b9 9d 3e 6b dd b2 be 12 ad 15 3e
       0.087838314 0.30805427 -0.34934554 0.14616802
000260 92 0b 9a 3e 5d 33 af be 89 7d 26 be 43 76 9d 3d
       0.30086952 -0.34218875 -0.16258825 0.07688572
000270 2a 03 54 3c 17 18 ba be 56 2c 9c be 7e 71 b3 be
       0.0129402075 -0.36346504 -0.30502576 -0.35047525
000280 44 0f aa 3e fc ee b5 bd f0 91 83 be 13 2c f2 be
       0.33214772 -0.08883473 -0.2569728 -0.4729925
000290 5c 0d 59 bd d2 b4 8e bd af bf 9d 3e 47 52 2d 3e
       -0.052991256 -0.069680825 0.30810305 0.16925918
0002a0 49 3a a8 bd 83 47 dd be 6c f7 b5 3e ae 48 4e 3e
       -0.08214242 -0.43218622 0.3554033 0.20144913
0002b0 5b 21 c8 be 15 61 30 3e 34 eb 14 3f fb 46 fb 3e
       -0.39087948 0.17224534 0.5817139 0.4907759
0002c0 54 97 3a be a0 7e 8e be f7 57 bd 3e bb a7 89 be
       -0.1822179 -0.27830982 0.36981174 -0.2688578
0002d0 b0 cb d0 3e ed 17 b8 3e 62 e7 71 3e 2d 73 45 be
       0.407804 0.35955754 0.23623422 -0.19282217
0002e0 b1 e7 71 3b 4d 5c df 3e 77 60 d6 bd 5e ae ce 3e
       0.003691178 0.43625107 -0.10467618 0.40367407
0002f0 74 19 69 be 81 0d ce 3e 1f 0d 20 be 08 75 72 bd
       -0.22763616 0.40244678 -0.15630005 -0.05919364
000300 6e ac 9c bc e4 0d be bd d9 dc fc bd b3 3f 42 3e
       -0.01912519 -0.09279993 -0.12346811 0.18969612
000310 2c 6c 93 3e cf 6c f1 3d 7d f3 e9 bc ac b8 38 3e
       0.28793466 0.11788332 -0.028558487 0.18039197
000320 ad f4 16 3e 45 06 45 bd a3 74 2e be 25 1b 50 be
       0.14741774 -0.048101682 -0.17036681 -0.20322855
000330 64 9a 73 be 02 35 f9 3c 64 b5 4e bd d8 af 8d 3e
       -0.23789364 0.030420784 -0.050465956 0.2767322
000340 f4 9f 1f be 01 5f 2f 3e cb 7d 5a be 14 5a 93 bd
       -0.15588361 0.17126085 -0.21337049 -0.071949154
000350 c7 74 b8 3e 0e 9a ea 3d 2c 34 55 bd d5 d3 c4 3d
       0.36026594 0.11455165 -0.052051708 0.09610716
000360 1e a1 13 3e c8 59 e2 be 6b f8 23 be 8f 8e 88 3c
       0.1441693 -0.44209123 -0.16012733 0.01666954
000370 92 15 d5 3a c5 f8 4e be f0 4a e7 3d f1 f4 84 be
       0.0016257039 -0.20212086 0.1129359 -0.25968125
000380 ef 5f e2 3d e1 b2 35 be a1 43 01 be 3a f0 ec bd
       0.11053454 -0.17744018 -0.12623455 -0.11569257
000390 d2 39 4a 3e 51 80 27 3d 7a 83 ab bc c3 ba 99 3e
       0.19748619 0.040893856 -0.020936716 0.300253
0003a0 f3 af 9c be 41 5f a3 bd 64 68 8e 3d 07 61 4f 3e
       -0.3060299 -0.079771526 0.06953505 0.20251857
0003b0 0f a4 b6 bd 1b f6 d5 3e 76 d7 7a 3d 19 6f d2 3e
       -0.089180104 0.41789326 0.061240636 0.41100386
0003c0 f5 d4 e0 bd 9a 0a 23 3d c8 b9 15 3e 08 84 28 be
       -0.10978118 0.039805032 0.14621651 -0.16456616
0003d0 17 27 96 3e 31 9d 77 3c e1 48 44 bd 52 fc 14 bd
       0.29326698 0.015113161 -0.047921065 -0.036373444
0003e0 69 7f a5 3d f6 68 ae 3e c1 d1 6a bd d5 d4 2e bd
       0.08080942 0.34064454 -0.057328943 -0.04268344
0003f0 cb a8 20 be a0 08 c7 3d ec 9d 6e be 89 36 c8 be
       -0.1568939 0.09718442 -0.2330243 -0.39104107

lstm.bias_ih_l1 f4 [256]
000000 52 d8 85 3e 90 54 48 be d1 9a 1c be bf a8 e3 bd
       0.26141602 -0.19563508 -0.15293433 -0.1111617
000010 40 ca 83 3b 35 8b 16 bc e3 16 2f bd 80 5f e4 3d
       0.004021913 -0.009188463 -0.042746436 0.11151028
000020 9e c3 81 3e 6e 97 ca bd 8a 89 ca 3d 2f 73 4f be
       0.25344557 -0.09892164 0.09889515 -0.20258783
000030 21 66 b0 3e 60 bd c4 3d 96 98 05 3e 4a 17 77 bd
       0.34452918 0.09606433 0.13046488 -0.060324945
000040 7f 38 cd bc ed d8 7e bd c2 2e 1e be 98 1f 7e bd
       -0.025051353 -0.062218595 -0.15447524 -0.06204185
000050 76 f0 a2 3e d6 10 29 bc 6b e7 e1 bd 4b 7c cd 3e
       0.31824082 -0.010318955 -0.110304676 0.4013389
000060 f8 18 30 bc 78 42 63 be f1 50 4d 3e 68 c0 ec bd
       -0.0107481405 -0.22193325 0.20050408 -0.11560136
000070 c3 92 04 3d c7 42 e6 bd 9b 57 9f 3d e8 5d 53 bd
       0.032366525 -0.112432055 0.07780381 -0.051603228
000080 cc a5 3e be 4f e9 2d 3d fe e0 06 3d 8e 62 74 3d
       -0.18617934 0.04245883 0.032929413 0.0596643
000090 44 ba 7a be f8 48 3c be 39 d8 07 3e 44 00 61 bd
       -0.24485117 -0.1838721 0.13266076 -0.054931894
0000a0 9d 35 31 3d aa 50 07 bd e6 2c 07 be 25 0b 84 3b
       0.04326402 -0.03303591 -0.13200721 0.004029649
0000b0 d0 15 ac bc a3 94 26 be 8b 32 b8 bd f2 65 5b be
       -0.021006495 -0.16267638 -0.08994015 -0.21425608
0000c0 e9 20 e6 bd ee 48 3d be 8b f9 57 3a 91 ba b7 3d
       -0.11236746 -0.18484852 0.0008238784 0.089711316
0000d0 92 dc 22 3d 13 56 04 be d2 ff 03 be 22 4f 95 3d
       0.039761133 -0.1292346 -0.12890556 0.07290484
0000e0 e6 d0 dd bd c9 04 a9 bd 79 5f 80 bc 2a 39 1e be
       -0.1083086 -0.08252866 -0.015670525 -0.15451494
0000f0 86 0b 46 be 79 fb 8c 3d f2 7d 8a 3d 0e 33 ff 39
       -0.19340333 0.06883902 0.067623034 0.0004867543
000100 af 23 e5 bd 01 a8 03 be 9c 9c 72 be d6 02 4e be
       -0.11188447 -0.12857057 -0.23692554 -0.2011827
000110 b5 fd ba bd ee 90 28 be 18 33 2b 3e e4 10 a6 ba
       -0.09130422 -0.16461536 0.1671871 -0.0012669829
000120 fc 93 7e 3e 34 01 18 be 1a ea e3 3e 4c 0a 7c 3d
       0.24861139 -0.14844209 0.44514543 0.061533257
000130 99 db d2 3e d2 e7 bd b9 05 d1 8b 3d 98 3e 13 be
       0.41183165 -0.0003622161 0.06826977 -0.14379346
000140 a3 1a f2 bc df 45 67 bc 94 06 b1 bd 20 2d 2f be
       -0.029553717 -0.01411578 -0.08643833 -0.17107058
000150 ca c6 92 bd e7 03 30 bd 91 25 15 be bc 32 94 3e
       -0.07166822 -0.04297247 -0.14565112 0.28944957
000160 e4 1d 3b be 0d c0 06 be 5a b9 bf 3d e0 14 d1 bd
       -0.18273121 -0.13159199 0.09361525 -0.1020906
000170 9f be 2d be a8 9c fb bc b0 d9 dc 3c cc 6e 16 be
       -0.16967247 -0.030714348 0.02695927 -0.14690703
000180 35 08 df bd 1a 6c d6 bd df 03 e3 3d da d1 98 bd
       -0.10890237 -0.104698375 0.11084723 -0.07461901
000190 7a ef fb bd 4c e7 c5 bd 8c 2a c0 3d d4 e3 3a bd
       -0.12301536 -0.09663257 0.09383115 -0.04562743
0001a0 b0 d3 e2 bd 42 df 09 be 80 8e de bd de 11 22 bd
       -0.110755324 -0.13464072 -0.108670235 -0.03956782
0001b0 90 ea 2d 3d e1 7e 14 be 4b 35 37 be e2 17 22 be
       0.042460024 -0.14501525 -0.17891423 -0.15829423
0001c0 7f db 65 be 57 21 ec bb ed 7c 13 be 2f 64 c5 bd
       -0.22447012 -0.007206123 -0.14403124 -0.09638249
0001d0 8f 83 bd 3d d2 4c d3 3c aa b3 5e bd 1a 66 75 bc
       0.092536084 0.025793467 -0.05437056 -0.014977956
0001e0 0b 17 81 bd c3 38 8c bd b0 de 88 3d e6 6f 79 bb
       -0.06303223 -0.06846764 0.06683099 -0.0038061081
0001f0 8f bf 7c be 73 66 5b 3d fd f4 a1 be 66 45 bc 3d
       -0.24682449 0.0535645 -0.31632224 0.09192924
000200 09 a6 8b 3e d7 93 3e 3e 28 6f 95 3d c2 15 1a be
       0.27275112 0.18611084 0.07296592 -0.15047362
000210 75 df 0b 3e 71 e8 51 3e a9 be 18 3e ca bb fb bd
       0.13659461 0.20498826 0.14916481 -0.12291677
000220 f2 6d cb bd 53 a7 eb bd 1c a3 ef 3d 86 e1 3a 3e
       -0.0993308 -0.11506524 0.117010325 0.18250093
000230 ff 43 80 3d d4 97 96 bd 67 5a 9d be 99 b1 46 bd
       0.06262969 -0.07353178 -0.30733034 -0.048509214
000240 6f 51 c6 bd d3 d8 cb bd 02 31 01 be 46 ce 49 3e
       -0.09683501 -0.09953465 -0.12616351 0.19707593
000250 bf fe 45 be d5 0e d6 3b 7f a0 78 3e bf 34 78 be
       -0.19335459 0.00653253 0.24279974 -0.24238871
000260 ea 27 47 be c8 c3 3e bd a4 55 89 3e 37 27 0d 3d
       -0.1944882 -0.04657343 0.2682315 0.034461226
000270 ed 74 08 bc 85 eb d1 3d e3 6c 3f 3e 33 a5 90 3d
       -0.0083286585 0.1025 0.1869388 0.07062759
000280 0a bd 02 be 8b f1 c3 3d 92 da 6f 3d 3c 11 30 3e
       -0.12767425 0.09567555 0.058558054 0.17194074
000290 3c a6 18 be ed e3 bb 3c f5 de 8d be 77 3a df bd
       -0.14907163 0.022935832 -0.27709165 -0.10899823
0002a0 ab a2 62 3e 28 03 8b bd 0f 7c 5f be 8d 8f d3 bd
       0.22132365 -0.067877114 -0.21824668 -0.103301145
0002b0 43 6e 27 3e 06 69 eb bc 8e 63 8d bd 83 a5 c4 bd
       0.16350655 -0.028736603 -0.06903754 -0.09601881
0002c0 c4 ab c9 3d 88 d7 64 3e 1c 92 2c be c7 21 c8 bb
       0.09847215 0.22347844 -0.16852611 -0.006107542
0002d0 2a 93 78 bd 13 31 a8 bd 9a 1c e1 bd 43 19 a1 3e
       -0.06068722 -0.08212485 -0.109917834 0.31464586
0002e0 11 dd 13 bd 7e cd 33 3c 34 b5 05 3e 43 47 4b be
       -0.036099497 0.010974286 0.13057405 -0.19851403
0002f0 a3 6e 2e 3e c3 b4 7e be 9a 5b 1e 3d d5 0e 27 be
       0.17034392 -0.24873643 0.038661577 -0.16314252
000300 09 3a af 3d 64 c6 9b be 63 27 07 be 10 22 84 bc
       0.08555991 -0.30424798 -0.13198619 -0.016129524
000310 88 05 2a 3d 0d cd 0c be 26 06 d4 bd 33 38 22 3e
       0.04150918 -0.13750096 -0.10352735 0.15841751
000320 27 b1 43 bc c6 1c d7 bd d8 ab 0a 3e 48 ce 76 bd
       -0.011944092 -0.10503535 0.13542116 -0.06025532
000330 fe dc 6d 3d 68 c7 6a 3d 51 f7 35 bd 50 0b 7d bc
       0.058072083 0.057319075 -0.044425312 -0.015444592
000340 f1 62 58 be 42 4d dd bc b5 66 2f be 5f b5 37 bd
       -0.21131493 -0.027014378 -0.17129023 -0.044850703
000350 67 a8 27 be 1d 6e 49 be b4 c0 a4 bc a2 4e 9a bc
       -0.16372834 -0.19670911 -0.02011142 -0.018836323
000360 bc 7f 2b bd 44 9a 82 be 7b f2 da 3d 80 b5 aa 3d
       -0.041869864 -0.2550832 0.10690781 0.083354
000370 ff 47 d0 bd aa cf d3 3c 82 0b e6 bd 2e e9 29 be
       -0.10169982 0.025855858 -0.11232664 -0.16592857
000380 e9 20 97 bc 9c 31 61 3d 03 0c 42 be 7f c5 39 be
       -0.01844831 0.05497895 -0.18949895 -0.18141745
000390 9a dc f8 bd 2a 57 58 3d 59 5a 0d be 7a 2f 75 bd
       -0.121514514 0.0528175 -0.13803996 -0.05985973
0003a0 04 89 99 bd c7 a0 12 bd be 67 ac bc f8 c2 ec bd
       -0.07496837 -0.03579786 -0.021045562 -0.11560625
0003b0 67 62 c0 bc d4 e3 aa be 25 36 1a be b6 36 c6 bd
       -0.023484422 -0.33376944 -0.15059717 -0.09678404
0003c0 c2 c9 fd bd 2e a3 38 3c 81 43 03 be 45 1b 97 3e
       -0.12391998 0.011269374 -0.1281872 0.29512993
0003d0 d7 47 1a 3e e9 99 fe bc d7 0a 1c 3d cf d9 fa bd
       0.15066467 -0.03107925 0.038096275 -0.12248575
0003e0 eb 44 00 3e 0a 8d 41 be 80 a9 fd bb 3b 8a 78 be
       0.1252629 -0.18901458 -0.0077411532 -0.2427148
0003f0 69 37 57 be 75 ae 8d 3c 93 5b 48 3d e4 80 49 3e
       -0.21017231 0.017295102 0.048915457 0.19678074
